01_pytorch_workflow.pth (torch, 256759 bytes, 6 tensors)

fc1.weight f8 [128, 182]
000000 9d 9f 03 6e 64 fb f2 3f 33 2e 65 93 32 dd b3 3f
       1.1863750741413022 0.07759395693317898
000010 00 43 98 64 eb 02 b5 bf 69 1a c2 a4 82 db 82 bf
       -0.08207579809119281 -0.009207745221158707
000020 b0 43 98 64 40 16 b9 bf b1 21 4c da 4f 8b c0 bf
       -0.09799578147818866 -0.12925146254589273
000030 8c 87 30 a9 c9 7b a1 bf 8b 87 30 69 59 f4 af bf
       -0.03414755049040172 -0.06241111191799494
000040 ae 43 98 64 96 83 ba bf b1 21 4c ea e7 30 c1 bf
       -0.10357036548545182 -0.13430499019911005
000050 d7 0c 61 52 9b 14 94 bf 4e 43 98 b4 ef cb b5 bf
       -0.019609858420392392 -0.08514307173778699
000060 72 43 98 94 08 79 b2 bf 68 43 98 54 0b bc b2 bf
       -0.07215932491113877 -0.07318182769109927
000070 92 43 98 b4 6f fd bd bf ca 86 30 a9 ed 96 a0 bf
       -0.11714838179638168 -0.03240149202635008
000080 38 43 98 94 46 6c b4 bf 5f 7f f7 6c dd 87 64 3f
       -0.07977715614130154 0.0025061917037731275
000090 c4 43 98 d4 b2 43 ba bf 58 ba 10 26 75 d2 54 bf
       -0.10259549799253792 -0.0012708801298334706
0000a0 5b 87 30 a9 99 18 a0 bf 2a 43 98 04 b4 59 b6 bf
       -0.03143768492033302 -0.08730626213242645
0000b0 01 88 30 29 7a 13 ab bf ab 43 98 54 67 0f b1 bf
       -0.05288297417452271 -0.06664129081060703
0000c0 f4 86 30 69 e4 16 a3 bf 69 87 30 e9 b9 c7 a5 bf
       -0.037284028854868284 -0.04253941508819887
0000d0 33 87 30 e9 b1 a9 a2 bf 04 87 30 29 e4 54 a0 bf
       -0.03645091983368189 -0.0318976688652253
0000e0 95 88 30 29 08 f4 a9 bf 44 43 98 a4 fc 28 b4 bf
       -0.05068994047930279 -0.07875041025569113
0000f0 a6 21 4c 8a 5c 11 c1 bf 55 87 30 29 a0 6d a2 bf
       -0.1333423304825036 -0.03599262717058475
000100 c5 43 98 74 f5 2c b0 bf cb 21 4c aa f8 79 c1 bf
       -0.0631860170035586 -0.13653477015783574
000110 a7 c4 7b b6 56 6a 71 3f ad 21 4c 9a 1c f8 c0 bf
       0.004251803132988708 -0.13257176908542814
000120 88 43 98 14 ea 56 be bf e3 0f ef d9 7a fe 51 3f
       -0.11851370814134843 0.0010982703895345773
000130 65 87 30 a9 88 47 af bf 33 88 30 e9 6b 54 ac bf
       -0.06109263482382125 -0.05533158513596028
000140 c4 19 c2 a4 a4 de 87 bf 07 0f 61 d2 f0 2f 9f bf
       -0.011655126836797154 -0.030456316795848284
000150 d0 43 98 74 bb a6 bf bf 31 33 84 49 e9 56 7e bf
       -0.12363788219978677 -0.007407103803654989
000160 9d 43 98 14 bb 49 b1 bf 86 43 98 14 aa 2c be bf
       -0.06753129246523178 -0.11786902430345778
000170 ff 86 30 69 81 56 a0 bf 8b 34 84 49 d1 95 7f bf
       -0.03190998467495198 -0.00771123650362172
000180 b3 21 4c 0a 2b fd c0 bf 2e c8 7b b6 4a 57 7f 3f
       -0.1327260780601712 0.007651607367494191
000190 63 0d 61 52 12 e8 9a bf 60 43 98 f4 1a 9b b3 bf
       -0.02627590778162182 -0.07658546897461127
0001a0 8f 0d 61 d2 be 3e 91 bf f1 86 30 69 00 e6 a2 bf
       -0.016840917196771662 -0.03691102298786387
0001b0 e1 87 30 a9 98 bb ac bf 0e 87 30 e9 e3 f6 a0 bf
       -0.05611874642660531 -0.03313362332870727
0001c0 22 43 98 74 ce ce b7 bf 64 43 98 b4 48 6a b8 bf
       -0.09299936625053509 -0.0953717652230473
0001d0 e9 21 4c aa 13 09 c0 bf c5 21 4c 5a e2 8e c1 bf
       -0.12527700248052945 -0.13717297944118748
0001e0 28 43 98 34 cb a8 b7 bf 29 1b c2 a4 1c 67 81 bf
       -0.09241933855106466 -0.008497451570531904
0001f0 09 88 30 e9 7d f3 ab bf b5 21 4c 7a e7 99 c0 bf
       -0.05459207030823172 -0.12969678374817098
000200 e2 21 4c f2 7c 0c c0 bf 3e 43 98 94 9b 86 b7 bf
       -0.12538110571791977 -0.09189770105173253
000210 c3 43 98 54 13 d6 b0 bf 09 0f 61 d2 e6 6e 9f bf
       -0.06576653304388373 -0.030696493711970727
000220 7f 0d 61 d2 33 80 91 bf 65 32 43 98 14 44 37 bf
       -0.01709061595489691 -0.0003550100593770255
000230 9f 88 30 29 54 af a8 bf c1 21 4c 5a b6 5e c1 bf
       -0.04821265223314807 -0.13570289048244713
000240 8a 43 98 04 4c fc be bf de 43 98 74 00 66 b0 bf
       -0.12103724586655865 -0.06405642363121397
000250 40 56 40 24 0d 8f bb bf cc 4b 01 51 a1 f3 bc bf
       -0.10765154013673683 -0.11309250095045725
000260 94 41 58 bc e0 59 bc bf 05 36 e4 63 3c 36 a0 3f
       -0.11074642751942171 0.03166378707292598
000270 7a a6 b4 aa 9e fd c2 bf c9 eb ac 79 a8 35 a8 3f
       -0.14836486182439385 0.04728437886520671
000280 4a 80 6b 50 9a 2c b8 3f 19 ee 4c 05 ba 78 c1 3f
       0.09443058455826861 0.13649678477109786
000290 0d 36 66 2c 65 10 a7 3f af e9 24 12 c1 af c0 3f
       0.04504696051581556 0.1303635920138055
0002a0 36 df 3c 04 0f ed bc 3f 90 1f 22 53 79 7c b4 3f
       0.11299222806416939 0.0800243213617462
0002b0 9b e2 fb 5b 6d 11 8f bf c8 d0 e9 e0 92 e3 a5 3f
       -0.015169958467127478 0.042751874881021446
0002c0 ef 0d 46 fb 6d b0 b7 3f 66 c9 f7 54 32 9a 72 bf
       0.0925358522854862 -0.004541584595687409
0002d0 a5 c3 92 9a 52 71 b4 3f 02 22 2a d7 dd 92 ad 3f
       0.0798541667343345 0.05776112796326417
0002e0 27 00 d3 1b e3 b0 b2 3f 8d 89 f2 af a5 45 c5 3f
       0.07301158360769532 0.16618796435529895
0002f0 7f 97 e0 57 24 54 c8 3f 6e 91 25 f2 36 22 85 3f
       0.1900678090179859 0.010319165482265826
000300 04 26 84 ab f2 cd c0 3f 93 28 32 c2 85 c6 d2 3f
       0.13128503203215314 0.2933668514675755
000310 34 be a6 83 bf 4a b7 3f e2 60 34 b7 2e eb aa 3f
       0.09098431553024328 0.05257554994949644
000320 2d 8b 2c db c5 1d c6 3f 5a 87 fe 11 8c 57 b7 3f
       0.17278359605651286 0.09117961348831952
000330 a8 39 db 6e 1d 78 b0 3f a9 3a 06 ed 89 eb b9 3f
       0.06433280903295346 0.10125028645254965
000340 1f 11 7e 03 fd 1a d2 3f 18 68 8a dc 54 db c7 3f
       0.28289723721560905 0.18638096588694064
000350 09 81 d7 9b 0c 61 c8 3f 11 d9 16 4c d3 6e d1 3f
       0.1904617081590987 0.27238924437132633
000360 79 97 af b2 2d da cb 3f 79 36 09 2a c9 be c9 3f
       0.21759577965638835 0.20113482048548173
000370 82 6d f7 1f 5c fa cc 3f 7f 52 78 56 5a 6b ca 3f
       0.22639037667145706 0.20640114996117018
000380 ca 0b 67 b9 8b e8 c4 3f c3 04 7a 3f 9a 7f b9 3f
       0.16334673455102539 0.09960331010553873
000390 b7 e9 c5 38 97 9b b6 3f 69 75 b9 e3 93 ee 78 bf
       0.0883116258245654 -0.006086900418805421
0003a0 38 d5 da c0 d2 06 b7 bf 26 0a 20 7e e9 aa cd bf
       -0.08994786461228876 -0.2317783227773173
0003b0 94 aa 4b a7 9e 55 d5 bf 31 31 1b 5c 1d 7f d3 bf
       -0.3333508142228905 -0.3046334647631453
0003c0 5b 65 98 21 0f a3 d2 bf 50 18 dd ea a5 be d6 bf
       -0.2912023380354946 -0.35538623748687304
0003d0 74 36 06 82 f4 49 db bf 60 46 00 39 e8 79 d1 bf
       -0.4263888616340872 -0.2730656201029884
0003e0 8b 53 16 c3 5d a1 cc bf 0d 04 7e 7d 22 34 c4 bf
       -0.22367450738661562 -0.1578410256152271
0003f0 f4 e4 a2 d7 ec bb d0 bf 37 0d 00 70 15 42 d5 bf
       -0.2614700418303777 -0.3321584314109773
000400 4a 46 42 27 a2 74 cc bf 7b f3 f3 57 aa c1 ba bf
       -0.22230936924875017 -0.10451759955681254
000410 c2 db bd b1 0f 38 cc bf 88 c7 37 8f a7 73 cf bf
       -0.22046085528174159 -0.24571699612675624
000420 9c 33 4b 35 26 d4 c8 bf 20 27 c0 4b 30 33 ca bf
       -0.19397428133234207 -0.20468715380439395
000430 6a 8b 55 fe 59 92 b0 bf 8e 29 a7 76 80 3a ba 3f
       -0.06473314723329585 0.10245516678620545
000440 c4 4c e2 0b 50 c4 a1 3f 0a 78 1f f7 2e e0 b7 3f
       0.03470087189739382 0.09326451810144945
000450 8d 92 d6 ec 7e 8f b9 3f 78 dc 05 ef ea 61 ad 3f
       0.09984582216436362 0.057387677838897255
000460 91 1e 19 d1 27 bf b4 3f d5 48 3c fa 41 c4 b9 3f
       0.08104180197653423 0.10065090522064975
000470 9e cc 82 27 9c bc c1 3f ba 86 81 d0 72 97 c1 3f
       0.13856841973538264 0.13743434124903847
000480 e0 c7 e6 da ab e8 c3 3f 6a ca b8 23 78 07 cb 3f
       0.15553806484746158 0.21116544479589844
000490 bd d6 bf 09 24 15 c6 3f e1 10 4b 00 dc 40 b2 3f
       0.1725201652149532 0.07130217559012265
0004a0 fe 25 e8 ea 62 4b c1 3f 42 78 4a a7 08 56 80 bf
       0.1351131102567677 -0.007976596455872568
0004b0 2f 8f 5a bb 9e 2f 9e bf 28 d2 f6 f7 b5 4b 93 3f
       -0.029478531060376397 0.018843501338510787
0004c0 3a 7a 1c 6d e1 32 bd bf 72 f5 6c 84 34 99 c7 bf
       -0.11405762590263971 -0.18436295000166641
0004d0 60 f5 b5 d5 d6 b1 cc bf c3 c8 f3 b1 31 c9 c6 bf
       -0.22417722163292364 -0.17801495732380176
0004e0 0d 2d a4 51 7b 3e c8 bf 57 ef 21 60 fd 19 93 3f
       -0.18940679060356339 0.018653830521074024
0004f0 38 93 70 71 f3 0b 61 bf 29 46 ce d0 13 17 83 3f
       -0.002080893969394284 0.00932136040663341
000500 39 77 03 e8 8c b8 8f 3f 4a 86 c8 89 cf df c0 3f
       0.015488720732203741 0.13183016040516043
000510 09 da 49 b0 f3 54 c0 3f fc 9a fc 5f b6 d8 c4 3f
       0.12759252651058287 0.1628635376630071
000520 b8 1a c2 b7 59 77 bc 3f c7 07 37 5d d9 fc 9d bf
       0.1111961434963672 -0.02928485518874149
000530 b7 4b 32 41 d4 1b 8b 3f 0c 47 be 60 c1 de aa 3f
       0.013236673583639431 0.05248073869655742
000540 56 0a 2b a0 4e c6 bc 3f cd a8 ce 03 66 dd c6 3f
       0.11240092668871546 0.17863154588605426
000550 2f af db 5e 5a 21 cc 3f 3b da dd b3 45 1a ac 3f
       0.219767853085949 0.05488794155728668
000560 92 e1 86 b8 50 00 bf 3f 6b 8b 9a 7b 5e 99 30 3f
       0.12109856133509414 0.00025328213414803927
000570 e5 18 c5 71 25 60 a8 bf 7c 28 f3 09 77 2f b1 bf
       -0.04760853780548916 -0.0671305083552926
000580 ee 8a cf db d9 2e bf bf 82 d1 7b f3 40 f5 bb bf
       -0.1218086396834612 -0.1092110247080367
000590 68 92 45 b2 3c b3 b2 bf ab 21 4c 8a bf d0 c0 bf
       -0.07304744102800387 -0.13137048962404427
0005a0 b6 43 98 e4 c9 c9 b9 bf dc 86 30 69 be 88 a0 bf
       -0.10073530035903286 -0.032293272343179885
0005b0 71 cb 66 7c 39 ee 70 3f 8e f9 71 34 19 66 d2 3f
       0.00413343863913239 0.2874815952453894
0005c0 6c bc 82 33 91 81 bf bf 4a bc 82 c3 1e 29 b8 bf
       -0.12307078845582148 -0.09437744401178452
0005d0 a0 bc 82 93 2b e0 b0 bf 25 79 05 27 55 aa ae bf
       -0.0659205660947344 -0.05989328481040194
0005e0 3d 5e c1 29 f5 52 c1 bf 3b 79 05 67 7c b7 aa bf
       -0.13534416712603728 -0.05218113668046206
0005f0 11 79 05 a7 e8 24 ad bf 35 5e c1 59 97 df c1 bf
       -0.056922216785766484 -0.13963596232018607
000600 09 f2 0a ce 20 bc 93 bf a2 bc 82 33 0c 50 b1 bf
       -0.01927233941636256 -0.0676276803740046
000610 78 bc 82 53 64 20 b5 bf 93 bc 82 53 5c 76 b0 bf
       -0.08252551115832485 -0.06430604018054202
000620 3c bc 82 d3 96 84 b8 bf 61 79 05 a7 13 97 a3 bf
       -0.09577315009913517 -0.03826199926219221
000630 48 bc 82 53 a3 a2 be bf 25 79 05 27 26 99 ae bf
       -0.11966915882907003 -0.059762184394218466
000640 22 5e c1 59 e2 a6 c2 bf 51 e3 15 9c ad 32 8b bf
       -0.14571790106377686 -0.013280254674769816
000650 4a bc 82 c3 a6 da b7 bf 5e f2 0a ce 9d 1b 97 bf
       -0.09318010590753648 -0.02256628580174646
000660 87 e2 15 9c ad 38 82 bf 96 79 05 27 f6 98 a2 bf
       -0.008897167516566341 -0.03632325388274464
000670 41 79 05 a7 00 6b aa bf 1e f2 0a ce 88 1d 94 bf
       -0.05159761465869162 -0.019643914771892416
000680 44 bc 82 73 e6 58 bb bf ed 87 57 70 36 10 62 bf
       -0.10682525940022553 -0.0022049964197643408
000690 37 79 05 a7 66 bd aa bf a1 bc 82 73 ab 2c b0 bf
       -0.0522262648471376 -0.06318160600743507
0006a0 42 5e c1 09 9a c2 c0 bf 3a bc 82 43 1f b2 ba bf
       -0.1309387729295271 -0.10428042791566919
0006b0 40 5e c1 99 c0 cb c0 bf 73 79 05 27 92 61 a2 bf
       -0.13121802814088035 -0.03590065695128688
0006c0 13 79 05 67 69 bd ad bf 45 5e c1 c9 f3 61 c0 bf
       -0.058085721803523914 -0.12798926688513937
0006d0 71 79 05 a7 95 9d a1 bf 70 89 57 70 0e 84 69 bf
       -0.03440539993129022 -0.003114727211810102
0006e0 a0 bc 82 33 52 6b b2 bf 22 5e c1 09 d2 9e c2 bf
       -0.07195009000382635 -0.14547181583724106
0006f0 78 bc 82 83 8f ae b6 bf 7e bc 82 f3 3e fc b3 bf
       -0.08860108338079609 -0.07806771702847645
000700 74 bc 82 e3 9a 3d bd bf 62 bc 82 f3 c1 5b bf bf
       -0.11422126821956785 -0.12249386019787914
000710 5a bc 82 13 05 ac bb bf a0 bc 82 13 5e 59 b2 bf
       -0.10809356428465958 -0.07167613960585806
000720 4b 5e c1 f1 03 01 c0 bf 35 5e c1 c9 51 04 c2 bf
       -0.12503098778209884 -0.1407568202146067
000730 7c bc 82 93 5d b4 b4 bf 14 5e c1 59 b6 e8 c2 bf
       -0.08087715960822267 -0.14772681601128623
000740 1e f2 0a ce 63 4b 9e bf 82 bc 82 53 ff 63 b6 bf
       -0.029584464503146994 -0.08746333874545267
000750 fc f1 0a ce e1 7a 93 bf 76 bc 82 93 b6 ad b4 bf
       -0.019023445320941676 -0.0807756528981701
000760 36 bc 82 d3 d4 b0 b8 bf 46 5e c1 b1 2b ff c0 bf
       -0.09644823230586116 -0.13278719119510835
000770 9a bc 82 93 b5 5b b3 bf 2d 88 57 70 16 09 62 bf
       -0.07561812259040082 -0.0022015989550121713
000780 52 bc 82 33 41 ba b7 bf 72 bc 82 43 f7 79 bd bf
       -0.09268577106080159 -0.11514230154237895
000790 5c bc 82 43 06 ff be bf 36 f2 0a ce bc e7 93 bf
       -0.12107886455736278 -0.01943869597993083
0007a0 4f f2 0a ce 15 76 97 bf a6 bc 82 b3 66 9e b0 bf
       -0.02291139669499592 -0.06491701014123183
0007b0 23 79 05 27 bb bf ae bf 4a 5e c1 d9 ff 5e c0 bf
       -0.06005654193244172 -0.12789915211281971
0007c0 39 f2 0a ce ff f0 9d bf 9f bc 82 93 b0 c0 b1 bf
       -0.029239651633121453 -0.06934646226248951
0007d0 6e bc 82 b3 5f 03 bc bf 24 bc 82 e3 ae 0c b9 bf
       -0.10942648060403012 -0.09784977964839975
0007e0 45 79 05 a7 9f cb a9 bf 7c f2 0a ce 63 00 96 bf
       -0.05038165010295129 -0.021485862208225445
0007f0 24 5e c1 79 c6 af c2 bf 55 79 05 a7 7b ab a7 bf
       -0.14598923630795568 -0.04623018659434545

fc1.bias f8 [128]
000000 49 c4 60 ca 43 cf c0 bf 12 eb fb 15 8a 1d b1 bf
       -0.1313252199338726 -0.06685698544235333
000010 da c4 03 3b f0 5f b5 bf be 1c 20 60 32 64 a7 bf
       -0.08349515381611941 -0.04568631575971825
000020 00 00 00 80 19 a5 a7 bf 81 4e 0b 4d 82 20 74 bf
       -0.046181485056877136 -0.004913815487003982
000030 00 00 00 60 bc d8 b0 bf 03 22 49 84 2f 2a b1 bf
       -0.06580712646245956 -0.06704995135908835
000040 20 8d f6 45 9c 5c ab 3f 43 ff 11 8b d5 6f a0 bf
       0.05344093660394322 -0.032103226877551204
000050 83 3e 0b 53 22 fd 68 bf cc 57 0b 9f 30 39 a9 bf
       -0.0030503912351845255 -0.04926444951495021
000060 66 3c e9 7a 6a 54 a7 bf 00 00 00 80 51 b5 91 3f
       -0.04556591749553078 0.017293237149715424
000070 53 52 8b 13 ae 98 a6 3f ec c9 dc a8 ac 5b 8b bf
       0.04413360584809269 -0.0133584488899929
000080 f1 0a 77 c9 83 4a a0 3f d1 1c 38 f1 7a 49 9c bf
       0.031818502753159346 -0.027624054882861074
000090 be 31 7d dd 8d 0d a3 3f b4 61 96 e0 cf df b2 bf
       0.03721278504108082 -0.0737276004132415
0000a0 eb 34 5d 37 44 77 a3 bf 89 80 00 ed 0c 09 99 bf
       -0.03801930595236932 -0.02444858738465475
0000b0 61 71 51 28 08 a2 ac bf 4e a8 6c 4a 6a 3e b2 bf
       -0.05592370502629041 -0.07126488034251219
0000c0 5a 89 58 ab 0b 5b 96 bf cc 2a 7f 06 17 1d a9 bf
       -0.0218316863375859 -0.049050063651142034
0000d0 00 00 00 00 9a 01 7a 3f 00 00 00 00 8e cf 84 3f
       0.006349183619022369 0.01016150414943695
0000e0 e2 9e 2b 8c 75 a2 ac bf 2a 23 c2 14 11 3b a9 bf
       -0.055926965103763285 -0.04927876833341423
0000f0 f5 f0 1d 15 62 bb 89 bf 16 f6 57 40 93 d6 79 bf
       -0.0125644362158188 -0.0063081504827074055
000100 93 e7 a9 da 44 03 af bf cf fd 34 00 06 2f 99 bf
       -0.06057181519731993 -0.024593442690500397
000110 f3 88 b8 16 d2 d1 9d bf 00 00 00 c0 55 eb a4 3f
       -0.029120714794893265 0.040857963263988495
000120 00 00 00 00 60 6b 9f bf 14 38 43 f3 cb b1 b2 bf
       -0.030683040618896484 -0.07302546204593369
000130 00 00 00 80 e5 e9 af 3f 00 00 00 c0 53 89 b1 3f
       0.062331363558769226 0.06850169599056244
000140 69 ee 50 4a de a7 88 3f dc e7 2f fc d2 24 be 3f
       0.01203893341345648 0.11774939209854501
000150 00 00 00 60 2d 79 a3 bf 00 00 00 00 8c ca 7d bf
       -0.03803388401865959 -0.007273241877555847
000160 e7 7b 2c 59 22 3e 66 3f c8 23 ee ec eb eb 87 3f
       0.0027151747575682064 0.01168045346072856
000170 0c 2d df 13 94 c2 8e 3f fc 40 5a 8d 8d 1d ba bf
       0.015019566399038918 -0.10201344204893198
000180 8a 4c 37 1e 78 16 9b bf 98 81 ad 88 f4 a5 90 3f
       -0.02645290073799037 0.016258068887852056
000190 8b 76 88 6f 8f 6f 85 3f ab db 81 82 d0 99 a1 bf
       0.010466690627306782 -0.034376636439382345
0001a0 c0 c7 d3 0f ca 45 ad bf 6b 7e d9 98 07 e7 a4 3f
       -0.05717307513431491 0.04082511654700912
0001b0 b2 6b 21 38 ab b5 b1 bf 8c 12 44 ec 33 3f 92 bf
       -0.06917829628348107 -0.01781922463944112
0001c0 5e 08 c3 14 7d df b6 bf 9d 9f d2 2a 64 85 88 bf
       -0.08934766537552849 -0.011973173672529753
0001d0 00 00 00 80 5b 38 b2 3f 00 00 00 80 c8 b8 ab 3f
       0.07117244601249695 0.05414415895938873
0001e0 aa ef a9 64 ea cf 99 bf 00 00 00 80 f4 69 ac bf
       -0.025207197565108842 -0.05549587309360504
0001f0 a2 ec 0e 16 b8 ca a3 bf 7e da 62 a7 53 60 b8 bf
       -0.03865599889055572 -0.09521982990814057
000200 00 00 00 00 0f 75 8e 3f d6 75 5e 3c fc e5 62 3f
       0.014871709048748016 0.0023069311600483018
000210 22 23 c1 5b a3 c2 51 bf af 1b 8c d9 90 09 b1 3f
       -0.0010840029999760821 0.06655221282208744
000220 c0 b4 03 7f 95 0e ab bf b5 ea ba 56 46 6d 99 3f
       -0.05284564185590446 0.024830912631595498
000230 a4 bc c8 52 b1 a7 a6 bf a2 e7 44 d0 1d d4 a6 3f
       -0.044248143535122325 0.044587070153695466
000240 cf a5 e1 73 b6 5c b5 bf 21 e8 5a fc c1 ac ac 3f
       -0.08344593361984852 0.05600553708559653
000250 9a 6c 03 96 24 7d ac 3f bc cd 49 35 fc 5e b6 bf
       0.05564226466386764 -0.08738685894950654
000260 c0 b4 38 8c db e6 98 bf f6 24 bc 08 af 3a 87 3f
       -0.024318151887361195 0.01134239907652777
000270 fa 3b 95 70 82 83 ae 3f c9 a4 f9 7f 8b 4b 56 bf
       0.05959708809188409 -0.0013607847503414475
000280 00 00 00 00 a7 ee 9a 3f 00 00 00 00 82 53 a0 3f
       0.026301011443138123 0.03188711404800415
000290 90 a4 86 26 61 f8 89 bf 00 00 00 80 6a da 8b bf
       -0.012680777538508076 -0.013600189238786697
0002a0 00 00 00 40 a2 67 a7 3f f1 f7 48 73 db 79 b6 bf
       0.045712538063526154 -0.08779689373565681
0002b0 ae cb 30 c3 3e e4 6a 3f 84 9c 4d 9a 36 ca b0 3f
       0.0032826639012681546 0.06558552996794914
0002c0 c3 ce f1 2f 35 e0 ad bf 0e 94 63 5d 61 27 9d bf
       -0.05835119447956807 -0.028470536541949136
0002d0 88 0c b1 81 ba 8d 66 bf 00 00 00 00 66 4e 8f 3f
       -0.0027531283099349636 0.015286251902580261
0002e0 c5 21 69 8b a3 54 a1 bf 0c 20 f1 86 53 fe a6 bf
       -0.03384886814871239 -0.04490910551299984
0002f0 00 00 00 c0 5b b6 a7 3f 87 e3 53 c9 52 2e b4 bf
       0.04631315916776657 -0.07883183875300236
000300 88 c4 e8 b6 8b 7c b2 bf 3f 9e a4 91 67 88 bf bf
       -0.07221291747625191 -0.12317511850107453
000310 c0 28 ee a3 73 8b ae 3f 00 00 00 00 27 35 9f bf
       0.05965768219091805 -0.030476197600364685
000320 5b 60 94 21 1d 3f 8c bf 9b 5b 07 4b c5 56 95 3f
       -0.013792255007999346 0.020838816360846484
000330 00 00 00 a0 c8 d0 a4 bf 61 6d 21 69 15 e7 84 3f
       -0.04065539315342903 0.01020638205607466
000340 3b 38 d3 19 5e db 7e bf 7c 4f 27 07 e5 53 b6 bf
       -0.007533423978385352 -0.08721763062140825
000350 16 ff 9e 2b e4 1c 8b 3f 00 00 00 c0 f1 fe a8 3f
       0.01323869951363536 0.048820070922374725
000360 96 5e e7 37 af f6 af bf 1f df ab 63 13 71 ad bf
       -0.062428927969162704 -0.05750332442943162
000370 d6 34 9d 20 bf b2 9b bf 48 db a2 e1 27 f4 b2 bf
       -0.02704905163345902 -0.07403802164740825
000380 92 1c 10 4e cd 87 5e 3f 0b 7b 53 b6 68 2c 7c bf
       0.0018634324007978137 -0.006878289253306811
000390 44 54 fc 16 12 d6 b4 bf d8 4f d1 7f af f0 a3 3f
       -0.08139145909474715 0.038945659973847746
0003a0 00 00 00 00 4b 77 97 3f 2a c6 a9 6c 13 7f a4 3f
       0.022916004061698914 0.040032011999653186
0003b0 a8 3f 35 76 f8 c7 9a 3f dc f5 d1 68 99 2d a8 bf
       0.02615345212444678 -0.04722289471190397
0003c0 b6 52 04 57 4b f9 c1 bf 42 96 d9 bc 35 a5 9f 3f
       -0.14042035817023696 0.030903663302885194
0003d0 00 00 00 a0 f6 aa b2 bf 00 00 00 00 c6 20 81 3f
       -0.07292119413614273 0.008363291621208191
0003e0 00 00 00 80 59 df 9b 3f f3 0a 39 08 b1 30 c1 bf
       0.027219198644161224 -0.13429844762330098
0003f0 26 bd f7 2d 89 9a b8 bf e1 ca 37 c7 c8 18 c4 bf
       -0.09610803005465537 -0.1570063565009923

fc2.weight f8 [64, 128]
000000 20 97 b6 b0 12 dc 93 bf 38 b4 2c 99 ea 1f a9 3f
       -0.019394199405403545 0.049071627805780726
000010 55 58 da 34 36 e3 bf 3f 86 d8 77 a6 57 fc 83 bf
       0.1245607260737825 -0.009758648650841428
000020 00 00 00 00 e0 9e 73 bf c1 78 1f 65 b7 8e c1 3f
       -0.004790186882019043 0.1371678584827745
000030 00 00 00 a0 c6 1c b0 3f 3f 60 dd 06 cb 84 a1 3f
       0.06293908506631851 0.034216255748731765
000040 5b e0 f9 7f ab 70 bb bf ac 3f 8c f6 4b 76 a6 3f
       -0.10718795656600959 0.04387128243081348
000050 04 6a 09 01 28 7a b4 3f 23 9a eb 28 bb 16 90 3f
       0.07998895669280875 0.01571171223886315
000060 fc bf e5 89 a0 83 63 bf 00 00 00 00 0c 77 98 3f
       -0.0023821006317845655 0.0238916277885437
000070 69 bc 15 e9 76 56 a5 bf c9 c3 15 31 ec 64 c3 3f
       -0.04167529673838361 0.15151741406182698
000080 0c 2f 83 0a 5f 00 a2 bf 67 69 78 6d f3 8f be 3f
       -0.035159082444435524 0.1193840162526719
000090 fa 5c da 34 29 53 97 3f 33 9d 7e 96 34 08 ab 3f
       0.02277817139710423 0.05279697739688984
0000a0 28 78 d2 56 79 91 a3 bf ad 9b aa 35 b8 9d b0 bf
       -0.03821925339546822 -0.06490660963264246
0000b0 97 2f db 7a aa ba 8f 3f b8 1a 32 51 55 a2 b5 3f
       0.01549275576999047 0.0845082591277827
0000c0 2f 9e 5b 51 8c 6e ba 3f 48 37 60 2f 38 5e bb 3f
       0.10324933038975169 0.10690642506253056
0000d0 00 00 00 00 9d 30 90 3f 00 00 00 00 7d 21 b0 bf
       0.015810444951057434 -0.06301099061965942
0000e0 ea 0c 96 ff 99 e0 b1 bf c8 b2 dd 3d 6d 6a 90 3f
       -0.06983339776893485 0.016030985737802067
0000f0 fa 36 79 a5 91 ca af 3f 43 db 80 48 47 ea b0 3f
       0.062092353295708905 0.06607480545140469
000100 95 b3 e0 0c 2f 50 9d bf c5 cf cb c6 8d 16 a3 bf
       -0.028626189385409246 -0.03728144695006067
000110 e7 64 17 e6 47 d9 a8 3f 00 00 00 00 bb dd a4 bf
       0.048532721364333224 -0.04075416922569275
000120 00 00 00 c0 44 34 ae 3f 3f 1e 86 7f 99 86 ad 3f
       0.058992527425289154 0.05766753846824856
000130 00 00 00 40 bf 92 a6 bf 00 00 00 60 5c 1f b2 3f
       -0.04408834129571915 0.07079102843999863
000140 b9 1d e4 2b a4 a0 ba 3f e0 d9 6f 11 a7 44 b2 bf
       0.10401369163093123 -0.07136005569177639
000150 00 00 00 c0 6b d5 ac 3f 00 00 00 e0 63 e6 a1 bf
       0.056315772235393524 -0.03496086224913597
000160 11 f1 b1 82 6e b4 9d 3f 3d f9 fb f5 8e 5b a9 3f
       0.029008604742998993 0.04952666046846097
000170 32 4a 6c c3 5e e7 73 3f f0 23 fa 4b e4 55 b9 3f
       0.004859323663156933 0.09896685461912091
000180 0a 78 78 15 48 53 c3 3f 94 b4 01 d5 47 5f a0 bf
       0.15097905205124135 -0.031976933242597344
000190 3e 91 1a af 09 51 b0 3f 7e 31 ce 90 ae f3 8c bf
       0.06373653912539098 -0.014136661333190356
0001a0 6a 9d 99 3c 8d 9c 9f bf c7 54 88 cb 6a 0f bc 3f
       -0.03087063486455347 0.10961024731689682
0001b0 58 66 47 a8 7d c8 8f 3f 24 5f fd ed 13 0f a7 3f
       0.015519124696697847 0.04503690986774547
0001c0 14 c1 dd 87 13 3a 60 bf 35 1c 59 f9 0d ba a2 bf
       -0.0019808179339905283 -0.036575733840941295
0001d0 00 00 00 80 e9 95 9f 3f 00 00 00 00 c0 19 96 bf
       0.03084530681371689 -0.021582603454589844
0001e0 3c a9 8e 8e 43 0c a1 bf 00 00 00 00 94 a4 7a bf
       -0.03329669108582542 -0.006504610180854797
0001f0 6f 6e ce 19 30 8e b4 3f 89 0b 80 c7 3a 26 c2 3f
       0.08029461507833856 0.14179167500705273
000200 00 00 00 20 c8 ad b5 3f b0 f4 ec db e6 83 c5 bf
       0.08468294888734818 -0.1680878232818137
000210 54 7e d7 bd c5 c4 b8 3f 5a e6 13 30 88 56 b1 bf
       0.09675250897225257 -0.06772662328503412
000220 37 85 e1 89 75 c7 ab bf b5 1c 26 ff 4c bb 9c bf
       -0.05425612743489199 -0.028058245728541837
000230 d8 6e fe 81 df 63 cd 3f 74 09 8c c2 3e 8f b8 3f
       0.2296103844390618 0.09593574762042129
000240 2d 09 9d 88 88 c9 a3 3f 33 f1 84 de d7 ad 9a bf
       0.03864695232052138 -0.026053784328938078
000250 b3 05 f7 bd ba 0e a5 3f 4f 7b ac 4d 9a 59 a5 bf
       0.041128001870230156 -0.04169923971334432
000260 6a e5 b8 92 5b 5f ad 3f 39 37 c8 6c ed 22 96 3f
       0.05736814657252405 0.021617612614185353
000270 8e d1 47 d7 2e 17 84 3f a4 3f 8a 64 06 30 bf 3f
       0.00980984301075052 0.12182655291166938
000280 00 00 00 20 04 4b b1 3f 00 00 00 00 e0 af 76 3f
       0.0675509050488472 0.005538821220397949
000290 10 e0 c8 33 01 66 94 3f 00 00 00 40 c5 19 9e bf
       0.019920367036519393 -0.02939518168568611
0002a0 00 00 00 00 de 57 75 3f b9 85 fc da e4 0e c1 3f
       0.005210749804973602 0.1332670277852637
0002b0 08 45 1d 6e ce d5 af 3f c6 f3 ff 37 a5 f7 b5 bf
       0.062178088132563814 -0.08581001870329805
0002c0 ce 8a 0f c1 55 82 a5 bf 66 cc d3 cf 29 9b ae 3f
       -0.042010001961690344 0.05977755224184804
0002d0 d6 78 6b 58 7e 03 95 3f 00 00 00 00 55 c7 ae bf
       0.020521139284817767 -0.060114532709121704
0002e0 dd f0 df 04 a6 98 c8 bf 3d 24 4b 6c 4e e5 ac 3f
       -0.19215846288705665 0.05643696853582767
0002f0 00 00 00 20 ed d7 b2 3f 29 41 a6 b9 6e 74 d1 3f
       0.07360727339982986 0.27273147706820794
000300 db 5b 7c cb 2a 46 bb bf ce 08 3f 59 38 3a b5 3f
       -0.10653941600717991 0.08291961840498915
000310 c6 92 cf 7a 2f b9 c0 bf 00 00 00 c0 2a a0 aa bf
       -0.13065141197798463 -0.052003227174282074
000320 cb fa 2c 8d 80 eb b6 3f 1e de be 43 a9 00 9d 3f
       0.08953097769424827 0.02832283473955332
000330 00 00 00 80 7e 4c 9c bf 62 b2 7e 12 31 44 ac bf
       -0.02763555198907852 -0.05520776129501283
000340 05 58 ad c5 a5 51 b8 3f 18 2e 16 2a c1 7c 88 3f
       0.09499584270574253 0.011956700417406416
000350 cb 26 37 f9 2e 05 85 3f 00 00 00 40 78 21 a4 3f
       0.010263792972995308 0.03931785374879837
000360 43 d3 45 cb 60 27 d6 3f b2 d5 b9 f6 71 88 a1 3f
       0.34615344858984914 0.03424411904135684
000370 af e3 b4 1a 23 f0 94 3f d7 75 eb 24 68 01 87 3f
       0.020447300438920454 0.011233152033521527
000380 ea 6b d0 65 62 9c b8 3f 9c 95 84 d4 bd 89 ce 3f
       0.09613623605439128 0.23857853772021265
000390 98 d1 ad a6 1b c8 7b 3f a5 ba 00 67 88 f2 90 3f
       0.006782634746617687 0.01655018929175846
0003a0 00 00 00 60 08 4e a8 bf eb 83 36 e0 42 52 a9 3f
       -0.0474703423678875 0.04945572840666287
0003b0 64 6b 76 f0 b8 1b c2 3f 2d d1 04 05 4c ca b3 3f
       0.1414710210927651 0.07730555651216227
0003c0 43 8c 33 ca d2 18 bf 3f a0 79 be a5 b2 9a b8 3f
       0.12147252499157539 0.09611050173268731
0003d0 00 00 00 80 6f 51 95 bf 00 00 00 80 9d f6 96 bf
       -0.02081846445798874 -0.02242513746023178
0003e0 00 00 00 e0 e2 53 a0 bf 2c 68 73 70 b0 3a c2 3f
       -0.03189000114798546 0.14241605273019908
0003f0 d0 90 18 25 57 68 94 3f 27 93 b2 13 1e 74 d2 3f
       0.019929277075917906 0.28833724902715335
000400 1b bf 4f ab bc ba c1 bf 73 de a4 7f e4 b3 b6 bf
       -0.13851126065082373 -0.08868244282063546
000410 f1 33 e4 13 4e a8 28 bf c9 c4 be 44 61 55 ce bf
       -0.00018812134835180476 -0.2369805894536852
000420 00 00 00 20 4b 31 b0 bf e8 ef c2 f9 95 00 c0 bf
       -0.06325215846300125 -0.1250178784883922
000430 00 00 00 c0 77 e9 a6 3f ef d1 74 20 11 cf 9e 3f
       0.044749967753887177 0.030086772542931624
000440 c1 a4 06 f4 3f 64 b2 bf 00 00 00 60 54 ee b4 bf
       -0.07184219081559019 -0.08176162093877792
000450 fb 24 e2 54 5c 54 8e bf f6 d2 12 94 26 a3 c9 bf
       -0.014809342709002573 -0.20029146413948923
000460 72 3b 1c 31 4e 1d 9e bf 00 00 00 80 10 8c 9d bf
       -0.02940866636987089 -0.0288546159863472
000470 76 8f fe 36 63 2d a5 bf 79 89 f0 32 fd 0b 7e 3f
       -0.041361904586010675 0.007335652407194687
000480 e7 93 95 15 3b bf b8 3f a8 45 79 68 86 57 ad 3f
       0.09666795041046293 0.057308387997760335
000490 39 e1 2f cd 86 30 a5 3f d5 f8 01 c3 53 45 bc bf
       0.04138585333561413 -0.1104328490345979
0004a0 0f b6 1b 24 44 dd 99 3f 37 51 ac 62 da d6 b3 bf
       0.02525812597644089 -0.07749714764606074
0004b0 f7 70 de d1 3c f7 a5 bf a6 2b 5b 09 87 4f 8b bf
       -0.04290189802051885 -0.013335280392672132
0004c0 69 1b a0 9f 84 79 b2 bf 4f 7a 14 33 da 83 91 3f
       -0.07216671845536173 0.017104539268183946
0004d0 00 00 00 c0 55 08 a3 3f 00 00 00 80 c8 42 a2 3f
       0.037172965705394745 0.03566576540470123
0004e0 a9 d6 3e d1 64 6b a8 3f 80 b5 46 09 b4 7b b9 bf
       0.04769434980646043 -0.09954381205053231
0004f0 a2 eb b4 55 bf 33 a4 3f 10 88 01 9d 32 c2 97 bf
       0.039457301342245246 -0.023201742966541927
000500 84 0b 05 ca 9b 55 ac bf f1 6a 14 0a a7 69 d1 bf
       -0.055340641413315544 -0.272073516696465
000510 00 00 00 00 99 75 a0 3f 00 00 00 00 cc 16 81 bf
       0.03214719891548157 -0.008344262838363647
000520 00 00 00 40 82 ce a5 3f 92 5d 8a ca d3 40 a0 bf
       0.0425911620259285 -0.03174459311884016
000530 00 00 00 00 eb d2 98 bf 00 00 00 00 e0 5d 87 bf
       -0.024242088198661804 -0.011409521102905273
000540 5e f0 11 a6 4f 72 c6 bf ff ef bb 08 b4 6f 34 bf
       -0.17536349877252894 -0.00031183381427957174
000550 00 00 00 40 32 0c a4 3f 00 00 00 a0 e0 94 b4 bf
       0.03915555030107498 -0.08039668947458267
000560 a5 0a dd 85 df 6a a6 bf 20 88 33 2e d8 41 a9 bf
       -0.04378412732196083 -0.04933047832470572
000570 0d ad 31 de cd 53 ac 3f f4 16 cc 68 ec d5 ac 3f
       0.05532687508897469 0.05631960658324245
000580 04 d3 01 38 06 7f a3 3f 54 8c 67 17 c1 53 b4 bf
       0.038078493439490685 -0.07940298863791045
000590 5c 14 fb ce 9f a6 97 3f 00 00 00 20 7c 59 b5 3f
       0.023096558578590595 0.08339668065309525
0005a0 fd 05 1c 3f 7f f2 a0 bf e6 12 eb 73 ca b7 a5 3f
       -0.033100105718414576 0.04241783776300227
0005b0 35 15 9f f8 c9 dc b4 bf 41 d8 5c 26 22 fc cb 3f
       -0.08149397201403448 0.21863200066735725
0005c0 0e 16 22 ad 1a 66 d7 bf 00 00 00 40 73 b4 ae 3f
       -0.36560694606336674 0.05997047573328018
0005d0 00 00 00 80 b8 6a 97 3f 00 00 00 00 89 82 93 bf
       0.022868044674396515 -0.019052639603614807
0005e0 ad 2c a8 fc d5 c5 b6 bf 00 00 00 00 62 51 82 bf
       -0.08895623606092569 -0.008944287896156311
0005f0 fc 5d f6 38 46 2c 81 3f 5e 80 f2 68 7f cc b5 bf
       0.00838522778830874 -0.08515163719357718
000600 00 00 00 00 53 b2 95 bf 26 86 b5 ed 00 f9 ab bf
       -0.02118806540966034 -0.05463412191126009
000610 c7 d9 20 90 5d b9 94 3f 77 b5 a8 ff 95 22 ba 3f
       0.020238363191504207 0.10209023944545047
000620 83 34 29 91 20 3c c5 3f 02 06 96 0e 81 96 af bf
       0.16589743698060397 -0.06169513037731279
000630 e1 98 16 09 af 31 d7 3f 6f 0b 87 41 91 03 a5 3f
       0.362407454371704 0.04104284214874709
000640 d0 13 e0 59 e9 55 b8 3f 64 eb 96 30 49 5d a7 bf
       0.09506090587826965 -0.04563358991750624
000650 c0 9e e5 1a 72 94 89 bf b0 3e 9f 21 7f 48 8d bf
       -0.012490168996648676 -0.01429843255382876
000660 9c 58 33 49 66 19 94 bf eb e2 5e b6 be 19 b4 3f
       -0.019628141610916403 0.07851783707054565
000670 4e 04 29 82 14 14 b1 3f ea 01 94 09 6d 99 91 3f
       0.06671264817943376 0.017186835965732707
000680 00 00 00 80 6c b7 ae bf 00 00 00 00 c6 07 9a bf
       -0.059993162751197815 -0.025420278310775757
000690 42 f7 3c f9 ae d7 b7 3f 00 00 00 00 91 77 b1 bf
       0.0931348188869068 -0.06823068857192993
0006a0 00 00 00 00 5a 5c 74 3f 30 71 92 77 1b 3b b3 bf
       0.004970885813236237 -0.07512065572013138
0006b0 40 99 47 70 6b db 98 3f f7 0a d0 b9 d9 7c a5 3f
       0.024274519660957283 0.041968158657274594
0006c0 cb ee d9 fe 89 cf a1 3f 00 00 00 80 de 90 95 3f
       0.034786522254731965 0.02106044441461563
0006d0 01 16 c0 ea 51 c7 a4 3f 00 00 00 00 b0 38 68 3f
       0.04058319082836804 0.0029567182064056396
0006e0 3d 9f f5 7f 08 c4 d2 bf f0 86 ff 1a d9 df bb 3f
       -0.2932149171451675 0.10888440045485104
0006f0 00 00 00 00 94 11 7b 3f 02 92 3a 23 12 d1 d0 3f
       0.006608560681343079 0.2627606720000416
000700 fa 41 cf 76 bc ba b2 3f 16 62 d8 cc 65 24 b8 bf
       0.07316186810135852 -0.09430538416962295
000710 82 d7 c1 d4 84 58 cf bf 00 00 00 80 10 7a b3 bf
       -0.24488888157400984 -0.0760813057422638
000720 e6 a5 19 ea 75 b6 93 3f 00 00 00 80 83 6d b4 bf
       0.019250719464627773 -0.07979604601860046
000730 00 00 00 40 1a 23 ab 3f 44 86 24 86 e5 c5 86 3f
       0.05300218611955643 0.011119645267686391
000740 ae c5 d8 45 b2 a9 a9 3f 3d f5 b6 b1 9c a7 9e bf
       0.05012280562040004 -0.02993626436886142
000750 e7 99 ea 4b 0d 6d b4 3f 00 00 00 80 2b 2c a6 bf
       0.07978900054386139 -0.043305739760398865
000760 83 f5 5b 72 b8 31 d5 3f bc 4d 95 f8 b1 d6 a5 bf
       0.3311596981801232 -0.042653619379645374
000770 f3 9b eb b2 e4 e8 7d 3f 98 b1 41 b2 bf 5c c6 bf
       0.007302182536228041 -0.17470546916900953
000780 60 bd 06 30 c9 d4 a9 bf 7a e6 54 8b 7a 8b 87 3f
       -0.050451552498425256 0.011496503235878242
000790 da ad eb 83 93 5a 91 3f bf 26 a7 f0 35 01 ac 3f
       0.01694708340339255 0.05469673693330667
0007a0 00 00 00 60 23 07 ad bf 1f c5 68 12 fc 49 9c 3f
       -0.056695085018873215 0.027625979064571312
0007b0 2a b5 16 d4 ee 6a b4 3f 9d 4e a0 51 25 4b b1 bf
       0.0797566669268305 -0.06755288355662477
0007c0 93 f4 91 01 a9 1f c3 bf 51 98 a9 de 77 75 b1 3f
       -0.14940369202296164 0.0681986731156894
0007d0 00 00 00 00 5a 05 79 3f 00 00 00 20 99 3f aa bf
       0.006108619272708893 -0.051266465336084366
0007e0 00 00 00 00 b3 02 93 3f eb d3 22 25 34 56 be 3f
       0.01856498420238495 0.11850286394731284
0007f0 97 39 dc a1 7e 66 c3 3f 29 20 bc be 55 39 dc 3f
       0.15156538871128752 0.44099944712115985

fc2.bias f8 [64]
000000 73 98 a2 89 63 f0 cc bf dc 8d cd 85 34 90 87 bf
       -0.2260860845610214 -0.01150551827749429
000010 14 fe d5 24 2c ac d1 bf 41 5b 31 10 55 71 df 3f
       -0.2761335715985933 0.4912922533161926
000020 56 f4 6f e3 f9 0d be 3f 50 42 e5 c6 f3 91 c5 3f
       0.11740075876873965 0.16851660930344048
000030 7d f2 3f 0d 62 6d a4 3f 68 94 d8 5d 55 53 c8 bf
       0.03989702617397926 -0.19004313547444274
000040 f5 5c 54 0c 39 b8 a6 bf 89 a3 e8 c7 d7 92 b0 bf
       -0.04437425876147386 -0.06474064474663356
000050 a3 11 87 37 b8 d7 ca 3f 92 aa 28 ad 70 ed c0 bf
       0.20970823966321203 -0.13224609808942894
000060 6d 77 32 55 4f 6d c2 bf 38 01 5c d3 81 ea de 3f
       -0.14396087322250697 0.4830631794029787
000070 16 77 ca ef bb 69 a9 3f f2 f2 50 29 0d d5 b8 3f
       0.04963481237540017 0.09700090655037366
000080 b9 a0 df 2a 0c d1 b7 bf 83 e9 b5 6e 84 78 ba 3f
       -0.09303356215207516 0.1034014482774293
000090 a4 cd 27 ca 41 94 de 3f aa 4b 6b 37 3a ea c6 3f
       0.4777988886046052 0.17902305322658424
0000a0 e7 8b 86 36 b8 e4 84 bf 5d 3d 6f 3e 89 4a cc bf
       -0.010201872982014094 -0.2210246615272621
0000b0 d7 0d 32 24 e3 51 c1 bf 81 df e2 79 07 46 c4 bf
       -0.13531150119170718 -0.15838712169147232
0000c0 97 19 48 f1 69 e1 ce 3f e2 21 1b f2 01 1e 84 bf
       0.24125408440904714 -0.009822859955776534
0000d0 06 a0 f0 aa ae a1 b3 3f c1 03 fa e9 6a ec b8 bf
       0.07668582604731009 -0.09735744678802317
0000e0 7d a5 04 a1 ae 32 c2 bf 3f 42 ed 62 44 09 d4 3f
       -0.14217169630255092 0.3130656210023836
0000f0 f6 3a d4 35 6e cb ca 3f 51 a3 b8 17 1b 40 d0 3f
       0.2093332064473185 0.2539127093937639
000100 76 0e 78 c8 28 96 c7 bf 0f 02 31 51 ef 61 c3 bf
       -0.18426999844097097 -0.15142623390603702
000110 94 04 52 d5 fa 4e d4 3f 5b a0 19 72 f5 f9 ba bf
       0.3173205455023631 -0.10537656818053291
000120 50 13 01 9d 63 4a e2 bf 1f 6c b1 ab 96 5d 91 3f
       -0.5715807024467754 0.01695857451373339
000130 e2 b3 2e bf 37 ef ac bf 7d 80 16 8e 5a 1c b1 3f
       -0.056512586677264456 0.06683889359419655
000140 16 b0 35 77 e7 ee a0 3f 71 50 86 35 b2 47 c7 3f
       0.033072694112746756 0.18187549222477942
000150 16 eb a1 7c ca 5e e0 bf df af 38 c4 32 82 e5 3f
       -0.5115711626270663 0.6721433479738116
000160 ff 84 f3 59 3b c4 df 3f a1 13 4f 9e 5b d6 e3 3f
       0.49635204109479497 0.6199167339296886
000170 02 dc e7 57 cb b7 c2 3f 18 45 fb cb 4b 9e bf bf
       0.1462339572169356 -0.12350915651338246
000180 d9 90 49 69 e5 2e a6 3f 9d 32 bc bc 4e 1e e0 3f
       0.04332653913732693 0.5036996542199464
000190 43 1c c8 39 36 cd b2 bf df 57 7d a3 e7 5b 71 bf
       -0.0734437838619764 -0.004238037908939034
0001a0 d2 50 03 2a a7 60 75 3f 9c de 87 d0 4a 6e d4 3f
       0.005219128594223759 0.31923170437173964
0001b0 c0 5b f0 15 34 4e a7 bf 64 22 38 fb 94 4c cb 3f
       -0.045518520048225763 0.2132745958954444
0001c0 a7 c0 f8 8b ce 49 dc 3f a4 e9 9e da 0c 92 d0 3f
       0.4420048109923393 0.25891419744189137
0001d0 e2 5b 55 f9 0e ba ca bf 01 18 11 5e 81 59 b9 3f
       -0.20880305456623122 0.09902199312736572
0001e0 18 e0 17 54 52 a1 bc 3f 64 40 24 e1 90 c7 c4 bf
       0.11183657219942267 -0.1623402690243011
0001f0 ef 80 0e 14 41 63 b1 3f 5f ee 5b 78 1e 46 cf 3f
       0.06792074908890176 0.24432736279401276

fc3.weight f8 [2, 64]
000000 7e a5 c1 28 66 98 d0 bf 87 93 9b 76 de a8 ac 3f
       -0.25930170040245304 0.055975868204575945
000010 ee 18 67 dd ca 3f cb bf ae 40 e0 41 2d d4 89 3f
       -0.2128842907970418 0.012611726353526666
000020 9e 27 c5 4d c9 83 b2 3f e8 b0 e6 fd 74 ef 87 3f
       0.07232340000805812 0.011687196730087071
000030 fb f8 69 f4 26 36 b5 bf 74 26 01 cf b1 50 c2 bf
       -0.08285754649293502 -0.14308760268822918
000040 07 14 86 b9 cd 7e 99 3f 79 29 12 23 1e 78 bc bf
       0.024897779892416618 -0.11120785099243403
000050 eb 11 31 18 db a0 c8 3f f2 e7 d3 06 e0 c7 b8 bf
       0.1924089305995403 -0.09679985205357847
000060 ce 13 09 e4 6a 3b cc 3f 20 cc ab c9 9c bb cf 3f
       0.22056327948135251 0.24791297766896125
000070 d7 cb f7 b7 af 25 d4 3f 61 ec d7 66 2a f2 9e 3f
       0.31480019536610143 0.03022066357332809
000080 0e 79 c4 ef 47 08 bb bf 30 2b 21 45 99 1a be 3f
       -0.10559510806749392 0.1175933641217568
000090 2a 6e 6b a3 e5 e4 d5 3f 84 3b 8f 52 61 de c1 3f
       0.3420957656760232 0.13959900408960035
0000a0 ba 5f 18 52 e7 3d 74 bf 72 55 94 e8 1f c0 d0 bf
       -0.004941848370002272 -0.2617263575824246
0000b0 cd a1 be 8d 9f 0f 90 3f d1 78 58 1a 4f c0 d3 bf
       0.015684597994239092 -0.308612609603995
0000c0 3d d0 2b 38 89 f5 b9 3f fe fd 52 87 32 ca c0 3f
       0.10140283223501086 0.13117057426096318
0000d0 45 a8 78 a9 99 64 b5 bf 4a 66 6f f1 6e 4c b0 3f
       -0.08356628787501659 0.06366628069317773
0000e0 ea 63 6e 7a d8 36 8a bf 38 ba 1d a2 bc 02 a1 bf
       -0.01279992221479805 -0.03322400549847199
0000f0 4a 5d b4 02 3d 26 c6 3f 15 7a 2b 7c 10 ad b6 3f
       0.17304194099481612 0.08857825309267071
000100 d4 a8 3c 1b 73 85 b8 bf dc 53 42 8e b1 f3 c0 bf
       -0.09578627982105853 -0.13243693777317744
000110 4a 4e d2 29 a2 98 b0 3f cb 6a 7e c6 91 37 ac bf
       0.06482900162728203 -0.055111461143686556
000120 21 c0 41 ac cf e6 c4 bf 47 35 38 ac 58 6a e5 3f
       -0.1632937995050279 0.6692317355788554
000130 be 58 66 ab 65 e0 9a 3f 65 5e 7c 74 05 40 c3 3f
       0.02624663218156153 0.15039127528938248
000140 b4 d6 1e 31 5c 7b a3 bf dc a5 de 6a 57 5a ca 3f
       -0.038050538059378 0.20588200300453152
000150 93 f3 4b 5f 13 31 ac bf 4f ae ae 1b 58 95 da 3f
       -0.055061917670150916 0.41536524489740584
000160 42 9d 8f b5 6e 2a 94 3f ea be 18 56 10 a4 93 3f
       0.019693116981128307 0.019180541281626974
000170 8d 4a 49 f4 d0 a1 d5 3f 60 08 4e 62 cc b1 ab bf
       0.3380014787300432 -0.05409086894998505
000180 10 e0 8e a6 f6 bb c2 bf 2d 3e 69 91 45 b4 88 3f
       -0.14636119015426674 0.012062591075987584
000190 c7 05 50 fe c8 36 b2 bf b1 88 a8 b3 aa 2e d1 3f
       -0.07114845475009367 0.26847331566581106
0001a0 02 11 33 e3 3f 19 b0 bf 08 26 24 50 20 f5 b1 3f
       -0.06288527771818411 0.07014657932827373
0001b0 e6 40 76 59 34 73 a7 3f 90 63 00 29 99 b5 b2 3f
       0.04580081550659702 0.07308346987737324
0001c0 65 b2 1a 59 d4 02 be 3f 6d 9e 65 81 6a f3 a1 3f
       0.11723067450902531 0.035060241981054265
0001d0 30 68 c0 52 ef 12 aa 3f 41 12 fa 37 f4 99 d8 bf
       0.050925711490166115 -0.3843966051720465
0001e0 39 5e 90 8a 16 51 e4 3f 86 bf 20 f4 d6 fb 7b bf
       0.6348984438254269 -0.0068319698930706715
0001f0 3f d2 12 7b 03 68 c2 3f 44 0c 1e 96 25 d6 c1 3f
       0.1437992430634427 0.1393477423663133
000200 c4 f8 a2 82 20 24 b7 3f 05 e8 7c a9 22 45 cc bf
       0.09039500417108842 -0.22085984493043057
000210 1e 61 63 66 0c 53 d4 bf 0c 06 ae 03 85 75 d0 3f
       -0.31756887434814185 0.2571728263793325
000220 69 c4 f9 16 0f 22 b0 bf 00 f7 94 9b e1 68 d2 3f
       -0.06301969824723276 0.28765144532722786
000230 37 49 13 47 90 c0 95 3f ef 13 44 ba 49 e4 db 3f
       0.021242384279340967 0.4358085936549391
000240 5e 94 7e 1b f1 8a 92 3f 87 1b aa f3 6e cd b6 3f
       0.01810814600289167 0.0890721650012961
000250 63 07 a7 3e db 93 b3 3f 35 e6 84 02 d9 1e b6 bf
       0.07647485999680508 -0.08640819846632371
000260 c0 d6 cc 3c d1 5e be bf f1 27 44 35 4e 4b a8 3f
       -0.11863429769877154 0.04744953537199582
000270 8b b1 48 f7 d3 42 d8 bf 5a 39 98 47 7c e7 c6 bf
       -0.37907885693382387 -0.1789393758376246
000280 0f 40 33 1a 60 e6 77 3f a2 06 71 f6 8e 3a bc bf
       0.005834937476905124 -0.11026853100431791
000290 50 26 b0 3a 62 77 bc bf 1b 34 ee a6 17 3f b1 3f
       -0.11119665081801 0.06736896348429904
0002a0 80 0e f3 aa c7 18 7e 3f 26 1d 83 f4 9d 59 e4 3f
       0.007347850754004903 0.6359395766857332
0002b0 7d 3e 85 f3 5d 72 91 3f 63 37 be 36 8c e9 8b 3f
       0.01703783797103008 0.013629050655960822
0002c0 a5 14 da d3 8e 1f cb bf 0b c5 98 b1 74 7f c5 bf
       -0.2119005712922092 -0.1679521433993972
0002d0 5f d3 bf 8c ef 87 dc 3f c0 d1 71 b3 1b b7 9d 3f
       0.44579685921717344 0.029018814876012433
0002e0 31 65 1e f5 2b 0a b3 3f 8b 57 a7 07 41 9e d9 3f
       0.07437395796150238 0.40028405902318615
0002f0 5e 27 01 aa 67 7c bf 3f e3 60 89 e6 66 08 cd 3f
       0.12299201870442064 0.22681890732452023
000300 5b b9 87 4c 91 b9 a6 bf 9c 4e 96 5a fa b9 9a bf
       -0.044384518234312074 -0.02610007455730444
000310 b1 22 2d 1c a5 f5 c7 3f 08 3c 85 2e 1b c0 90 bf
       0.18718398929401794 -0.016357826914198653
000320 be 09 04 51 c9 cf ce bf 9c d9 86 80 6d e8 dc bf
       -0.24071613746498416 -0.4516862635749932
000330 65 51 31 57 3b 6e a2 3f 6a 76 c6 e6 df 6b cb bf
       0.03599725188601858 -0.2142295719940422
000340 99 d7 88 b1 71 18 92 bf df a0 d6 2a d0 39 c8 bf
       -0.017671371899460196 -0.18926431743353242
000350 a6 f3 2a 7b 99 8a d1 bf 72 ea 99 9a 5f 7f c3 bf
       -0.2740844443140368 -0.15232462929619178
000360 4b 7a 1f bb 01 68 d5 3f 59 e6 c2 5f d5 d5 d4 3f
       0.3344730689404158 0.32555136062328455
000370 b2 78 b8 b2 ca e2 d1 bf f2 d8 98 1e 1d 74 ae 3f
       -0.2794672723120001 0.05947962759494087
000380 ed 84 2f c8 2a a9 aa 3f 3a f4 0c 59 29 5e d2 3f
       0.05207189267799515 0.2869971627840787
000390 b7 97 a3 4e 54 22 a5 bf c1 fe 47 be 33 95 b9 bf
       -0.04127753696393149 -0.09993289371049753
0003a0 7c 5b fa aa 36 3f b5 3f 65 c4 81 c4 28 5e c2 3f
       0.08299581217066349 0.14349851222098944
0003b0 8f 57 09 14 fa 9b c2 3f 4f 8a c5 8b 34 7f b5 bf
       0.1453850362619815 -0.08397224819558712
0003c0 80 1f 38 14 c2 84 b8 3f fa 79 1a 33 46 59 c7 3f
       0.09577572816499291 0.18241193290027963
0003d0 09 5d f9 be 95 24 d7 bf 76 c4 df cf 43 f8 d7 3f
       -0.36160796785175414 0.3745278863926339
0003e0 2c 6a 58 07 60 fe de bf e0 75 80 2a 7c cb 9c 3f
       -0.4842758247120027 0.028119983762840195
0003f0 07 99 d5 c3 fd ab d0 bf cb ae 04 33 37 87 81 bf
       -0.2604975140042289 -0.008558684582190243

fc3.bias f8 [2]
000000 e3 98 a5 59 fe 18 e7 3f 29 0c 3e 90 0e 94 c8 3f
       0.7218009711184802 0.19201833766064283
