01_pytorch_workflow.pth (torch, 327991 bytes, 6 tensors)

fc1.weight f4 [256, 187]
-0.0045593968 -0.02668206 -0.01952616 0.063643165 0.020478109 0.033397876 0.05601572 -0.0069800797
0.051432397 -0.04207513 -0.0031906704 0.04095496 0.0009533943 -0.021028914 0.015964743 0.013026614
-0.029430084 0.039229456 -0.023259956 0.039540764 -0.05905662 -0.07335934 -0.05655806 -0.06406407
-0.07741461 0.023241233 0.061977353 -0.03244923 0.009529493 -0.06532661 -0.049782705 -0.041507628
0.011396718 -0.06372058 -0.07261083 -0.05735137 0.0608162 0.004631971 -0.02388034 -0.020818282
0.013343138 0.0085096 0.040198017 -0.051111225 0.068010814 0.022156406 -0.003324997 0.033496235
-0.012771077 -0.047362812 -0.020369528 0.0302036 -0.03252936 0.054268967 -0.01762075 -0.018847574
-0.028331965 0.0033738576 0.016178329 -0.031230245 -0.07213372 -0.07596117 -0.032526936 0.022529054
-0.022164231 -0.046894982 -0.064848416 0.021376092 -0.070639566 -0.019654755 0.01835021 -0.0632973
0.034638863 -0.05767421 0.0051171454 -0.028906096 -0.0012892525 -0.025851853 0.005913582 -0.01756921
0.021936271 -0.04097534 0.05996494 -0.060267247 -0.059288364 -0.07672884 -0.07448274 -0.013186395
-0.06934521 0.040219184 -0.014436721 -0.018475117 0.018901426 0.0017286054 0.0026935833 0.019267168
0.056479618 0.008996279 -0.033110008 0.05554078 -0.0011291801 0.012021037 0.036334276 0.007444234
0.0026708231 0.050289195 0.046219874 -0.053748902 -0.061279893 -0.065903686 0.042351592 0.052224677
-0.06007924 0.03587373 0.003245468 0.040603004 -0.029330146 0.010963465 0.053625636 0.04460489
0.012194885 -0.036019843 -0.01496394 -0.0491831 0.036068667 0.0320999 -8.154472e-06 -0.07085604
-0.03753062 -0.044313196 -0.05257083 0.05580726 0.02828663 -0.06289009 0.02996494 0.023556141
-0.01900526 0.06342965 0.07077474 -0.031082213 0.030740893 0.04954915 0.040005673 0.072319515
0.04012093 -0.040154096 0.008707005 -0.0077626174 -0.0036291692 0.04983617 0.079396635 -0.05630403
0.04916723 -0.020528408 0.004504291 -0.004419346 -0.0133939935 0.041164167 0.050829053 -0.068243995
-0.059892498 0.010391872 -0.06103228 0.0051136157 0.023006212 0.053732045 -0.04610787 0.05287655
-0.04351408 0.03211908 0.030391749 0.0045914776 0.04218747 0.0079575 0.007477262 0.060027808
0.06214158 -0.034297075 0.005857543 0.06367787 -0.05845034 -0.032792766 -0.012369707 0.040090848
-0.045281556 0.056886226 0.003229535 -0.059285067 0.0022426993 -0.035848945 0.06423259 -0.026381835
0.006970085 0.024988286 -0.03104306 0.061863527 -0.015057821 0.038451687 0.06420438 0.07090667
0.034353822 -0.07129815 0.025786117 -0.033125713 -0.04498732 -0.03284351 -0.061337512 -0.037124466
-0.0263954 -0.0578488 -0.05220127 -0.059101984 0.072493985 0.013069555 0.021846712 0.06773448
0.0013431683 0.065055266 0.055696666 -0.044662137 0.071830854 0.0340707 -0.04695303 0.021579757
-0.06711975 -0.069820486 -0.032516286 -0.013193168 0.014808953 0.05749975 0.07017438 -0.04217727
0.06295431 0.020114742 0.03523437 -0.055368826 -0.037251085 -0.07151509 0.010952942 -0.016608488
-0.043908224 -0.05847751 -0.032528725 -0.06216778 -0.00054471195 0.04634045 -0.02726397 0.01864817
-0.037996203 -0.039534483 0.04230193 -0.062186208 -0.0029589534 -0.055650372 0.026651412 0.044030912
00000000: fe66 95bb 5694 dabc 53f5 9fbc 5957 823d
00000010: b5c1 a73c 36cc 083d bd70 653d 27b9 e4bb
00000020: c7aa 523d f956 2cbd 911a 51bb 63c0 273d
00000030: 35ed 793a d444 acbc 7ec8 823c 946d 553c
00000040: 5c17 f1bc 11af 203d aa8b bebc 7ff5 213d
00000050: 5be5 71bd 6c3d 96bd 6da9 67bd 0634 83bd
00000060: 8d8b 9ebd 6664 be3c f7db 7d3d 7ce9 04bd
00000070: 9721 1c3c f5c9 85bd f3e8 4bbd e703 2abd
00000080: 4db9 3a3c ef7f 82bd fdb4 94bd 45e9 6abd
00000090: 681a 793d cac7 973b b4a0 c3bc 1a8b aabc
000000a0: 2d9d 5a3c d96b 0b3c ada6 243d 015a 51bd
000000b0: 4149 8b3d 5a81 b53c 31e8 59bb 5933 093d
000000c0: c83d 51bc 82ff 41bd ffdd a6bc 8a6d f73c
000000d0: 823d 05bd 2349 5e3d 6459 90bc 3a66 9abc
000000e0: 7018 e8bc f01b 5d3b 6a88 843c 92d6 ffbc
000000f0: d8ba 93bd 8891 9bbd f73a 05bd da8e b83c
00000100: c391 b5bc f414 40bd 3fcf 84bd ea1c af3c
00000110: 7aab 90bd 0203 a1bc 2e53 963c 04a2 81bd
00000120: 7be1 0d3d cb3b 6cbd baad a73b 7acc ecbc
00000130: 23fc a8ba 44c7 d3bc b9c6 c13b 4eed 8fbc
00000140: b2b3 b33c c2d5 27bd cc9d 753d cada 76bd
00000150: 5bd8 72bd 0324 9dbd 688a 98bd c00b 58bc
00000160: dd04 8ebd dfbc 243d ff87 6cbc 2159 97bc
00000170: 2ad7 9a3c 5f92 e23a d486 303b 2ed6 9d3c
00000180: 2c57 673d 2165 133c 5c9e 07bd bb7e 633d
00000190: ff00 94ba e2f3 443c 40d3 143d c3ee f33b
000001a0: fa08 2f3b 0bfc 4d3d 0d51 3d3d cf27 5cbd
000001b0: a000 7bbd 83f8 86bd dd78 2d3d 8be9 553d
000001c0: a615 76bd 55f0 123d ebb1 543b 564f 263d
000001d0: c645 f0bc 1ba0 333c 8ea6 5b3d 9eb3 363d
000001e0: 0ecd 473c 8b89 13bd 502b 75bc 3874 49bd
000001f0: bdbc 133d 2f7b 033d 31cf 08b7 f91c 91bd
00000200: b5b9 19bd c181 35bd 8354 57bd 2796 643d
00000210: 5db9 e73c 85cc 80bd 0979 f53c cff8 c03c
00000220: ebb0 9bbc 68e7 813d 59f2 903d 20a0 febc
00000230: 53d4 fb3c 0df4 4a3d fddc 233d 411c 943d
00000240: d855 243d 9f78 24bd d3a7 0e3c 8e5d febb
00000250: 5bd7 6dbb 0321 4c3d b49a a23d 0e9f 66bd
00000260: 9463 493d 312b a8bc bb98 933b 29d0 90bb
00000270: 7b72 5bbc c29b 283d 2032 503d 82c3 8bbd
00000280: d651 75bd ac42 2a3c fcfc 79bd 1e90 a73b
00000290: 8677 bc3c 2216 5c3d 9bdb 3cbd 1595 583d
000002a0: d23b 32bd 4c8f 033d 1ef8 f83c 1b74 963b
000002b0: c5cc 2c3d 2d60 023c d203 f53b b8df 753d
000002c0: 2b88 7e3d 177b 0cbd a2f0 bf3b 8b69 823d
000002d0: a069 6fbd b551 06bd 50aa 4abc 4d36 243d
000002e0: 2779 39bd 8801 693d 9ba6 533b e6d4 72bd
000002f0: 40fa 123b 58d6 12bd 608c 833d b81e d8bc
00000300: 5065 e43b 3cb4 cc3c 044e febc 9c64 7d3d
00000310: 14b5 76bc 847f 1d3d 967d 833d 8437 913d
00000320: 98b6 0c3d c404 92bd 683d d33c d4ae 07bd
00000330: a044 38bd eb86 06bd 0b3d 7bbd d30f 18bd
00000340: 2a3b d8bc ddf2 6cbd 00d1 55bd ec14 72bd
00000350: ba77 943d b021 563c e0f7 b23c 60b8 8a3d
00000360: 400d b03a b23b 853d 3022 643d a5ef 36bd
00000370: 0e1c 933d b88d 0b3d d251 40bd 08c8 b03c
00000380: 1476 89bd 0bfe 8ebd cc2f 05bd 2828 58bc
00000390: 40a1 723c dc84 6b3d 96b7 8f3d 13c2 2cbd
000003a0: 30ee 803d acc7 a43c ea51 103d 6cca 62bd
000003b0: 9894 18bd 8176 92bd f873 333c 860e 88bc
000003c0: 1cd9 33bd 1d86 6fbd d73c 05bd a4a3 7ebd
000003d0: 00cb 0eba 7ccf 3d3d b058 dfbc 0cc4 983c
000003e0: e8a1 1bbd e9ee 21bd ca44 2d3d f7b6 7ebd
000003f0: 00eb 41bb a5f1 63bd 1054 da3c c259 343d

fc1.bias f4 [256]
-0.06505487 -0.040861502 0.06353454 0.06682029 0.04261186 -0.040426865 0.006667397 0.0074579646
-0.015602119 -0.05918907 0.052597318 0.020926176 -0.06804779 0.033141438 0.053769846 -0.053851467
0.049938783 -0.086210564 -0.039612982 0.026148962 0.06449394 0.056389347 -0.030720428 0.06120346
-0.07642044 -0.03572025 -0.05064304 -0.06699195 -0.07054363 -0.05130007 -0.062647104 0.05606872
-0.022958377 -0.01711628 0.022863511 0.028446743 -0.032809637 -0.028817292 -0.0036020828 -0.07719233
0.050872732 0.032064084 -8.3046485e-05 -0.018710975 0.05993934 0.021077858 -0.023482764 0.027864806
0.04946848 0.021927938 -0.057358593 0.05287108 0.036797818 0.048791427 0.04326293 -0.064634554
0.0017369451 -0.0640876 -0.036582302 -0.05174716 -0.021685638 0.051061217 0.058666 0.012062495
-0.036305968 -0.046850704 -0.056552097 -0.078707896 0.0046711424 -0.0024775134 -0.06786546 0.041823562
0.013957499 0.058242038 0.002522423 -0.07173016 0.025578387 -0.054496996 -0.06627016 -0.014938674
-0.046709124 0.0547873 -0.06589146 -0.052518476 0.06601842 -0.04824473 -0.035427682 -0.047797922
-0.0635059 0.031099655 0.062176853 -0.030551141 -0.023438748 -0.02619107 -0.019978194 -0.076173104
0.055798065 -0.00013562228 -0.0008619149 -0.0039255386 0.06292507 0.028605882 0.048367385 -0.062185317
0.0070648636 -0.032007623 0.044942845 -0.024415407 -0.026806671 0.036893755 -0.048188526 -0.028268572
0.04287224 0.060508847 0.022228003 -0.012963061 0.037620783 0.027500354 0.048678324 -0.06572705
0.04173903 -0.045043536 -0.0689903 0.0014809695 0.027760705 -0.024458 -0.015150014 -0.03898394
0.040431954 0.047983788 0.026840087 -0.08905421 -0.081512935 0.034379482 0.008916064 -0.058302168
-0.027409267 -0.041573156 -0.056116525 0.04797751 -0.065920725 -0.0057884124 0.0029157307 -0.070907615
0.06856012 -0.03581461 0.06499643 -0.04091948 -0.03726848 -0.057349514 0.013776773 -0.06926926
-0.049904764 0.054586288 -0.014412843 -0.031703133 0.059391804 -0.05019744 0.030186187 0.02023203
-0.05045584 -0.0109698605 -0.065046795 -0.058970515 -0.079742916 0.0050675524 -0.073709145 0.066554815
-0.03816525 0.033312082 -0.049478393 -0.020755704 -0.06780762 0.044198904 0.06489519 0.044817787
-0.07054277 -0.05008952 0.013323162 -0.0420883 0.003524676 -0.012241199 -0.010351878 0.048854314
-0.019127829 0.04550998 -0.042590052 0.026554754 -0.0031150703 0.036774702 0.06167409 -0.001994486
0.017969124 -0.08431637 -0.04228805 -0.056088284 -0.018905753 0.060497753 0.03126673 0.0073133353
0.0064715594 -0.07486467 -0.033060767 -0.019026924 -0.02806341 0.051558275 -0.03811768 0.006461471
-0.027689494 0.041324947 0.033318847 0.061417233 -0.032337915 0.058818683 0.029354498 0.050340537
0.027662264 -0.03979281 0.042636055 -0.058884464 -0.014691729 -0.042099934 -0.020237528 -0.02162807
0.038233377 -0.004220754 -0.0346722 -0.03739299 -0.021359269 -0.06679777 -0.018381251 0.026215307
0.040026933 0.033399493 -0.07867454 0.02471317 0.008244781 -0.023087896 -0.054286078 -0.07594352
0.065424114 -0.013980754 -0.050742112 -0.019371556 -0.03600868 0.01150822 -0.033819746 0.006404549
0.02116042 0.04869719 -0.016310608 0.029813178 -0.05932509 0.07098976 -0.060290545 -0.030334767
00000000: 7d3b 85bd 645e 27bd 661e 823d 14d9 883d
00000010: c689 2e3d a496 25bd 2e7a da3b f161 f43b
00000020: 08a0 7fbc 3d70 72bd 4970 573d 5f6d ab3c
00000030: a45c 8bbd 51bf 073d c53d 5c3d 5b93 5cbd
00000040: 9c8c 4c3d 2a8f b0bd 3941 22bd 5936 d63c
00000050: 6615 843d 84f8 663d 68a9 fbbc 7bb0 7a3d
00000060: 5282 9cbd 664f 12bd 146f 4fbd 1333 89bd
00000070: 2e79 90bd 0620 52bd 204d 80bd 50a8 653d
00000080: 3513 bcbc 7137 8cbc 424c bb3c 2509 e93c
00000090: 6663 06bd 3e12 ecbc ec10 6cbb 0317 9ebd
000000a0: ed5f 503d a155 033d 3e29 aeb8 c247 99bc
000000b0: f482 753d 79ab ac3c ed5e c0bc bc44 e43c
000000c0: 769f 4a3d 38a2 b33c d8f0 6abd 588f 583d
000000d0: 4fb9 163d 85d9 473d 7834 313d 1f5f 84bd
000000e0: 35aa e33a 5c40 83bd 53d7 15bd d4f4 53bd
000000f0: 14a6 b1bc 9125 513d c24b 703d c5a1 453c
00000100: 91b5 14bd 86e6 3fbd 2ca3 67bd 9b31 a1bd
00000110: 6210 993b c75d 22bb 0cfd 8abd 2f4f 2b3d
00000120: fead 643c 348f 6e3d 3c4f 253b 43e7 92bd
00000130: c489 d13c 3e38 5fbd a6b8 87bd 57c1 74bc
00000140: 1152 3fbd a668 603d 1af2 86bd 9d1d 57bd
00000150: aa34 873d 449c 45bd 9e1c 11bd c1c7 43bd
00000160: 620f 82bd b4c4 fe3c 28ad 7e3d 6346 fabc
00000170: 9e02 c0bc a88e d6bc 4fa9 a3bc a500 9cbd
00000180: 838c 643d d435 0eb9 21f2 61ba cea1 80bb
00000190: dcde 803d e256 ea3c e11c 463d 08b6 7ebd
000001a0: 5f80 e73b 6d1a 03bd fd15 383d d202 c8bc
000001b0: aa99 dbbc e81d 173d 5561 45bd 7e93 e7bc
000001c0: cd9a 2f3d 20d8 773d 8017 b63c 0563 54bc
000001d0: 4018 1a3d 6c48 e13c ec62 473d e79b 86bd
000001e0: 8cf6 2a3d 927f 38bd c94a 8dbd 171d c23a
000001f0: 6b6a e33c 255c c8bc c437 78bc a0ad 1fbd
00000200: fa9b 253d a68a 443d bedf db3c 0e62 b6bd
00000210: 41f0 a6bd 80d1 0c3d af14 123c 41ce 6ebd
00000220: 6689 e0bc 9d48 2abd 71da 65bd 1184 443d
00000230: 7201 87bd b9ac bdbb d815 3f3b 0338 91bd
00000240: 4069 8c3d 57b2 12bd d91c 853d 2f9b 27bd
00000250: d5a6 18bd 53e7 6abd f9b7 613c 0bdd 8dbd
00000260: f068 4cbd df95 5f3d d823 6cbc 25db 01bd
00000270: d244 733d d59b 4dbd 0649 f73c a4bd a53c
00000280: c8aa 4ebd eeba 33bc 4137 85bd 118b 71bd
00000290: 4150 a3bd b60d a63b d2f4 96bd e44d 883d
000002a0: 2a53 1cbd 4072 083d dba9 4abd de07 aabc
000002b0: b9de 8abd e909 353d c5e7 843d db92 373d
000002c0: ba78 90bd ab2a 4dbd 6449 5a3c c864 2cbd
000002d0: 40fe 663b 4f8f 48bc ec9a 29bc 761b 483d
000002e0: f7b1 9cbc ac68 3a3d e872 2ebd 5b89 d93c
000002f0: 3526 4cbb 12a1 163d f89d 7c3d ecb5 02bb
00000300: fc33 933c 10ae acbd 3c36 2dbd d4bc 65bd
00000310: 3de0 9abc 7ecc 773d 8b11 003d b4a4 ef3b
00000320: 600f d43b a652 99bd ba6a 07bd 5ade 9bbc
00000330: 3de5 e5bc c52e 533d 4921 1cbd bfba d33b
00000340: 14d5 e2bc 5944 293d 5879 083d a390 7b3d
00000350: c374 04bd dceb 703d d878 f03c e131 4e3d
00000360: f99b e23c c9fd 22bd 25a3 2e3d d630 71bd
00000370: 94b5 70bc fb70 2cbd 2cc9 a5bc 5a2d b1bc
00000380: 9a9a 1c3d 404e 8abb 7004 0ebd 6429 19bd
00000390: a2f9 aebc 45cd 88bd 4794 96bc 7cc1 d63c
000003a0: 48f3 233d e8cd 083d 1e20 a1bd 4673 ca3c
000003b0: 1e15 073c d422 bdbc 145b 5ebd 4788 9bbd
000003c0: 14fd 853d 880f 65bc f6d6 4fbd 19b1 9ebc
000003d0: d67d 13bd f98c 3c3c 9386 0abd 40dd d13b
000003e0: 9e58 ad3c b476 473d d39d 85bc c43a f43c
000003f0: defe 72bd 1463 913d 38f3 76bd 9e80 f8bc

fc2.weight f4 [128, 256]
0.015807368 -0.041623034 -0.041294567 -0.025699846 -0.032210473 0.041514415 -0.060149457 -0.054135893
0.059992462 0.0024974577 0.0069184904 0.017426176 -0.024562933 -0.025885964 -0.056933083 -0.016548358
-0.06037913 0.049286705 -0.019204885 -0.024248825 0.030760951 0.011993629 -0.0271649 0.0048816344
-0.05968222 0.035623614 -0.03860121 -0.014008222 0.01929454 8.064528e-05 0.018979535 -0.024629302
0.053627644 0.017834865 0.016815415 0.04499987 -0.038423643 -0.045509055 0.005197262 0.0567636
-0.05229107 -0.0008052083 0.04300127 -0.032316722 0.017165696 -0.047048546 -0.063265465 -0.026868591
-0.018107904 -0.051480778 -0.008238062 -0.010705881 -0.08039749 -0.06271536 -0.009985856 -0.04848329
0.020282743 0.006997861 0.03242903 0.065443516 0.03305215 -0.010100477 -0.018373061 0.00658901
-0.014468057 0.008716019 0.048168033 0.02443418 -0.041198418 -0.061563086 -0.015171647 0.010618207
-0.064803846 0.05401793 0.01394712 0.033291023 0.010971626 -0.01793908 -0.026310422 -0.029334292
0.051862255 0.01859146 -0.033079196 -0.0362975 -0.048049487 0.021191537 0.0046177497 0.007428596
0.006980545 -0.029424243 -0.0027125403 -0.04167525 0.010521293 0.06343543 -0.01293819 -0.009803855
0.055866085 0.041358173 -0.018767538 -0.07873537 -0.021151112 0.007981723 -0.023684723 0.04867637
-0.047254514 -0.048608676 0.05197106 0.008841992 -0.01890485 -0.035056148 -0.034078844 -0.0611829
-0.02717284 -0.040008016 0.0005107156 -0.023273917 -0.060861252 0.0049177 0.032323357 -0.01588688
-0.05206783 -0.0124734705 0.01257449 -0.027498268 -0.06839199 -0.021632394 0.012719995 -0.02056574
0.004028164 0.0342796 -0.046963323 -0.04184466 -0.032534204 0.05918993 0.01808334 -0.06840412
-0.052414924 0.04962183 0.034342863 -0.0570059 -0.04900965 -0.08405219 0.03324466 0.05024374
-0.012404904 -0.027430827 -0.018878315 0.040299274 -0.052800916 0.060682226 0.0111992005 0.0029954463
-0.048639394 0.040154435 -0.012629271 0.023711305 0.022064589 -0.023106927 -0.013957546 -0.014632688
-0.043191098 -0.0646305 0.006606777 0.010909013 -0.011841641 -0.07186581 -0.013809704 -0.038707756
0.010687023 0.0019185618 0.021427726 0.019816592 0.041046776 -0.011042334 -0.06330318 0.015440938
0.04515885 0.003224301 0.034348708 0.013260037 -0.017485619 -0.021965051 0.01853897 0.033661913
0.02121986 0.011479147 0.018724069 0.009570057 0.013430774 0.019034753 -0.04218567 0.0008772735
0.011376071 0.038941875 -0.049168263 0.026699316 -0.020079637 0.050378423 -0.04788588 0.049300343
-0.013962033 -0.00892321 0.05514051 -0.007898123 -0.017653054 -0.025726963 -0.0043902467 -0.0058061373
-0.04150643 -0.043275457 0.05926522 0.05190363 -0.026662918 0.02298887 -0.022329785 -0.025983065
-0.06327175 0.039938297 0.033516414 -0.16180922 0.022841323 -0.022059543 0.0045757773 -0.02289781
0.0139888 -0.059594102 0.034926005 -0.06442663 -0.037545316 -0.06375251 0.055203445 -0.034797564
-0.011996525 -0.02026289 -0.0013492994 0.022460584 -0.04376722 -0.023680605 0.043418635 -0.00011811381
0.036605697 -0.036896035 -0.026079066 0.015788602 -0.014650039 -0.07020799 -0.0020304394 0.016002364
-0.020929147 0.025004964 -0.028121112 0.005825762 -0.060239896 0.030116327 0.041438073 0.060488522
00000000: 747e 813c ea7c 2abd 7e24 29bd 7c88 d2bc
00000010: 21ef 03bd 050b 2a3d 475f 76bd 99bd 5dbd
00000020: a8ba 753d 63ac 233b 81b4 e23b 57c1 8e3c
00000030: 3438 c9bc cd0e d4bc aa32 69bd 6c90 87bc
00000040: 1b50 77bd dbe0 493d 9053 9dbc 79a5 c6bc
00000050: 64fe fb3c ed80 443c ed88 debc 1ef6 9f3b
00000060: 5875 74bd 11ea 113d 4d1c 1ebd be82 65bc
00000070: 950f 9e3c 1b20 a938 f87a 9b3c 64c3 c9bc
00000080: a9a8 5b3d 6c1a 923c 7bc0 893c c951 383d
00000090: 1c62 1dbd b467 3abd cb4d aa3b f380 683d
000000a0: 292f 56bd 9d14 53ba 1a22 303d 8a5e 04bd
000000b0: 139f 8c3c fab5 40bd 5391 81bd 851b dcbc
000000c0: 0757 94bc 82dd 52bd f0f8 06bc b867 2fbc
000000d0: 70a7 a4bd e970 80bd b79b 23bc 6a96 46bd
000000e0: ff27 a63c 504e e53b 4dd4 043d 4007 863d
000000f0: b161 073d 797c 25bc 1a83 96bc 9fe8 d73b
00000100: 6e0b 6dbc a2cd 0e3c d84b 453d 312a c83c
00000110: acbf 28bd 9329 7cbd 8092 78bc fdf7 2d3c
00000120: e1b7 84bd e841 5d3d 7682 643c 2b5c 083d
00000130: 56c2 333c faf4 92bc f488 d7bc 784e f0bc
00000140: 846d 543d 1e4d 983c 0d7e 07bd b0ac 14bd
00000150: 8acf 44bd e099 ad3c 7e50 973b 946b f33b
00000160: 0ebd e43b 1c0b f1bc e0c4 31bb abb3 2abd
00000170: 8061 2c3c 6fea 813d b4fa 53bc 59a0 20bc
00000180: d6d3 643d 3067 293d 61be 99bc 0240 a1bd
00000190: 1945 adbc c6c5 023c 7706 c2bc e060 473d
000001a0: f38d 41bd e419 47bd 9bdf 543d 01de 103c
000001b0: 58de 9abc 0997 0fbd 4296 0bbd ec9a 7abd
000001c0: 9399 debc 72df 23bd 8be1 053a f1a8 bebc
000001d0: a649 79bd a824 a13b 7f65 043d 3425 82bc
000001e0: 1445 55bd 875d 4cbc 3c05 4e3c 0c44 e1bc
000001f0: 1a11 8cbd 6b36 b1bc 8767 503c 7c79 a8bc
00000200: b0fe 833b c468 0c3d 9d5c 40bd 4e65 2bbd
00000210: 9642 05bd 2471 723d 8323 943c 7617 8cbd
00000220: 08b1 56bd 4340 4b3d 1aab 0c3d 057f 69bd
00000230: 58be 48bd 8e23 acbd 8d2b 083d 61cc 4d3d
00000240: f03d 4bbc 9db6 e0bc b2a6 9abc da10 253d
00000250: c645 58bd ed8d 783d da7c 373c 404f 443b
00000260: 1a3a 47bd fa78 243d 00eb 4ebc 363e c23c
00000270: ccc0 b43c bd4a bdbc 31ae 64bc f1bd 6fbc
00000280: 26e9 30bd ff5c 84bd aa7d d83b b8bb 323c
00000290: 7103 42bc 622e 93bd 1942 62bc 068c 1ebd
000002a0: a018 2f3c 4078 fb3a 3389 af3c 6856 a23c
000002b0: aa20 283d e8ea 34bc 19a5 81bd fdfb 7c3c
000002c0: 7cf8 383d cb4e 533b 3bb1 0c3d a040 593c
000002d0: 003e 8fbc 0df0 b3bc 0adf 973c 13e1 093d
000002e0: 46d5 ad3c 0813 3c3c 3863 993c bacb 1c3c
000002f0: c00c 5c3c c5ee 9b3c e2ca 2cbd d4f8 653a
00000300: b362 3a3c 8481 1f3d a964 49bd 86b8 da3c
00000310: 0d7e a4bc 9b59 4e3d fc23 44bd 28ef 493d
00000320: 03c1 64bc a832 12bc 04db 613d 2167 01bc
00000330: 239d 90bc 5ac1 d2bc 0fdc 8fbb 6941 bebb
00000340: a502 2abd 9b41 31bd 16c0 723d e798 543d
00000350: 316c dabc 2853 bc3c f4ec b6bc 70da d4bc
00000360: 9f94 81bd 5796 233d 8248 093d 51b1 25be
00000370: ba1d bb3c 37b6 b4bc 67f0 953b 3094 bbbc
00000380: 4831 653c f218 74bd 920e 0f3d 1cf2 83bd
00000390: 1ec9 19bd ad90 82bd 021d 623d e487 0ebd
000003a0: 138d 44bc 5cfe a5bc fada b0ba 42ff b73c
000003b0: 4245 33bd d4fd c1bc bdd7 313d deb3 f7b8
000003c0: dbef 153d 4c20 17bd c4a3 d5bc 1957 813c
000003d0: b806 70bc 35c9 8fbd 1f11 05bb 6417 833c
000003e0: 9a73 abbc 36d7 cc3c 3f5e e6bc 09e6 be3b
000003f0: 1cbe 76bd 84b6 f63c f8ba 293d d0c2 773d

fc2.bias f4 [128]
-0.07466656 -1.1713109 -0.051552646 0.15397477 -0.021774007 -0.18514666 -0.081995204 -0.0032162906
-0.123297885 -0.07496347 1.0467678 -0.1322314 -0.051375166 -0.016373845 0.033280037 -0.10724092
-1.068471 -0.08558761 -0.08337613 -0.112508625 -0.11404736 -0.0032508394 -0.096655615 -0.081515625
-0.047424883 -0.06271692 0.7814876 -0.10492949 -0.015833287 -0.15374313 -0.19312875 -0.20023164
-0.20728853 -0.08346661 -0.11528735 0.52573526 -0.09142431 1.8564336 -0.12264369 -1.608046
-0.12760165 -0.10765315 -0.06862631 -0.07809233 -0.035722602 -0.75921863 -0.026262077 -0.1422808
-0.03219265 -0.1287001 -0.58447194 -0.15987179 -0.0032618227 0.7576893 -0.12549588 -0.03712028
-0.043461088 -0.019211445 -0.08031411 -0.030280393 -0.00023398902 -0.18793242 -0.6665084 -0.16491649
0.27847597 -0.1204361 -0.025888303 0.23657411 -0.20860292 -0.05562502 0.16515031 -0.01276228
-0.09147046 -0.23326327 -0.19068421 -0.10768927 0.24979898 -0.18516737 -0.3654806 -0.05475697
-0.0055246 -0.1175309 -0.06555912 0.30264944 -0.100944586 -0.09796393 0.29904643 -0.0071169417
0.9236837 -0.07945186 -0.17237683 -0.081474565 -0.024312392 -0.009742319 -0.10386045 -0.05517855
-0.1231341 -0.029528119 -0.007504643 -0.0992266 -0.05165509 -0.11100709 -0.091516584 0.050560378
-0.1864636 -0.0867977 -0.18992437 -0.160991 -0.088212125 0.88136274 -0.068617515 -0.16153249
-0.0964824 -0.7842952 -0.07910818 -0.090997584 0.84574026 -0.024989845 -0.28234974 -0.11012195
-0.32498097 1.6572895 -0.0134477895 0.57719564 -0.013381956 -1.666055 -0.091090634 -0.10990063
00000000: c8ea 98bd 84ed 95bf de28 53bd 90ab 1d3e
00000010: 675f b2bc 1697 3dbe 1aed a7bd 67c8 52bb
00000020: 9a83 fcbd 7386 99bd 7dfc 853f ab67 07be
00000030: c46e 52bd 7122 86bc a650 083d 21a1 dbbd
00000040: a8c3 88bf 8f48 afbd 1bc1 aabd ec6a e6bd
00000050: aa91 e9bd 090c 55bb 61f3 c5bd aaf1 a6bd
00000060: 9840 42bd bb71 80bd 920f 483f 46e5 d6bd
00000070: cfb4 81bc d76e 1dbe 8bc3 45be 8609 4dbe
00000080: 7243 54be 8bf0 aabd c61b ecbd 9696 063f
00000090: ab3c bbbd 9e9f ed3f 9d2c fbbd 74d4 cdbf
000000a0: 02aa 02be 4179 dcbd f38b 8cbd dfee 9fbd
000000b0: dd51 12bd 275c 42bf 9123 d7bc 0fb2 11be
000000c0: 71dc 03bd f6c9 03be f49f 15bf 6eb5 23be
000000d0: 4ec4 55bb edf7 413f fe81 00be 6f0b 18bd
000000e0: 4104 32bd 5261 9dbc b97b a4bd 960e f8bc
000000f0: f35a 75b9 5b71 40be 4ba0 2abf dedf 28be
00000100: 6794 8e3e 34a7 f6bd b513 d4bc 7c40 723e
00000110: 019c 55be 10d7 63bd 2a1d 293e e218 51bc
00000120: dd54 bbbd 91dc 6ebe b942 43be 318c dcbd
00000130: 4ecb 7f3e 849c 3dbe 4620 bbbe d848 60bd
00000140: b407 b5bb 0ab4 f0bd dc43 86bd def4 9a3e
00000150: 09bc cebd 50a1 c8bd 9d1c 993e 3c35 e9bb
00000160: 8976 6c3f a8b7 a2bd 8d83 30be 23dc a6bd
00000170: c82a c7bc 3f9e 1fbc cab4 d4bd e702 62bd
00000180: bb2d fcbd f4e4 f1bc 82e9 f5bb 5137 cbbd
00000190: 4a94 53bd af57 e3bd 0c6d bbbd 6618 4f3d
000001a0: 50f0 3ebe fec2 b1bd 897b 42be d3da 24be
000001b0: 8fa8 b4bd fda0 613f 5787 8cbd c668 25be
000001c0: 9198 c5bd 92c7 48bf 7803 a2bd f15c babd
000001d0: 6f82 583f 81b7 ccbc 2590 90be 9e87 e1bd
000001e0: e863 a6be 1022 d43f 1e54 5cbc 18c3 133f
000001f0: fe3f 5bbc 4a41 d5bf ba8d babd 9513 e1bd

fc3.weight f4 [3, 128]
-0.039015852 -0.1767819 -0.033740487 0.1559878 -0.063979656 -0.09890012 -0.0062324717 -0.075643994
0.07405395 -0.045761835 -0.33642012 -0.07696444 -0.028573046 0.019233108 0.050353345 0.021818211
-0.52204514 0.0031459145 -0.04032848 0.019096212 0.16109104 0.050796904 0.037116922 -0.040271573
-0.059798736 -0.004686167 -0.52757674 0.007430205 0.006632419 -0.05117767 -0.020580584 -0.046847485
0.008912167 -0.039738566 -0.037611555 -0.64384604 0.032105215 0.36658993 -0.0028786962 -0.7945227
-0.009198451 0.019752897 0.086144365 -0.090443365 0.026824113 -0.06841645 -0.09947003 0.064622864
-0.008105162 -0.0136168655 -0.1618972 0.007876053 -0.003197861 -0.11381298 -0.017167982 -0.014593654
0.007095479 -0.019394942 -0.030630745 -0.053295396 0.050545044 -0.0034884117 -0.19447851 0.16217302
0.110413074 -0.045156714 -0.014767478 -0.042944416 -0.02534579 -0.020696895 0.052458037 -0.060512718
-0.008830652 -0.039787877 0.007959233 0.05059964 -0.034648087 0.024730695 0.05071484 -0.05057516
0.027089128 0.06652954 0.06097722 0.11451868 0.025828408 0.0018805127 0.06181127 0.026466245
-0.035909403 0.015049345 0.05420334 0.016719457 0.01605151 0.0053053503 0.15107128 -0.06429198
-0.051065218 0.0043500187 -0.00021785003 -0.03150474 0.011321419 -0.015892617 -0.07359536 0.026039302
-0.006799003 0.06312252 -0.04983997 0.031075416 -0.024931949 -0.17963634 0.0017534265 -0.0175998
0.02681743 -0.20924796 0.14665896 -0.057701338 -0.36422473 0.08630358 -0.08348539 -0.042537328
-0.07849851 0.65224093 0.009256593 0.2664237 0.009358303 -0.63610864 0.031065509 -0.035939295
-0.024563054 0.0686663 -0.03416434 -0.12886213 0.05413755 -0.020629244 -0.008795497 -0.13926363
-0.04044286 -0.018461015 0.43554765 -0.03250051 -0.11107878 0.010088035 -0.108025424 -0.09678053
0.13091172 0.1015486 0.02100676 -0.035313908 -0.07488352 -0.24952923 -0.0021128634 0.029984236
-0.06952916 -0.049422834 0.6823894 0.011426675 0.0023330213 -0.2684558 -0.03893792 -0.08280501
-0.0004634949 -0.070257045 0.042661883 0.6237408 0.04345309 0.08163328 -0.028052662 0.55280334
-0.014726575 -0.04298715 -0.011727116 -0.1420495 0.029948978 -0.022491934 -0.052308347 0.020421693
-0.17784156 -0.13324414 0.13739322 0.043522224 -0.13081123 0.23526633 -0.030442968 -0.023389403
-0.046522893 -0.07039538 -0.084689714 -0.1436947 -0.034559708 0.10760997 0.1697619 -0.1758643
-0.30794013 -0.038348626 0.053759474 0.097741365 -0.0015539166 0.042634815 0.012649538 0.023559198
-0.08659224 -0.06669492 0.004811106 0.034766406 0.11738913 0.0596474 0.055300053 -0.04647822
0.026442824 0.058063794 -0.015682548 -0.55865675 0.091554984 0.10463553 -0.4198459 0.057499878
0.2600226 -0.2444674 -0.076709 -0.046274263 0.010790402 0.006479093 -0.14791377 0.0025887748
-0.30339706 -0.001305231 -0.004065892 0.06333473 -0.03982318 -0.010457464 -0.14322644 -0.11710993
0.0025448701 0.06919528 -0.08015433 0.049281616 -0.0411391 0.47314018 -0.0230766 -0.14490637
-0.06804556 -0.1152812 -0.060243823 0.036890734 0.48640588 -0.085986115 -0.226033 0.014378683
-0.2550307 -0.145885 -0.046783935 -0.2771194 0.019943686 0.54395264 0.022931738 0.05450664
00000000: 16cf 1fbd 5006 35be 7733 0abd 44bb 1f3e
00000010: c407 83bd 258c cabd c339 ccbb 3deb 9abd
00000020: 99a9 973d c370 3bbd 423f acbe 889f 9dbd
00000030: 0512 eabc c08e 9d3c 4f3f 4e3d 1bbc b23c
00000040: c0a4 05bf b02b 4e3b 7a2f 25bd a96f 9c3c
00000050: 0df5 243e 6a10 503d ea07 183d cef3 24bd
00000060: 85ef 74bd 6b8e 99bb 450f 07bf 1479 f33b
00000070: c354 d93b ad9f 51bd 9d98 a8bc 26e3 3fbd
00000080: 5604 123c e8c4 22bd 930e 1abd 18d3 24bf
00000090: c280 033d adb1 bb3e 82a8 3cbb d765 4bbf
000000a0: 1ab5 16bc d4d0 a13c 756c b03d 5f3a b9bd
000000b0: 3ebe db3c ec1d 8cbd f1b6 cbbd fe58 843d
000000c0: 83cb 04bc 4619 5fbc 61c8 25be 900a 013c
000000d0: 3493 51bb c816 e9bd dea3 8cbc 391a 6fbc
000000e0: 3181 e83b 24e2 9ebc 54ed fabc 464c 5abd
000000f0: 5208 4f3d d69d 64bb 6025 47be af10 263e
00000100: 4020 e23d 3ff6 38bd 4bf3 71bc 7ce6 2fbd
00000110: f9a1 cfbc 898c a9bc 3dde 563d 2fdc 77bd
00000120: 70ae 10bc 9df8 22bd 7167 023c 9141 4f3d
00000130: 27eb 0dbd 0798 ca3c 5dba 4f3d e627 4fbd
00000140: 05ea dd3c a440 883d 40c3 793d c588 ea3d
00000150: 1996 d33c 897b f63a d02d 7d3d bdcf d83c
00000160: bd15 13bd 8791 763c 5204 5e3d 3ef7 883c
00000170: 757e 833c 81d8 ad3b 6eb2 1a3e 83ab 83bd
00000180: c329 51bd 9a8a 8e3b ac6e 64b9 1d0b 01bd
00000190: 797d 393c 3c31 82bc 2ab9 96bd 6050 d53c
000001a0: 2cca debb 6146 813d ff24 4cbd df91 fe3c
000001b0: 163e ccbc 97f2 37be 3bd3 e53a 752d 90bc
000001c0: 3ab0 db3c 1945 56be c42d 163e 3d58 6cbd
000001d0: aa7b babe eebf b03d 63fa aabd 9f3b 2ebd
000001e0: d4c3 a0bd 43f9 263f f7a8 173c b068 883e
000001f0: 9153 193c 04d8 22bf 187d fe3c 1535 13bd
00000200: 7538 c9bc eba0 8c3d e8ef 0bbd 6ff4 03be
00000210: 56bf 5d3d a9fe a8bc fd1a 10bc 209b 0ebe
00000220: 6aa7 25bd 8e3b 97bc 1a00 df3e 411f 05bd
00000230: 457d e3bd 4948 253c 6f3c ddbd df34 c6bd
00000240: b90d 063e b6f8 cf3d 5e16 ac3c 51a5 10bd
00000250: 885c 99bd 9784 7fbe f777 0abb 80a1 f53c
00000260: 4e65 8ebd 996f 4abd 12b1 2e3f f336 3b3c
00000270: 9ae5 183b 0a73 89be 5e7d 1fbd ac95 a9bd
00000280: 3b01 f3b9 ede2 8fbd 3abe 2e3d 7aad 1f3f
00000290: defb 313d 592f a73d b2ce e5bc 8584 0d3f
000002a0: bc47 71bc 4b13 30bd 1723 40bc 6d75 11be
000002b0: 8f57 f53c 0141 b8bc 4741 56bd 654b a73c
000002c0: 191c 36be 2771 08be cfb0 0c3e 5c44 323d
000002d0: 61f3 05be a8e9 703e 8863 f9bc 229b bfbc
000002e0: ca8e 3ebd 742b 90bd cd71 adbd b424 13be
000002f0: 7b8e 0dbd 9e62 dc3d 10d6 2d3e c515 34be
00000300: 54aa 9dbe 7313 1dbd e532 5c3d a02c c83d
00000310: caac cbba d8a1 2e3d 0240 4f3c 38ff c03c
00000320: 4657 b1bd 5997 88bd 7ba6 9d3b 3867 0e3d
00000330: b669 f03d d550 743d 4f82 623d f25f 3ebd
00000340: 9f9e d83c 4dd4 6d3d b078 80bc 2104 0fbf
00000350: 2e81 bb3d 274b d63d 0bf6 d6be fe84 6b3d
00000360: af21 853e a955 7abe 9c19 9dbd 158a 3dbd
00000370: 3aca 303c 924e d43b b576 17be 6fa8 293b
00000380: dc56 9bbe 4914 abba 2d3b 85bb a4b5 813d
00000390: a11d 23bd c855 2bbc f4a9 12be 55d7 efbd
000003a0: d6c7 263b 41b6 8d3d f427 a4bd 85db 493d
000003b0: 7981 28bd 6e3f f23e 230b bdbc 5662 14be
000003c0: 785b 8bbd 8d18 ecbd 3ac2 76bd bd1a 173d
000003d0: 310a f93e 7d19 b0bd 3275 67be 9194 6b3c
000003e0: 6293 82be e162 15be 83a0 3fbd 98e2 8dbe
000003f0: f160 a33c 7b40 0b3f 57db bb3c 5b42 5f3d

fc3.bias f4 [3]
0.76888686 -0.39193165 -0.8944605
00000000: c5d5 443f 44ab c8be 5dfb 64bf
