01_pytorch_workflow.pth (torch, 360839 bytes, 8 tensors)

fc1.weight f4 [256, 187]
0	0xbb793b2c	-0.0038029654
1	0xbc9e49da	-0.019322325
2	0x3c734e68	0.0148502365
3	0xbb56bacd	-0.003276515
4	0xb9ad1e54	-0.00033019728
5	0x3d894418	0.06702441
6	0xbcf58b55	-0.029973665
7	0xbd70fe3f	-0.058836218
8	0xbb6d7c34	-0.003623736
9	0x3c9f0a86	0.019414198
10	0xbd33e842	-0.04392267
11	0xbd0f1171	-0.034928743
12	0x3d7a98a2	0.06118072
13	0xbd92e27a	-0.07172103
14	0xbd45f743	-0.04833151
15	0x3d0c1ec1	0.034209017
16	0xbd46ec4b	-0.04856519
17	0xbd98926b	-0.07449802
18	0xbd4ce5fd	-0.05002402
19	0xbd99e1c5	-0.07513765
20	0x3d46ca63	0.048532855
21	0xbbffe9aa	-0.0078098373
22	0xba82f623	-0.0009991567
23	0xbd96012f	-0.073244445
24	0xbcf00e98	-0.029303834
25	0x3b8fbca7	0.004386503
26	0x3d428a27	0.047495034
27	0x3ceec325	0.029145787
28	0x3c867772	0.016414378
29	0x3cd2a0ea	0.025711495
30	0x3d2c86c9	0.04212073
31	0xbce6c80e	-0.028171565
32	0x3d423c4f	0.047420796
33	0xbc83353e	-0.016016599
34	0xbcee407c	-0.029083483
35	0x3aff6097	0.0019483742
36	0xbd5a90cf	-0.053360756
37	0xbd980bb0	-0.07424104
38	0x3d000a6f	0.03125995
39	0xbc88bca9	-0.016691523
40	0x3c94645e	0.018114265
41	0xbbea1e59	-0.007144731
42	0xbc822e2a	-0.015891153
43	0xbd39de94	-0.045378283
44	0xbd31b2f5	-0.043383557
45	0x3d40bb27	0.047053482
46	0xbd10ec8f	-0.03538185
47	0xbc9f7101	-0.019463064
48	0xbd426f09	-0.047469173
49	0x3c820ce6	0.015875291
50	0xbd9b7266	-0.07590179
51	0x3d0c25fd	0.034215916
52	0x3bbce557	0.005764644
53	0xbd476955	-0.048684437
54	0xbd0937b3	-0.033500385
55	0x3cd994a6	0.026560139
56	0xbaa28b64	-0.0012401161
57	0x3d8011d9	0.06253404
58	0xbd9d46fd	-0.076795556
59	0x3d32fc59	0.04369769
60	0xbd9fd892	-0.078049794
61	0xbd3189c5	-0.043344278
62	0x3d32b1e3	0.043626677
63	0x3d37dbe3	0.044887435
64	0xbd381ded	-0.044950414
65	0x3d85eefd	0.06539724
66	0x3b8ecd27	0.004357952
67	0x3c107b76	0.008818498
68	0x3d696027	0.056976464
69	0xbd910165	-0.07080344
70	0xbd2d4955	-0.042306263
71	0xbd307633	-0.043081474
72	0x3bdb7209	0.0066969437
73	0x3b9ba757	0.004750173
74	0xbd5fd7fd	-0.05464934
75	0xbd68daf1	-0.056849424
76	0x3d2bc8b5	0.041939456
77	0x3b784fcd	0.0037889362
78	0x3d7de79e	0.061988465
79	0x3d7e7311	0.062121455
80	0xbd0b489c	-0.034004793
81	0x3c0b1526	0.008488929
82	0x3d09c303	0.033633243
83	0x3ce2b012	0.027671847
84	0x3d36e431	0.044651214
85	0x3d39e445	0.04538371
86	0x3cadf242	0.021233682
87	0x3caddef2	0.021224473
88	0xbd8d0eb5	-0.06887571
89	0xbd84cd79	-0.06484503
90	0x3c078a76	0.008272758
91	0xbcef929e	-0.029244717
92	0xbd85a5bb	-0.06525751
93	0xbd82c9b3	-0.06386127
94	0xbb7aad82	-0.0038250391
95	0x3d1db5c0	0.03850341
96	0x3d50422f	0.050844368
97	0xbc827355	-0.015924135
98	0xbd581b71	-0.052760545
99	0x3b95c718	0.004570853
100	0xbd68cced	-0.056836057
101	0x3d048462	0.032352813
102	0xbcb3c481	-0.021944286
103	0xbd1c0114	-0.038086966
104	0x3d27c634	0.040960506
105	0xbc7ea246	-0.015541619
106	0xbd3fcaab	-0.04682414
107	0x3d18c9dd	0.037301887
108	0xbd3ac6c0	-0.0455997
109	0x3d0f1d61	0.034940127
110	0x3cbddeaa	0.023177464
111	0xbd505570	-0.05086273
112	0x3d182ef2	0.037154146
113	0x3b12f28e	0.0022422406
114	0xbd053e02	-0.03252984
115	0xbd9284da	-0.07154246
116	0xbd3df1f2	-0.046373315
117	0xbcc924de	-0.024553712
118	0xbd2324e0	-0.03983009
119	0xbcc7d28e	-0.024392392
120	0xbcc2cfad	-0.023780668
121	0xbd8c55cb	-0.06852301
122	0x3bc7e11f	0.0060998346
123	0xbd678d31	-0.056531135
124	0xbd992123	-0.074770235
125	0x3d523503	0.051320087
126	0x3d2f36bd	0.042776812
127	0x3c9264d2	0.01787034
128	0xb9fe019f	-0.00048447863
129	0x3d32fbb1	0.043697063
130	0x3c0b94c6	0.008519357
131	0x3d854d59	0.065088935
132	0xbd67e74b	-0.056617063
133	0x3d17755f	0.03697717
134	0x3c83dd36	0.016096693
135	0x3c92198a	0.017834444
136	0xbd895e6c	-0.06707463
137	0x3d8853cf	0.0665661
138	0x3d439fc3	0.047759783
139	0xbcb9b174	-0.022667624
140	0xbcd7d048	-0.026344433
141	0xbd1953c3	-0.037433397
142	0x3d7c0cb1	0.06153554
143	0x3d51f2bb	0.051256876
144	0xbcfd6c4e	-0.030935433
145	0xbd932174	-0.07184115
146	0x3c89df6a	0.016830165
147	0xbd0ec212	-0.03485305
148	0xb97ccf3b	-0.00024109792
149	0x3c9ae566	0.018908214
150	0xbd4876f3	-0.048941564
151	0x3d837ef7	0.06420701
152	0xbd8b9f17	-0.06817453
153	0xbd22f38b	-0.039783042
154	0x3bb77687	0.0055988464
155	0x3c169ea6	0.009193098
156	0x3d696367	0.056979563
157	0x3cf2fb89	0.029660957
158	0x3c8d67b6	0.017261367
159	0x3d24999d	0.04018556
160	0xbcb49426	-0.022043299
161	0xbd9fb212	-0.07797636
162	0xbcd1ff4e	-0.025634434
163	0xbce2e3ca	-0.027696509
164	0xbcae743a	-0.021295656
165	0xbcb104b0	-0.02160868
166	0xbd4c6143	-0.049897444
167	0xbd5129c7	-0.051065233
168	0x3b1094cc	0.0022061346
169	0x3ca18152	0.019714985
170	0xbcd6d7de	-0.02622598
171	0xbd20fa62	-0.039301284
172	0xbd825676	-0.06364147
173	0xbd805710	-0.06266606
174	0xbd9bb34a	-0.07602556
175	0x3d606c13	0.054790568
176	0xbd939bef	-0.07207476
177	0x3d00ee5d	0.03147732
178	0xbd3bf071	-0.0458836
179	0x3b106acc	0.0022036312
180	0x3d690257	0.056886997
181	0x3cb5d82a	0.022197802
182	0x3af52d9e	0.0018705612
183	0x3d78036d	0.060550142
184	0xbc9a338f	-0.018823413
185	0xbda189d6	-0.07887618
186	0xbc842d25	-0.016134808
187	0xbbd31499	-0.0064416644
188	0xbe25985b	-0.161714
189	0xbe271b37	-0.16318975
190	0x3cac3322	0.021020476
191	0x3e62fb18	0.22166097
192	0x3e7fb0aa	0.24969736
193	0xbe5ff7a8	-0.21871817
194	0xbd31e87f	-0.043434616
195	0xbd92f03d	-0.07174728
196	0x3d73f78a	0.059562244
197	0x3ba421fc	0.005008934
198	0x3cec0fa2	0.028816048
199	0xbc9fae88	-0.019492403
200	0xbd825231	-0.06363333
201	0x3d74dad6	0.05977901
202	0x3cc1e38b	0.023668071
203	0xbcd59e8d	-0.02607658
204	0xbd6cd251	-0.05781776
205	0xbd2f07ed	-0.042732168
206	0xbc0168a8	-0.007898487
207	0xbce1c953	-0.02756182
208	0xbc739b25	-0.014868532
209	0x3c60ae00	0.01371336
210	0x399167b5	0.00027733823
211	0x3d4e81e6	0.05041685
212	0xbd0922a8	-0.033480316
213	0xbd309d6a	-0.04311887
214	0x3cf3f0d7	0.029777927
215	0x3d7f816d	0.06237929
216	0x3d64dbee	0.055873804
217	0x3d67dbcc	0.0566061
218	0x3940a50d	0.00018372033
219	0x3d379027	0.04481521
220	0xbcb4296b	-0.021992406
221	0xbd8aaf30	-0.067716956
222	0x3d7317be	0.059348814
223	0x3c360a7d	0.011110899
224	0x3b910a44	0.0044262726
225	0x3d0adf37	0.03390428
226	0xbd18000d	-0.037109423
227	0xbd9c9024	-0.0764468
228	0xbccdcd15	-0.025122205
229	0x3cd86ba8	0.026418522
230	0x3d4850cc	0.04890518
231	0xbb52b6d4	-0.003215243
232	0xbd3a4b22	-0.04548181
233	0xbd8647f3	-0.06556692
234	0x3d21d20b	0.039506953
235	0x3d814d98	0.06313628
236	0xbd92b6a6	-0.07163744
237	0xbd31f7f9	-0.043449376
238	0x3d48a1a0	0.048982263
239	0xbd0f17a5	-0.03493466
240	0xbd410b53	-0.04712994
241	0xbd385efa	-0.04501245
242	0xbd12194f	-0.035668667
243	0x3bc755e1	0.0060832356
244	0xbd9b33ae	-0.075782165
245	0x3cd14430	0.02554521
246	0xbcb8d663	-0.022563165
247	0xbd51d148	-0.051224977
248	0x3b713c86	0.0036809756
249	0x3c615df0	0.013755307
250	0xbd8d1b75	-0.06890003
251	0xbd1d6e14	-0.038435057
252	0x3d0b117f	0.033952232
253	0x3d27ef1b	0.040999513
254	0x3d720515	0.059086878
255	0x3d231ead	0.039824177

fc1.bias f4 [256]
0	0x3d5b8051	0.05358917
1	0x3c8b8aef	0.017034022
2	0xbd705029	-0.058670197
3	0xbd9b035d	-0.07569001
4	0x3cfe95df	0.031077323
5	0xbdb82950	-0.08992255
6	0x3d718136	0.058961116
7	0x3d81b7f5	0.06333915
8	0xbccf26a7	-0.025286986
9	0xbcea3f14	-0.028594531
10	0x3d3baf9c	0.04582177
11	0x3cb52684	0.022113092
12	0xbd7467dc	-0.05966936
13	0xbd029ef9	-0.03188989
14	0xbd570a2c	-0.052499935
15	0xbcbe795e	-0.023251232
16	0x3d3930de	0.04521262
17	0xb9cfc298	-0.000396271
18	0xbc8952b3	-0.016763067
19	0xbda2825c	-0.0793502
20	0x3d635cfd	0.055508602
21	0x3d822ba9	0.06355984
22	0x3bef76e0	0.007307872
23	0xbc570ef5	-0.013126125
24	0xbceb05a9	-0.028689222
25	0x3d5bd94a	0.05367402
26	0xbd317b4a	-0.04333047
27	0xbd569b70	-0.05239433
28	0xbd822e94	-0.0635654
29	0xbd1f95c5	-0.03896119
30	0x3c336e7b	0.010951634
31	0x3cbfb430	0.02340135
32	0x3d86d344	0.065832645
33	0xbd26df06	-0.040740035
34	0x3d223e56	0.03961023
35	0x3c01947b	0.007908936
36	0x3d927adc	0.0715234
37	0xbd535815	-0.051597673
38	0x3d3c99ff	0.0460453
39	0x3d23815b	0.039918285
40	0xbcb1d6af	-0.021708814
41	0xbc8f990a	-0.01752903
42	0xbc42018c	-0.011841189
43	0xbc5eeeb5	-0.013606717
44	0x3d1ea195	0.038728315
45	0x3ca3c27b	0.019990196
46	0xbd2e9002	-0.042617805
47	0xbb86b045	-0.0041103684
48	0xbd868f19	-0.065702625
49	0xbd3bf59c	-0.04588853
50	0xbd8291a6	-0.063754365
51	0xbd05bf76	-0.032653295
52	0xbd87d1a8	-0.06631786
53	0xbd8d62ec	-0.069036335
54	0xbd73af52	-0.05949337
55	0xbda8b65c	-0.08237907
56	0xbd578338	-0.052615374
57	0xbd2608a5	-0.040535588
58	0x3d6c967f	0.05776071
59	0xbd473c81	-0.048641685
60	0xbc08fa85	-0.00836051
61	0x3d4d1043	0.050064337
62	0x3ca6fb74	0.020383574
63	0xbd72af67	-0.059249308
64	0xbd943b6d	-0.07237897
65	0xbc1c7158	-0.009548508
66	0xbcecfa6b	-0.028928002
67	0x3c5b56a1	0.013387353
68	0x3b49c584	0.0030787895
69	0x3cb2e82c	0.021839224
70	0x3d24af6b	0.040206354
71	0xbc5522ad	-0.013008756
72	0x3cfce78c	0.030872129
73	0xbbfbdfb0	-0.0076865777
74	0x3d4ba762	0.049720176
75	0xbd37c8c8	-0.044869214
76	0x3d186c28	0.03721252
77	0x3d3efa95	0.046625692
78	0x3d3e9df5	0.04653736
79	0xbb3f8357	-0.0029222572
80	0x3d224bde	0.039623134
81	0xbd426ee1	-0.047469024
82	0xbd9c7dd5	-0.07641188
83	0x3c0a03bb	0.008423741
84	0x3d877d80	0.06615734
85	0x3d719165	0.05897655
86	0xbd5b7b19	-0.053584192
87	0xbbb1b9a4	-0.0054237414
88	0xbd8976ea	-0.06712134
89	0xbda45ec5	-0.08025888
90	0xbb31e568	-0.0027144793
91	0x3d28ccf3	0.04121108
92	0xbc937ac9	-0.018002884
93	0x3c83af40	0.016074777
94	0x3d130782	0.035895832
95	0x3d37226e	0.04471057
96	0x3d8a2513	0.067453526
97	0xbda1eb4a	-0.07906206
98	0xbda2ea67	-0.07954865
99	0x3d7ffb38	0.06249544
100	0xbd9c28a3	-0.07624938
101	0xbd445adc	-0.047938213
102	0x3c9b63e0	0.018968523
103	0xbd09c899	-0.03363857
104	0x3d841a7a	0.064503625
105	0x3d23b980	0.03997183
106	0x3d576c78	0.05259368
107	0x3a5f95c9	0.00085290946
108	0xbba26bef	-0.0049567143
109	0xbd6eaee7	-0.05827227
110	0xbd76ebb8	-0.060283393
111	0x3bf49b96	0.0074648364
112	0x3d48e9b8	0.049051017
113	0xbd3e5e45	-0.04647662
114	0x3cb47658	0.022029087
115	0xbd91e14d	-0.07123051
116	0xbc9faef2	-0.0194926
117	0xbb779e40	-0.0037783533
118	0x3ba32808	0.0049791373
119	0x3cf1fd94	0.02953986
120	0xbccdc94c	-0.0251204
121	0xbd845973	-0.064623736
122	0x3c5a9d70	0.0133432
123	0xbc6112de	-0.013737408
124	0xbd443096	-0.047897898
125	0x3d711ef3	0.058867406
126	0xbd27cc0e	-0.040966086
127	0xbd012c30	-0.03153628
128	0x3cbd2e88	0.023093477
129	0x3b883076	0.0041561676
130	0x3cfa4b2f	0.030553428
131	0xbd539c38	-0.051662654
132	0x3ce57b2a	0.02801283
133	0xbca05cfc	-0.019575588
134	0x3d3a6190	0.0455032
135	0xbca632e8	-0.020287946
136	0x3d1ba38d	0.03799777
137	0xbc0d61d2	-0.008629279
138	0x3d7f0371	0.06225914
139	0x3cccc1c4	0.024994738
140	0xbc45d068	-0.012073614
141	0xbc048be0	-0.008089989
142	0xbb8a1d00	-0.004214883
143	0x3d59b164	0.05314769
144	0xbcc5fe28	-0.024169043
145	0xbc86a2ec	-0.01643511
146	0xbc2947a5	-0.010332023
147	0x3cd46bf9	0.025930392
148	0x3d85e665	0.06538085
149	0xbd87939a	-0.0661995
150	0xbbc5d950	-0.0060378686
151	0xbd592424	-0.053012982
152	0xbc55ef84	-0.013057593
153	0x3cccc74e	0.02499738
154	0x3d7bf193	0.06150968
155	0x3d8f396e	0.06993376
156	0xbd8bb813	-0.06822219
157	0xbd3f4822	-0.04669965
158	0xbd486332	-0.048922725
159	0xbd83ba21	-0.06431986
160	0x3c87745f	0.016534982
161	0xbb9e5bea	-0.0048327344
162	0x3d3cfb5e	0.04613816
163	0xbcb902c9	-0.022584336
164	0x3d4442ab	0.047915142
165	0x3c9e9d04	0.01936198
166	0xbcea2ffa	-0.02858733
167	0x3aa5d9c8	0.0012653405
168	0xbd8c0dfe	-0.06838606
169	0xbcd3c1a7	-0.025849177
170	0xbbde401c	-0.006782545
171	0xbc8995e6	-0.01679511
172	0xbd2d837c	-0.04236172
173	0x3c21691c	0.00985172
174	0xbd928706	-0.0715466
175	0x3baada1c	0.005213989
176	0x3cef92bd	0.029244775
177	0xbc9b7258	-0.018975422
178	0xbd51d39b	-0.051227193
179	0xbd99a7e5	-0.075027265
180	0x3d3c52ca	0.04597739
181	0xbd2ee313	-0.042697024
182	0xbd60e746	-0.05490806
183	0xbb9d7651	-0.004805364
184	0xbc5a927f	-0.013340591
185	0x3d3462ac	0.044039413
186	0x3d723eb0	0.059141815
187	0x3d13b655	0.036062557
188	0xbd29f17a	-0.041490056
189	0xbd982efe	-0.07430838
190	0x3d3af079	0.04563949
191	0xbd8a517a	-0.06753822
192	0xbccd61e2	-0.025071088
193	0xbd83927c	-0.06424424
194	0x3d617c54	0.05505021
195	0xbd0d97d7	-0.034568634
196	0xbd22b7d0	-0.03972608
197	0x3d4eba6e	0.050470762
198	0x3ba683c4	0.0050816257
199	0x3c86a264	0.016434856
200	0xbd5bb6e4	-0.053641215
201	0xbd197f07	-0.03747466
202	0xbc80e7fc	-0.015735619
203	0xbb900240	-0.0043947995
204	0x3be13cd1	0.006873705
205	0xbd86bd71	-0.06579102
206	0xbd897abc	-0.06712863
207	0x3d0c1dda	0.034208156
208	0xbcf81e2e	-0.030287828
209	0x3cb4f488	0.022089258
210	0xbd449d01	-0.048001293
211	0xbdcc5b5f	-0.09978365
212	0x3d15ff6a	0.036620535
213	0xbc46bf04	-0.012130503
214	0x3d6ef686	0.05834057
215	0x3d851373	0.0649785
216	0x3c018d34	0.007907201
217	0x3d71eec0	0.05906558
218	0xbcfd946a	-0.030954558
219	0x3d300fdc	0.042983875
220	0x3c8a4fa2	0.016883675
221	0xbd71e1ac	-0.059053108
222	0x3d344dfe	0.04401969
223	0x3cc6b658	0.02425687
224	0x3cc6684d	0.024219656
225	0x3d0416ce	0.03224831
226	0xbd66240f	-0.056186732
227	0xbd82bb69	-0.06383402
228	0xbd561f42	-0.052275904
229	0x3d211deb	0.039335173
230	0xbd7f6b97	-0.062358465
231	0xbd63fa1c	-0.055658445
232	0xbc6f9703	-0.014623406
233	0xbc727567	-0.014798499
234	0xbd6889e4	-0.056772128
235	0xbd36c7a7	-0.044623997
236	0x3d6a0efc	0.057143196
237	0x3d155f8b	0.03646807
238	0xbbbc9853	-0.005755463
239	0xbd8f352f	-0.06992566
240	0xbd941bf8	-0.07231897
241	0xbd5474e4	-0.051869288
242	0x3b227e1b	0.0024794403
243	0x3ba90220	0.005157724
244	0x3d85712f	0.06515729
245	0xbbc988dc	-0.006150348
246	0xbda6a29b	-0.08136483
247	0xbd5aaec4	-0.053389326
248	0x3d87b839	0.066269346
249	0xbd622556	-0.055211388
250	0xbc2d3dc7	-0.010573811
251	0x3c775876	0.015096774
252	0x3d8f946d	0.07010732
253	0xbca9b507	-0.020716203
254	0xbccbe218	-0.024888083
255	0x3d29e406	0.041477226

fc2.weight f4 [128, 256]
0	0x3d1990e8	0.03749171
1	0x3ce797a6	0.028270554
2	0x3d84290f	0.06453144
3	0x3d04e1e5	0.032441992
4	0x3d4c34f8	0.049855202
5	0x3be65e77	0.007030304
6	0xbd0b115a	-0.033952095
7	0xbd6cbdda	-0.057798244
8	0x3c903c6b	0.017606935
9	0x3d5cb160	0.053880095
10	0x3d6786e5	0.05652513
11	0xbd0197ab	-0.031638782
12	0xbd49048d	-0.049076606
13	0xbd24127a	-0.040056683
14	0xbd131267	-0.03590622
15	0xbe5adcd5	-0.21373303
16	0x3cde2293	0.027116096
17	0xbe103f30	-0.14086604
18	0x3a4f202b	0.0007901217
19	0x3d712167	0.058869746
20	0xbc4898cb	-0.01224346
21	0xbd6ebfdc	-0.05828844
22	0xbcb2dadc	-0.021832876
23	0x3d035382	0.03206206
24	0x3c8263c9	0.015916722
25	0x3c9d9d77	0.019240124
26	0x3c4178be	0.011808572
27	0xbcc8932e	-0.024484243
28	0x3c4e0404	0.0125742
29	0xbc93ea1c	-0.018055968
30	0x3c8dd503	0.017313486
31	0xbd552492	-0.05203683
32	0xbc1789ad	-0.009249133
33	0x3d262844	0.040565744
34	0xbd4acfe8	-0.04951468
35	0xbda1f14d	-0.079073526
36	0xbd57b7ea	-0.05266563
37	0xbb115ff3	-0.0022182434
38	0xbb5faf1e	-0.0034131478
39	0x3d11cfa6	0.03559842
40	0x3ccfe572	0.025377963
41	0x3be624b0	0.0070234165
42	0xbca5ee39	-0.020255195
43	0xbd5ea18f	-0.054353293
44	0xbd80a041	-0.06280566
45	0xbbc07b19	-0.0058740494
46	0x3bf39d60	0.007434532
47	0x3cdfa9ba	0.027302612
48	0xbd292e91	-0.041304175
49	0xbc9fca21	-0.019505562
50	0x3cb97118	0.022636935
51	0x3a22cea9	0.00062106043
52	0xbd5e1be0	-0.054225802
53	0xbdd8e536	-0.105905935
54	0xbbfaa60f	-0.0076491903
55	0xbcee7b0c	-0.029111408
56	0xbcdebf5d	-0.027190858
57	0x3d019c29	0.031643067
58	0x3d6aae25	0.057294983
59	0xbd75f7e2	-0.060050853
60	0xbd5a11df	-0.0532397
61	0xb9e5ee64	-0.000438559
62	0x3cd9c460	0.026582897
63	0xbc815659	-0.015788244
64	0x3ccd9a80	0.025098085
65	0x3d38318c	0.044969127
66	0x3d2f0c6f	0.042736467
67	0x3cc0eeb5	0.023551324
68	0x3cca9126	0.024727415
69	0xbc85c818	-0.016330764
70	0x3d0c7ddd	0.03429972
71	0x3cf42605	0.029803285
72	0x3b6d9c40	0.0036256462
73	0xbc71f12f	-0.014766975
74	0x3c981a25	0.018567154
75	0xbcfdc88c	-0.030979417
76	0xbd2606d2	-0.040533848
77	0x39c8519d	0.0003820778
78	0x3d6c5991	0.057702605
79	0xbc2bfb25	-0.010496889
80	0x3d7c1686	0.061544918
81	0xbc10faf0	-0.008848891
82	0xbd182319	-0.037142847
83	0x3cdb7fad	0.026794279
84	0xba432600	-0.0007444322
85	0x3d7dc21d	0.0619527
86	0x3d2d42ee	0.042300157
87	0xbc486ced	-0.012233001
88	0xbbf70538	-0.007538464
89	0xbca750d4	-0.020424284
90	0xbd8c567a	-0.068524316
91	0xbd137a62	-0.036005385
92	0xbba7b021	-0.0051174317
93	0xbb8a7620	-0.0042255074
94	0x3d71589c	0.058922395
95	0xbcc476a8	-0.023982361
96	0xbce9dc97	-0.028547568
97	0xbe18aa9d	-0.14908834
98	0x3d377b35	0.044795234
99	0x3b007cc0	0.0019605607
100	0x3cb48e34	0.022040464
101	0x3ca62aa8	0.020284012
102	0xbdd9536d	-0.10611615
103	0x3d650da1	0.0559212
104	0xbd182a56	-0.03714975
105	0x3d6d0f0a	0.05787567
106	0x3c8d40bc	0.017242782
107	0xbd8926b9	-0.06696839
108	0x3d696f44	0.056990877
109	0x3c0abcad	0.008467835
110	0xbc89d708	-0.016826168
111	0xbd8e6131	-0.069521315
112	0xbcae452c	-0.021273218
113	0xbd1a0c58	-0.03760943
114	0xbd41e449	-0.04733685
115	0xbb6eec40	-0.0036456734
116	0xbd1533ea	-0.036426462
117	0x3c4f66a8	0.0126587525
118	0xbe12b5d9	-0.14327182
119	0x3d84884d	0.0647131
120	0x3d50bd1b	0.050961595
121	0xbcad309c	-0.021141343
122	0x3d1dc511	0.038518015
123	0x3d227d34	0.039670184
124	0x3d0fca58	0.03510508
125	0x3ce65040	0.028114438
126	0xbd4c6a55	-0.049906094
127	0x3d5c0000	0.053710938
128	0x3d75f7a3	0.060050618
129	0xbd552b2d	-0.05204313
130	0x3ce8124b	0.028329035
131	0x3d39eaae	0.045389824
132	0xbd89dfb6	-0.067321226
133	0xbd5971b4	-0.05308695
134	0xbd4f5b97	-0.050624456
135	0xbd4391ca	-0.047746457
136	0xbd0971d8	-0.033555835
137	0x3d88bbfd	0.06676481
138	0x3cc97bbf	0.02459514
139	0xbb2b8fe0	-0.0026178285
140	0xbccb1b2f	-0.024793236
141	0xbbba2b90	-0.0056814626
142	0x3c4c8788	0.012483485
143	0x3ca17a95	0.019711772
144	0xbca89590	-0.02057913
145	0x3c1effbd	0.009704527
146	0xbc97b8b5	-0.018520692
147	0xbceb2dac	-0.028708301
148	0x3c9dba83	0.019253975
149	0x3d1ce11e	0.038300626
150	0x3c348ae0	0.0110194385
151	0x3d590d39	0.052991126
152	0xbd5f816a	-0.05456678
153	0x3b1147f8	0.002216814
154	0x3ca2a480	0.01985383
155	0x3d659dd2	0.056058712
156	0x3d70a910	0.05875498
157	0xbd03a541	-0.03214002
158	0xbd064266	-0.032778166
159	0xbbf608c5	-0.0075083696
160	0xb8db0a17	-0.00010444613
161	0x3a648704	0.00087176287
162	0xbc5013d6	-0.012700042
163	0xbd20b1a6	-0.03923192
164	0xbcaa686d	-0.020801747
165	0x3cfe25a0	0.0310238
166	0xbd280aa8	-0.041025788
167	0x3d7492b1	0.05971021
168	0x3c4075cc	0.011746835
169	0xbd0e4928	-0.034737736
170	0xbc9ebb1c	-0.01937633
171	0x3d2727c4	0.040809408
172	0xbb3ae82d	-0.0028519735
173	0xbcc312da	-0.0238127
174	0xbd570708	-0.05249694
175	0xbc9ed153	-0.019386923
176	0xbd1ef0b0	-0.038803756
177	0xbcdae959	-0.026722597
178	0x3cec310e	0.028831985
179	0x3cea7fe2	0.028625432
180	0xbcdc9dcc	-0.026930712
181	0x3d87be83	0.06628134
182	0x3d5814c4	0.05275418
183	0x3d4fbe61	0.05071867
184	0x3d25eb86	0.040507816
185	0x3b703a20	0.003665574
186	0xbe0c46ef	-0.13698934
187	0xbcbc9dd1	-0.023024471
188	0xbd6e1507	-0.058125522
189	0x3d58db3c	0.052943453
190	0x3bd4c757	0.0064934897
191	0x3c643578	0.013928764
192	0xbce0e71c	-0.027453952
193	0xbcd0eddc	-0.025504045
194	0x3d538cbe	0.051647894
195	0xbca7370e	-0.020411994
196	0xbd56beda	-0.052428104
197	0x3c55ef2d	0.013057512
198	0x3d23aac5	0.03995778
199	0xbd51ad2c	-0.05119054
200	0x3d7a2ae6	0.061076067
201	0xbdcf8851	-0.10133422
202	0x3ccfd454	0.0253698
203	0x3d70c914	0.058785513
204	0xbbd0a478	-0.0063672625
205	0x3d4f52df	0.05061614
206	0xbd4c42fc	-0.04986857
207	0x3d1ae646	0.037817262
208	0xbc764cf3	-0.015032995
209	0xbd4adaf4	-0.049525216
210	0x3d0468f2	0.032326646
211	0xbd692912	-0.056923933
212	0xbbc21002	-0.0059223184
213	0x3d4e9b1c	0.050440893
214	0xbca5aa08	-0.020222679
215	0x3c654bca	0.01399512
216	0xbc79a0ac	-0.015236061
217	0xbd595537	-0.053059783
218	0x3c8a95d2	0.016917143
219	0x3d867dc5	0.065669574
220	0xbcc1e2c0	-0.023667693
221	0xbc52fb10	-0.012877241
222	0xbcb1112d	-0.021614635
223	0xbc56cdc8	-0.0131105855
224	0xbc0c959e	-0.008580593
225	0xbd86a76d	-0.06574903
226	0xbd619320	-0.05507195
227	0xbd4fb440	-0.05070901
228	0xbb8c77d0	-0.0042867437
229	0xbdd69d5c	-0.10479233
230	0xbd568716	-0.05237492
231	0x3ca99788	0.020702139
232	0x3c95a41e	0.018266734
233	0xbda6c58d	-0.081431486
234	0x3d223e52	0.039610215
235	0x3d762ea6	0.06010308
236	0xbc79c6e0	-0.015245169
237	0xbdb295ac	-0.08719954
238	0xbd4f3ab3	-0.05059309
239	0xbc23eb8a	-0.010004887
240	0xbd59912b	-0.05311696
241	0xbce69c5d	-0.028150732
242	0x3c109671	0.0088249305
243	0x3d535b48	0.051600724
244	0xbd99dcff	-0.07512855
245	0x3cfd299c	0.03090363
246	0xbcac4866	-0.021030616
247	0x3c786182	0.015159966
248	0xbbb4ad1e	-0.0055138012
249	0x3c90aed0	0.017661482
250	0xbd25cc08	-0.040477782
251	0xbc0fc82a	-0.00877575
252	0x3d5a2e10	0.053266585
253	0x3d23f116	0.04002484
254	0x3d783892	0.060600825
255	0xbcfa7a14	-0.03057579

fc2.bias f4 [128]
0	0xbe264b2e	-0.16239616
1	0xbde42d9e	-0.11141513
2	0xbf8a2f04	-1.0795598
3	0x3e91d709	0.2848437
4	0xbd6c02d5	-0.05761989
5	0xbe0646ac	-0.13112897
6	0xba530efb	-0.00080512435
7	0xbe237914	-0.15964156
8	0xbde9657f	-0.11396312
9	0x3dbee638	0.093212545
10	0xbd867c37	-0.06566661
11	0xbdd1d724	-0.10246113
12	0xbde17787	-0.11009126
13	0x3de65072	0.112458125
14	0xbf641b83	-0.8910448
15	0xbe2ddb74	-0.16978246
16	0xbc589ad7	-0.01322051
17	0xbd818833	-0.06324806
18	0xbd299ea6	-0.041411065
19	0xbdb0bd4b	-0.08629855
20	0xbdfda1a3	-0.123843454
21	0xbd9b8b12	-0.07594885
22	0xbdac3d52	-0.084101334
23	0xbc242b39	-0.010020071
24	0xbd5aaa5f	-0.053385135
25	0xbd3593a5	-0.044330258
26	0x3e23f0f2	0.16009882
27	0xbf1cadd2	-0.6120273
28	0xbf23976d	-0.6390293
29	0xbd287b1b	-0.041133028
30	0xbd9eecd3	-0.077600144
31	0xbe360425	-0.17775019
32	0xbd07ab61	-0.033122424
33	0xbda97f66	-0.082762524
34	0xbe0fa57f	-0.14027975
35	0x3e384e7f	0.17998694
36	0x3eeaae3f	0.45836064
37	0xbeb1a9f2	-0.3469997
38	0x3eb4c678	0.3530767
39	0xbd0c9693	-0.034323286
40	0xbd68636b	-0.056735437
41	0xbbca0f26	-0.0061663566
42	0xbdf508ab	-0.11964544
43	0x3e343a35	0.17600329
44	0x3e883505	0.2660295
45	0xbded7452	-0.11594452
46	0xbe1a67b7	-0.15078627
47	0x3e87336b	0.26406416
48	0xbe22847a	-0.15870848
49	0xbd644310	-0.05572802
50	0xbdf2c4db	-0.118539535
51	0xbdaacf78	-0.08340353
52	0xbde235e4	-0.11045435
53	0xbd8cd7a6	-0.06877069
54	0xbca6fcf8	-0.020384297
55	0x3e3c8f78	0.18414104
56	0xbd004c4e	-0.03132277
57	0xbb27fe86	-0.0025633886
58	0xbd4a6433	-0.049411964
59	0xbdbe8653	-0.09302964
60	0xb9c5d076	-0.00037730084
61	0xbde4aec5	-0.11166147
62	0xbdbf7342	-0.093481556
63	0xbe33c6ab	-0.17556255
64	0xbd89f047	-0.067352824
65	0xbe08904d	-0.13336296
66	0xbddf4a02	-0.10902788
67	0xbef88bc1	-0.48544124
68	0xbd44bc3f	-0.048031088
69	0xbd4b6799	-0.049659345
70	0xbeaaf60c	-0.33390844
71	0xbd29c863	-0.04145087
72	0x3c976a67	0.018483354
73	0xbde1041f	-0.10987114
74	0xbf0e246f	-0.55524343
75	0xbe44b6d5	-0.1921037
76	0xbde9e410	-0.114204526
77	0xbd89efc1	-0.067351826
78	0xbf4b2c47	-0.79364437
79	0xbe234e83	-0.15947919
80	0xbe466871	-0.19375779
81	0x3e73d14f	0.23810314
82	0x3f9046bd	1.1271588
83	0xbf3a1876	-0.72693574
84	0xbd1e5bae	-0.03866165
85	0xbe204c1d	-0.15654035
86	0xbd467fa4	-0.04846157
87	0x3e8c828e	0.27443355
88	0x3e4aca8f	0.19803832
89	0xbd454bde	-0.048168056
90	0xbde10002	-0.109863296
91	0x3e5e0996	0.21683344
92	0xbcec0991	-0.028813155
93	0xbd7ee3e3	-0.06222905
94	0x3e219a0a	0.15781417
95	0xbdc0be27	-0.09411269
96	0xbe2d3f29	-0.16918625
97	0x3ee2bac1	0.44283107
98	0xbe0e697d	-0.13907428
99	0xbd36a54c	-0.044591233
100	0xbe11c33f	-0.14234637
101	0xbdcee363	-0.10101964
102	0xbec90c30	-0.3926711
103	0x3f339451	0.7014819
104	0xbd335ed9	-0.043791626
105	0xbef92b7f	-0.48665997
106	0xbcc18af0	-0.02362582
107	0xbd6d2529	-0.057896767
108	0xbd8c9274	-0.06863871
109	0x3e0ea95f	0.13931797
110	0xbde61f4b	-0.112364374
111	0xbdaf333d	-0.08554695
112	0xbdd92840	-0.1060338
113	0x3e8256b5	0.25456777
114	0xbd91e21e	-0.071232066
115	0xbdcf7a7a	-0.101307824
116	0x3e81541e	0.2525949
117	0x3f0533d9	0.5203224
118	0xbd509318	-0.05092153
119	0x3f2cffdf	0.6757793
120	0xbe0eeaf7	-0.1395682
121	0xbdf67167	-0.120333485
122	0x3da1857e	0.0788679
123	0xbe136363	-0.14393382
124	0x3f5ce236	0.8628267
125	0x3f3d67df	0.7398662
126	0xbe0095c8	-0.12557137
127	0xbd6430f1	-0.055710737

fc3.weight f4 [64, 128]
0	0xbc2bfcb1	-0.010497258
1	0x3ea940b7	0.33057186
2	0x3c42ed4d	0.011897397
3	0x3f115959	0.5677696
4	0xbd319a8c	-0.043360278
5	0xbdc2ce62	-0.09512021
6	0xbd9ea755	-0.0774676
7	0xbe8d7a11	-0.27632192
8	0xbd9a73be	-0.07541607
9	0x3e749ed3	0.23888712
10	0x3c94b454	0.018152393
11	0xbd0f82c5	-0.03503682
12	0xbce9bb1a	-0.0285316
13	0x3f22f7d4	0.63659406
14	0xbe59f066	-0.21283111
15	0xbdab316a	-0.08359034
16	0x3d9090a3	0.07058837
17	0x3d653ac9	0.055964265
18	0xbe1915c1	-0.14949705
19	0xbdac4bc6	-0.0841289
20	0xbce267ea	-0.02763744
21	0x3d80d5c2	0.06290771
22	0xbd75fd88	-0.06005624
23	0x3d86febc	0.065915555
24	0x3e03d4ea	0.12874189
25	0x3d91d49e	0.07120632
26	0x3f54b507	0.83088726
27	0x3c25ace1	0.010112018
28	0xbe05517c	-0.13019365
29	0x3d0d6ec0	0.034529448
30	0x3e10596d	0.14096613
31	0x3cbf3e82	0.023345236
32	0x3d2a9678	0.041647404
33	0xbce18155	-0.02752749
34	0x3bc7047f	0.006073534
35	0x3f825857	1.0183209
36	0x3dea7a0c	0.1144906
37	0xbe0bd402	-0.13655093
38	0xbe969728	-0.29412198
39	0x3d91a228	0.07111007
40	0x3c999487	0.018747581
41	0x3d964b05	0.073385276
42	0xbda318c7	-0.0796371
43	0xbbf711f4	-0.007539982
44	0x3d69b97e	0.057061665
45	0xbd0ec26b	-0.03485338
46	0xbdee4f2a	-0.11636193
47	0x3f84b9d8	1.0369215
48	0xbcd8cbe0	-0.026464403
49	0xbc1a39ff	-0.009413241
50	0x3e259177	0.16168772
51	0xbe1a288e	-0.15054533
52	0x3d8441ab	0.06457838
53	0x3d7de1f2	0.061983056
54	0x3d88c650	0.0667845
55	0x3f06c443	0.5264322
56	0x3cef41e5	0.029206226
57	0x3f2b1e70	0.6684332
58	0x3dc4edc3	0.09615662
59	0x3d1a5c7e	0.037685864
60	0xbdec504c	-0.11538753
61	0x3e45437d	0.19264026
62	0x3e93e367	0.28884432
63	0xbd46d3df	-0.0485419
64	0xbb883dd0	-0.0041577592
65	0x3c378f5c	0.011203613
66	0xbebc3a48	-0.36763215
67	0xbda721ff	-0.08160781
68	0x3acb7b08	0.0015524337
69	0xbc1e588f	-0.009664669
70	0x3e447dea	0.19188657
71	0x3d0a71dd	0.033799995
72	0x3f0a82b9	0.54105717
73	0x3d81c513	0.06336417
74	0xbb89997f	-0.0041992064
75	0xbcf2587b	-0.029583206
76	0x3be60298	0.007019352
77	0x3d59f6cf	0.05321389
78	0x3ca960f9	0.020676123
79	0xbdc287a7	-0.0949853
80	0xbd0218c0	-0.031761885
81	0x3ca0e065	0.01963825
82	0x3d95a605	0.07307056
83	0xbe1f5a4e	-0.15561792
84	0x3cb54bc1	0.022130849
85	0xbaf9d31d	-0.0019060109
86	0xbcc4ec72	-0.024038527
87	0xbe3170d4	-0.17328197
88	0x3f8299aa	1.0203145
89	0xbcbf4563	-0.023348516
90	0xbb55cbbf	-0.0032622663
91	0x3e068066	0.13134918
92	0xbebd20a2	-0.3693896
93	0x3d9f53b0	0.07779634
94	0x3cdb0cb2	0.026739452
95	0x3d6cbffe	0.057800286
96	0x3c4d6ee9	0.01253865
97	0xbe829b31	-0.25509027
98	0x3dd4af20	0.10384965
99	0x3bb1e4f4	0.0054289047
100	0x3e369e91	0.17833926
101	0xbcbd56ea	-0.023112733
102	0x3e39847e	0.18116948
103	0x3eedfce5	0.46482006
104	0x3df52fdb	0.11972018
105	0xbdcd97ad	-0.100386955
106	0xbd0d0db9	-0.034436915
107	0xbcfe3bee	-0.031034436
108	0xbda7dc48	-0.08196312
109	0x3e8b3ee6	0.27196425
110	0x3e234ade	0.15946528
111	0x38674659	5.5140208e-05
112	0x3da97b7d	0.08275507
113	0xbd9486ce	-0.072522745
114	0x3d588301	0.05285931
115	0xbccc8f39	-0.024970638
116	0x3e2d1d47	0.169057
117	0xbd4a43ce	-0.04938107
118	0x3db8be30	0.090206504
119	0x3daa7c9b	0.08324548
120	0x3d2da4ff	0.04239368
121	0xbcf00972	-0.029301379
122	0x3d62d0db	0.05537496
123	0xbd1b0338	-0.037844867
124	0x3ea9f587	0.33195135
125	0x3e3543e4	0.1770168
126	0xbe0c6b69	-0.13712849
127	0xbd995f5f	-0.07488894
128	0xbe19ca21	-0.15018512
129	0x3d5052b9	0.05086014
130	0xbcf6c4a4	-0.030123062
131	0xbe2dec29	-0.16984619
132	0xbd6f44d4	-0.05841525
133	0xbc5c9420	-0.01346305
134	0xbd936dca	-0.07198675
135	0xbe34c69c	-0.17653888
136	0x3b983acf	0.0046456824
137	0xbc7ad865	-0.015310382
138	0x3da48dcd	0.08034859
139	0x39542dfd	0.00020235027
140	0x3dc1ba1b	0.09459325
141	0xbd90b5a9	-0.07065899
142	0xbdb65032	-0.08902015
143	0x3e234cbd	0.15947242
144	0x3d1d4aca	0.038401403
145	0x3d33ef62	0.043929465
146	0xbe1dc15c	-0.15405792
147	0x3e97e902	0.29669958
148	0x3d0af3de	0.033923976
149	0xbc2df3e0	-0.010617226
150	0x3c8aaf70	0.016929358
151	0x3d601b9a	0.054713823
152	0x3bf142d8	0.0073627047
153	0xbb9f08e7	-0.004853356
154	0x3e3bbd83	0.18334012
155	0x3d8ef9b3	0.0698122
156	0x3db100ef	0.08642756
157	0x3da1f7b4	0.07908574
158	0x3d422af5	0.04740425
159	0xbd95f068	-0.073212445
160	0x3cd9f701	0.026607038
161	0x3d540780	0.051764965
162	0xbe70f46b	-0.23530738
163	0x3a472744	0.00075970986
164	0xbe3d86c9	-0.18508448
165	0xbe357193	-0.17719106
166	0xbdfe9a25	-0.124317445
167	0x3cdc829e	0.026917752
168	0x3dad2dab	0.08455976
169	0xbd9a4cc2	-0.07534172
170	0x3c62a718	0.013833784
171	0x3cdd8bcb	0.027044198
172	0xbe2986e2	-0.1655536
173	0x3d0fb830	0.035087764
174	0x3e58f17c	0.21185869
175	0xbd984421	-0.074348696
176	0xbc423398	-0.011853121
177	0x3d3fa004	0.046783462
178	0xbc001405	-0.007817273
179	0xbe9397b1	-0.2882667
180	0x3c6bc7c6	0.014390891
181	0xbd2567fe	-0.040382378
182	0x3c66212f	0.0140459975
183	0xbe1e855e	-0.15480563
184	0xbc869603	-0.016428953
185	0x3df7ff1a	0.12109204
186	0xbd0c276c	-0.034217283
187	0xba95a92f	-0.0011418218
188	0xbd2f8d93	-0.042859625
189	0xbdb064ad	-0.086129524
190	0x3df01e0b	0.1172448
191	0x3cd793d5	0.026315609
192	0xbd9dce3f	-0.07705354
193	0xbd88068d	-0.066418745
194	0xbe15b9df	-0.14621685
195	0xbe0b62ce	-0.1361191
196	0xbd50b0dd	-0.05094992
197	0xbd865bdb	-0.06560489
198	0xbd2e6b8e	-0.04258304
199	0x3baa6c01	0.0052008634
200	0xbf115cf6	-0.5678247
201	0xbdd3a136	-0.10333483
202	0xbe1c4486	-0.15260515
203	0xbd8067e4	-0.062698156
204	0x3dbf4e59	0.093411155
205	0x3ca8aa9e	0.02058917
206	0xbcc49adf	-0.02399963
207	0x3d8281c8	0.0637241
208	0xbdd765d5	-0.1051747
209	0xbe7cf178	-0.24701488
210	0xbe2e7cd8	-0.17039812
211	0xbdcb7aa3	-0.099355005
212	0x3d9d11f1	0.07669438
213	0xbd93b4c4	-0.07212213
214	0xbda6aaf5	-0.08138076
215	0xbdb0ab48	-0.08626419
216	0xbdd3fbae	-0.103507385
217	0x3c406060	0.011741728
218	0x3cd3bf1f	0.02584797
219	0xbea2e779	-0.31817225
220	0xbce81267	-0.028329087
221	0x3d14a07e	0.03628587
222	0xbde8ba4b	-0.113636576
223	0x3c851bfe	0.0162487
224	0xbe58c636	-0.21169361
225	0x3d5edaf8	0.054408044
226	0x3c5e30c9	0.013561436
227	0x3d7abb66	0.061213873
228	0x3cd52c7d	0.02602219
229	0x3dba1ff6	0.09088127
230	0xbdc7bd9f	-0.09752964
231	0xbd8d4b8b	-0.06899174
232	0x3d12d196	0.035844408
233	0xbe05e7ae	-0.1307666
234	0x3d974da4	0.07387856
235	0x3ca817f2	0.02051923
236	0x3c76cc22	0.0150633175
237	0xbe25d051	-0.16192748
238	0xbd6d6de7	-0.05796614
239	0x3d487b61	0.04894579
240	0xbc94b7a3	-0.018153971
241	0x3d6c625a	0.057710983
242	0xbdab9668	-0.08378297
243	0xbccd94dd	-0.025095398
244	0xbe570808	-0.20999157
245	0xbaded541	-0.001700081
246	0xbd209341	-0.039202932
247	0xbd7406a0	-0.05957663
248	0xbd26eefe	-0.040755264
249	0xbda52603	-0.08063891
250	0xbdae515e	-0.08511613
251	0x3c6dea5c	0.014521208
252	0x3da906b9	0.08253235
253	0xbc460f48	-0.012088604
254	0xbe1af1ac	-0.15131253
255	0xbd9e1b2a	-0.07720025

fc3.bias f4 [64]
0	0xbe9591b4	-0.29212725
1	0xbe320d07	-0.17387782
2	0xbe3fa3c0	-0.1871481
3	0xbda9ddf3	-0.082942866
4	0xbedc992c	-0.4308561
5	0xbe4b2275	-0.19837363
6	0xbf021535	-0.5081361
7	0xbc0aabd9	-0.008463823
8	0xbde88dad	-0.113551475
9	0x3c3f0f8a	0.01166142
10	0x3f49cff4	0.78832936
11	0xbd358c58	-0.044323295
12	0xbe03b486	-0.12861833
13	0xbd7f2394	-0.06228979
14	0xbe46d360	-0.1941657
15	0xbd0571e7	-0.03257933
16	0xbdef69ea	-0.116901234
17	0xbddc492e	-0.107561454
18	0xbd77386e	-0.06035655
19	0xbde93b73	-0.11388292
20	0xbf0f1efd	-0.5590666
21	0xbe81549f	-0.25259873
22	0xbdf2c62a	-0.11854203
23	0xbe856e73	-0.2606083
24	0x3e10cd6a	0.14140859
25	0x3e5c2751	0.21499373
26	0xbe01d135	-0.12677462
27	0xbe4458a6	-0.19174442
28	0xbe3084c6	-0.17238149
29	0x3e08ab2f	0.13346551
30	0xbe0b1466	-0.13582
31	0xbe4c40c9	-0.19946589
32	0xbce08028	-0.02740486
33	0x3d291093	0.041275572
34	0x3dc4a947	0.096025996
35	0xbe03995a	-0.12851468
36	0xbe7e9f4d	-0.24865456
37	0xbe880ebb	-0.26573738
38	0xbf036068	-0.5131898
39	0x3d5b79f3	0.053583097
40	0xbe650dd4	-0.22368556
41	0xbf10beb0	-0.56540966
42	0xbd82d917	-0.06389063
43	0x3d5c0c96	0.05372294
44	0xbce91936	-0.028454404
45	0xbe99e426	-0.30056876
46	0xbe27bbf8	-0.16380298
47	0xbe9dae40	-0.30797005
48	0x3f3e6b9d	0.74382955
49	0x3d84fbc3	0.06493332
50	0xbe7f7899	-0.24948348
51	0x3d750d89	0.05982736
52	0xbf06d065	-0.52661735
53	0xbea6118a	-0.32435256
54	0xbea0131d	-0.31264582
55	0x3ea39751	0.31951383
56	0xbe2ef442	-0.17085364
57	0xbda2e561	-0.07953907
58	0xbde38a5b	-0.111103736
59	0x3f44923f	0.76785654
60	0xbe16bba1	-0.14720012
61	0xbe4719c7	-0.19443427
62	0xbea1b491	-0.31583074
63	0xbe53c588	-0.20680821

fc4.weight f4 [3, 64]
0	0xbd9cae2e	-0.0765041
1	0xbd3584a3	-0.044315945
2	0xbc289649	-0.010289737
3	0x3c53517e	0.012897847
4	0xbc618e98	-0.013766907
5	0xbd97f4f0	-0.07419765
6	0xbc6ad0d4	-0.014332015
7	0xbc38d9af	-0.011282369
8	0xbc8ab2ed	-0.016931022
9	0x3e2bf116	0.16791186
10	0x3e7fe784	0.2499066
11	0xbdcb6977	-0.09932225
12	0x3cdf719e	0.027275857
13	0x3d214603	0.03937341
14	0x3d8ed230	0.06973684
15	0x3d976f8a	0.07394321
16	0x3d0a092b	0.03370015
17	0x3e0e9558	0.13924158
18	0xbd90b06f	-0.07064902
19	0x3d2b2fad	0.041793514
20	0x3d349197	0.044084158
21	0xbde4703b	-0.11154219
22	0x3d607942	0.05480314
23	0xbcafc9c0	-0.021458507
24	0x3e14c26b	0.1452729
25	0x3cbc5458	0.022989437
26	0xbd48234d	-0.04886179
27	0x3d981427	0.07425719
28	0xbd8f44a1	-0.06995512
29	0x3d041480	0.032246113
30	0x3d621a2f	0.055200752
31	0xbd8be516	-0.06830804
32	0x3e492151	0.19641615
33	0x3d1085c9	0.035283837
34	0xbc8f4991	-0.017491134
35	0xbd165665	-0.036703486
36	0xbd896fb8	-0.06710762
37	0xbd1dedcb	-0.038556855
38	0x3dd1c57f	0.102427475
39	0xbe30cf91	-0.1726668
40	0xbccd08d4	-0.025028624
41	0xbb284253	-0.0025674298
42	0xbd6317e2	-0.0554427
43	0x3e206f94	0.15667564
44	0x3d8c441b	0.068489276
45	0xbbfa496e	-0.007638148
46	0xbd90030b	-0.070318304
47	0x3cc716df	0.024302898
48	0xbc702021	-0.014656098
49	0x3b6ca29f	0.0036107672
50	0xbd3a2013	-0.045440745
51	0x3e2d9d04	0.16954428
52	0x3cc162cf	0.023606686
53	0xbd9cf2bc	-0.076634854
54	0xbd3670df	-0.044541236
55	0xbd8c27e8	-0.06843549
56	0xbda850f3	-0.08218565
57	0x3d45b38e	0.04826694
58	0x3d107615	0.03526886
59	0xbda56d39	-0.08077473
60	0xbbde271e	-0.0067795655
61	0x3d9b1649	0.0757261
62	0x3c00b5e3	0.007855865
63	0x3d5eac84	0.054363742
64	0xbd9e0300	-0.07715416
65	0xbcf148d7	-0.029453678
66	0xbe700a08	-0.23441327
67	0xbca9a436	-0.020708185
68	0xbeb42ec2	-0.35191923
69	0xbd88263c	-0.06647918
70	0xbc934ea8	-0.017981842
71	0xbd8d94ea	-0.06913169
72	0xbda175bf	-0.078837864
73	0xbf433ca8	-0.7626443
74	0xbd320bf6	-0.043468438
75	0xbe66246d	-0.22474833
76	0xbc998fe9	-0.01874538
77	0xbd245166	-0.04011669
78	0x3ab74986	0.0013983704
79	0xbca31759	-0.019908594
80	0xbd458c52	-0.048229523
81	0xbd15deee	-0.036589555
82	0xbde552f4	-0.11197463
83	0x3d00732d	0.03135984
84	0xbc2dce4e	-0.010608269
85	0xbe7cd85c	-0.2469191
86	0xbd5ffa90	-0.054682314
87	0xbe8fd29c	-0.2809037
88	0xbf14f65b	-0.5818841
89	0xbd6133fe	-0.054981224
90	0xbce04689	-0.027377384
91	0x3dcd194d	0.10014591
92	0xbea322a4	-0.31862366
93	0x3d24af93	0.040206503
94	0xbe7bdf9c	-0.24597019
95	0xbc7b0dca	-0.015323112
96	0xbed31e8e	-0.4123425
97	0xbe935dc8	-0.28782487
98	0x3d668412	0.056278296
99	0xbd8c4da3	-0.068507455
100	0xbdfdf50a	-0.12400253
101	0xbc03d2a1	-0.008045823
102	0xbe749ab5	-0.23887141
103	0x3e0d9f35	0.13830264
104	0xbd26a39e	-0.04068338
105	0xbdac7970	-0.084216
106	0xbe8b2f15	-0.27184358
107	0xbe1259ca	-0.14292064
108	0xbe125ebe	-0.14293954
109	0xbcb393e3	-0.021921104
110	0xbc9004c9	-0.017580407
111	0xbe5422e0	-0.20716429
112	0xbd928a76	-0.071553156
113	0xbd6d315e	-0.05790841
114	0xbe0e1e59	-0.13878764
115	0xbe476428	-0.194718
116	0xbe56ffb5	-0.20995982
117	0xbd81f792	-0.063460484
118	0xbd40f47f	-0.04710817
119	0xbdceb482	-0.10093023
120	0xbf0118bb	-0.5042836
121	0xbdb76e7a	-0.089566186
122	0xbddc3ffc	-0.107543916
123	0x3d7755c5	0.06038453
124	0x3d648eea	0.055800356
125	0xbd627f61	-0.05529726
126	0xbd970516	-0.07374017
127	0x3d4ff06d	0.050766397
128	0xbe061183	-0.13092618
129	0xbedc21c9	-0.42994526
130	0xbe902af0	-0.2815776
131	0xbd3f26cf	-0.04666787
132	0x3abcc32a	0.0014401425
133	0xbd970f80	-0.07376003
134	0xbdf22e5c	-0.118252486
135	0xbe85a2b8	-0.26100707
136	0xbe302c3f	-0.17204379
137	0xbc44e421	-0.012017281
138	0xc02de3ba	-2.7170243
139	0xbd8fd08c	-0.07022199
140	0x3d829501	0.063760765
141	0xbcc75672	-0.024333213
142	0xbed11f8e	-0.40844387
143	0xbd80ad24	-0.06283024
144	0x3d2052d1	0.03914148
145	0xbdc48127	-0.09594946
146	0xbe10de3e	-0.14147279
147	0x3d4061e7	0.046968367
148	0xbe0d7f69	-0.13818134
149	0x3e08a707	0.13344966
150	0xbdcaf064	-0.09909132
151	0x3db7b769	0.089705296
152	0x3cf90715	0.030398885
153	0xbf0896dd	-0.533552
154	0xbd5e2b4d	-0.054240514
155	0xbe391535	-0.18074496
156	0xbd97bebd	-0.07409427
157	0xbf0062f6	-0.50151
158	0xbe2c9c6c	-0.16856545
159	0xbe2b9043	-0.1675425
160	0xbe84417f	-0.2583122
161	0x3d378c8f	0.04481178
162	0xbfc34b92	-1.5257437
163	0xbea66409	-0.32498196
164	0xbdd83c6a	-0.10558398
165	0xbeb2849f	-0.34866807
166	0x3db8fcd5	0.09032599
167	0xbe543090	-0.2072165
168	0xbca0cc46	-0.019628655
169	0xbd4bbf03	-0.04974271
170	0x3d553286	0.052050136
171	0xbdf3b703	-0.11900141
172	0xbea70a22	-0.32624918
173	0xbdc4ff0b	-0.09618958
174	0xbd73d031	-0.05952472
175	0xbe77637c	-0.24159044
176	0xbe22e534	-0.15907747
177	0xbedf83da	-0.43655282
178	0xbd9d091d	-0.07667754
179	0xbe3dce93	-0.18535833
180	0x3e48c55a	0.19606534
181	0xbdf0936a	-0.11746867
182	0xbdfb3feb	-0.12268051
183	0xbfb476f4	-1.4098802
184	0xbc644b97	-0.013934038
185	0xbd516797	-0.05112418
186	0x3c9314c4	0.017954238
187	0xbf262b76	-0.64910066
188	0xbb9a5af5	-0.00471055
189	0xbebea3e5	-0.37234417
190	0x3c201ba4	0.009772215
191	0xbc9726f8	-0.018451199

fc4.bias f4 [3]
0	0x3e4dc7b2	0.20095709
1	0x3ea3277e	0.31866068
2	0xbf1b92c7	-0.6077084
