01_pytorch_workflow.pth (torch, 369367 bytes, 10 tensors)

fc1.weight f4 [256, 187]
-0.037973832 -0.035178103 -0.04359366 0.04657411 0.047647815 -0.06790555 -0.03487452 -0.028427772
-0.05052987 -0.05815572 -0.04699504 -0.014783108 -0.013720841 -0.036405794 -0.0036381246 -0.007879264
-0.039695784 -0.061109606 -0.07750946 -0.04736066 0.035077352 0.008079938 -0.05051766 -0.042289775
0.0621697 -0.0063768057 0.05529904 -0.028293978 0.06702755 -0.050715227 0.03045715 -0.018729534
0.06300116 -0.04405938 -0.06116486 -0.04799095 -0.02659199 -0.039689656 0.011435014 0.0030987957
0.050542977 0.05378407 -0.06995419 0.059830684 -0.007860392 -0.013216981 -0.013029174 -0.005325901
0.060163233 0.049889456 -0.022030614 0.03894605 -0.037610468 0.06044503 0.024365354 -0.038863696
-0.067679 0.009859904 -0.06666545 -0.050650362 -0.03453277 -0.05306903 -0.05789471 0.02304786
-0.07630397 -0.062044796 -0.010359682 -0.018707097 -0.019484812 -0.04315106 0.043737743 -0.07271012
-0.03945506 0.03196561 -0.009259395 0.031439472 0.027338093 -0.01473859 0.06591194 0.06748878
-0.034317985 0.049307313 0.002180227 -0.013315127 0.040524963 0.0017583679 0.005436097 -0.06326894
0.02609511 0.036524687 -0.06230798 -0.052463103 -0.0062650093 0.02086239 -0.074392535 -0.057228196
-0.025255851 -0.0070613795 0.042502802 -0.076850206 0.031969894 -0.06738961 0.05708028 -0.003134927
0.016871188 0.023260448 -0.038937766 -0.039518777 0.010544209 -0.025307022 0.012262059 -0.07028238
-0.0054101595 0.018759642 0.014492447 -0.06736504 0.0032071497 -0.0592509 0.022029411 0.04901744
-0.07281893 0.050464567 0.036734182 0.027404746 0.008105605 0.013665706 -0.031175852 0.007611412
0.045464184 -0.061261546 -0.074745186 0.046317946 0.031127697 0.04689507 -0.072590925 -0.045211617
0.0010037638 -0.0008870373 -0.06742746 -0.02492716 0.0517398 -0.06477189 -0.07720744 -0.064883724
-0.06385501 -0.04123994 0.03696888 -0.05601528 0.008726669 -0.059150282 0.0528298 -0.025131496
0.06622544 0.019410955 -0.06558419 0.018808242 0.058732193 -0.04246087 -0.03529293 0.05010489
-0.008155457 0.035430856 0.05569609 -0.06388701 -0.075716324 0.009212483 -0.025973909 -0.022997022
0.0049174624 0.06059453 0.06449882 0.041028652 0.011894417 0.05797798 0.03435422 0.046388086
0.050028678 -0.042738616 0.00034787614 -0.06534915 0.03171357 0.022382919 -0.024652429 -0.034104034
0.050380003 -0.030136295 -0.033012427 0.059725516 0.10683793 0.36162138 -0.1999521 -0.5884956
-0.45832455 0.27029163 -0.07058953 0.017400214 0.031427313 -0.019064656 -0.04089194 -0.009879403
-0.01917845 -0.06654352 -0.02226712 0.012907017 -0.05727048 0.03165334 -0.035841372 -0.0763175
-0.0034198205 -0.046170477 0.052038856 -0.06878804 -0.025381194 0.015829192 0.007276251 0.037193533
0.058420464 0.059371293 0.027369149 -0.0638212 -0.008003971 0.04983895 -0.08184925 0.05325518
0.04410151 -0.007385423 -0.048179332 0.036563206 0.014256178 0.009811787 0.053523544 -0.07591421
0.009659313 -0.062643975 0.027228368 -0.036945324 0.009608395 0.050977174 0.03920095 -0.0009870345
-0.014785409 -0.06922975 0.016778642 -0.009079544 -0.013913659 0.041703198 -0.042463664 0.01885909
-0.06237978 0.05447747 0.012992796 -0.026312262 0.026821407 0.026463196 0.009654596 0.035993855
00000000: 738a 1bbd ea16 10bd 448f 32bd 7ec4 3e3d
00000010: 5b2a 433d 1112 8bbd 96d8 0ebd 5ce1 e8bc
00000020: 69f8 4ebd b134 6ebd df7d 40bd d934 72bc
00000030: 61cd 60bc 3e1e 15bd 9a6d 6ebb 0718 01bc
00000040: 0c98 22bd 114e 7abd 48bd 9ebd 40fd 41bd
00000050: 45ad 0f3d b761 043c 9beb 4ebd 0b38 2dbd
00000060: a8a5 7e3d 86f4 d0bb 3f81 623d c6c8 e7bc
00000070: bd45 893d c5ba 4fbd 4681 f93c ae6e 99bc
00000080: c106 813d 9c77 34bd 0188 7abd 2992 44bd
00000090: 72d7 d9bc 9f91 22bd ed59 3b3c 2a15 4b3b
000000a0: 2706 4f3d af4c 5c3d 2444 8fbd 0511 753d
000000b0: e0c8 00bc 098c 58bc 5178 55bc e584 aebb
000000c0: b96d 763d e358 4c3d 8c79 b4bc e585 1f3d
000000d0: 6f0d 1abd 3595 773d da99 c73c 8a2f 1fbd
000000e0: 4a9b 8abd 6f8b 213c e587 88bd c176 4fbd
000000f0: 3c72 0dbd e95e 59bd 0123 6dbd dece bc3c
00000100: 4145 9cbd af22 7ebd a8bb 29bc a03f 99bc
00000110: 9d9e 9fbc 2abf 30bd 5926 333d 0be9 94bd
00000120: a19b 21bd 5fee 023d b8b4 17bc adc6 003d
00000130: 23f4 df3c 217a 71bc d7fc 863d 8f37 8a3d
00000140: 0491 0cbd 77f6 493d 24e2 0e3b b127 5abc
00000150: 81fd 253d 0979 e63a 4921 b23b 2593 81bd
00000160: 6ac5 d53c e99a 153d a736 7fbd 8de3 56bd
00000170: b54a cdbb 9ae7 aa3c 1d5b 98bd 1d68 6abd
00000180: 5ce5 cebc 2563 e7bb 6b17 2e3d a463 9dbd
00000190: ddf2 023d 9003 8abd 03cd 693d 5973 4dbb
000001a0: 7235 8a3c b28c be3c 357d 1fbd 71de 21bd
000001b0: 9ec1 2c3c ac50 cfbc cee6 483c 35f0 8fbd
000001c0: b547 b1bb d2ad 993c ba71 6d3c aff6 89bd
000001d0: 0b2f 523b 12b1 72bd 0677 b43c 83c6 483d
000001e0: 1722 95bd efb3 4e3d 9576 163d eb7f e03c
000001f0: 5fcd 043c 20e6 5f3c 8064 ffbc 2769 f93b
00000200: a738 3a3d 63ed 7abd 0114 99bd e3b7 3d3d
00000210: 83ff fe3c 0b15 403d 8daa 94bd d12f 39bd
00000220: b990 833a 1188 68ba 6817 8abd 0b34 ccbc
00000230: 1ded 533d 20a7 84bd ef1e 9ebd c2e1 84bd
00000240: 6ac6 82bd 36eb 28bd ae6c 173d 4770 65bd
00000250: 4dfa 0e3c 9147 72bd 0f64 583d 91e0 cdbc
00000260: 34a1 873d b903 9f3c 0151 86bd be13 9a3c
00000270: 2b91 703d 73eb 2dbd 528f 10bd c93a 4d3d
00000280: 779e 05bc f21f 113d 9521 643d 31d7 82bd
00000290: 2911 9bbd f4ef 163c 3cc7 d4bc 4064 bcbc
000002a0: aa22 a13b f831 783d f517 843d a90d 283d
000002b0: cde0 423c 517a 6d3d 03b7 0c3d 6f01 3e3d
000002c0: dfea 4c3d b00e 2fbd 2563 b639 c6d5 85bd
000002d0: 17e6 013d 625c b73c e4f3 c9bc acb0 0bbd
000002e0: 435b 4e3d 64e0 f6bc 0a38 07bd bea2 743d
000002f0: d8cd da3d 7026 b93e 3ec0 4cbe a6a7 16bf
00000300: 84a9 eabe aa63 8a3e 3e91 90bd e58a 8e3c
00000310: edb9 003d 7b2d 9cbc 4f7e 27bd 38dd 21bc
00000320: 201c 9dbc f847 88bd 8969 b6bc f477 533c
00000330: 7394 6abd efa6 013d 67ce 12bd 594c 9cbd
00000340: 111f 60bb 411d 3dbd b226 553d bee0 8cbd
00000350: 39ec cfbc 39ac 813c 9e6d ee3b 3f58 183d
00000360: 4c4a 6f3d 502f 733d 4435 e03c b0b4 82bd
00000370: 1623 03bc ed23 4c3d 94a0 a7bd 1b22 5a3d
00000380: c9a3 343d 6b01 f2bb b157 45bd 4dc3 153d
00000390: bf92 693c 9ec1 203c 813b 5b3d e978 9bbd
000003a0: 1842 1e3c 7c4b 80bd 070e df3c fb53 17bd
000003b0: 886c 1d3c 71cd 503d 2d91 203d 625f 81ba
000003c0: 803e 72bc 54c8 8dbd 5d73 893c 5ec2 14bc
000003d0: 1ef6 63bc f9d0 2a3d 61ee 2dbd 617e 9a3c
000003e0: f181 7fbd c523 5f3d bcdf 543c d08c d7bc
000003f0: 91b8 db3c 58c9 d83c 502e 1e3c 4b6e 133d

fc1.bias f4 [256]
-0.007956243 0.04044952 -0.0555938 0.021898828 -0.05639415 -0.017587326 -0.028756933 0.043262515
-0.011986938 -0.012063321 0.0050310045 0.022562953 -0.024607774 0.031403787 0.061096624 -0.04634912
0.04745221 -0.021627888 0.02759404 -0.07034435 -0.050045405 0.0620282 0.03752238 -0.05381524
-0.035129033 -0.003434524 -0.0067656105 0.037658777 0.048068285 0.06836193 -0.07447138 -0.014347253
0.026614916 -0.031600703 0.025871143 0.0065917075 -0.07254701 -0.054540798 -0.023097597 0.0479327
-0.030357864 0.061003447 -0.0744461 0.049202584 -0.05132046 -0.012753664 -0.07380947 -0.0582266
0.010992431 -0.048985176 -0.04003769 -0.041135583 0.04325905 0.0405727 0.057836488 0.0090182405
-0.052052125 0.037442517 0.029901443 -0.025416596 0.02121442 0.029084146 -0.07963523 0.024291944
0.055304162 -0.08124903 0.043564096 0.052822243 0.038503032 -0.0058163255 0.007587727 0.028034084
0.009482675 -0.006938675 0.016071204 0.018350495 -0.04004829 0.037936557 -0.012616095 0.051109537
-0.050548304 0.047759626 0.055495825 -0.01665036 0.052196153 -0.012405407 0.06825714 -0.020463474
-0.039224654 -0.056358784 -0.058137175 -0.05811442 -0.04864613 0.019350715 0.044628236 0.010106595
-0.016417779 0.05820541 -0.05808232 0.0033993833 -0.014777895 -0.07800762 -0.0334355 -0.071456194
0.022498447 -0.06706383 0.051196553 0.041785598 0.059884265 -0.05299315 -0.06267318 -0.01684353
0.06493361 -0.048755657 0.05152722 0.06388582 -0.026907751 0.010565947 0.031099606 -0.043052588
0.019073267 -0.079462096 0.006324536 0.052783575 -0.06538893 0.061496932 -0.07992302 0.043051846
0.008959699 -0.07994177 0.0022971227 -0.036172956 0.09156541 -0.03845095 -0.024841297 0.041294962
-0.040936694 0.06306237 0.019228144 0.05686988 -0.014717799 0.016653284 0.06459462 -0.034617618
0.05907394 0.05801346 0.032731567 0.051558368 -0.057284623 0.055870365 0.0047975527 0.0037127174
-0.071896486 0.018909588 0.038210377 0.03373704 -0.059810862 0.037437484 -0.057042357 -0.0500888
-0.050717715 -0.049913492 0.015154816 -0.060836572 -0.022706682 0.065223105 -0.00022388995 0.060333252
-0.05733674 0.028463915 -0.06291335 -0.003491044 -0.08573362 0.006357485 0.052722916 -0.050474025
-0.0153933205 0.036157712 -0.0037196577 -0.019441083 -0.027893022 0.04420207 0.06447209 -0.009419024
-0.027701458 0.050625596 -0.010288351 0.056098174 -0.075774014 -0.053336352 0.0057092635 0.037225515
0.0134809045 0.04178697 -0.053859476 -0.034307495 -0.020266479 0.043701522 0.061766855 0.055658076
-0.015092838 0.014252216 -0.015486543 -0.034142714 0.015490076 0.020082269 -0.021062644 -0.05358786
-0.04352476 0.0014545319 0.03204783 0.05444583 7.841908e-05 -0.05201225 -0.07287226 -0.060022555
0.0023144048 0.027576452 0.035987508 -0.06882477 -0.037391704 -0.02531203 0.053304482 -0.058781315
-0.049743995 0.050169554 -0.06768234 0.044982824 -0.056657713 0.009976747 -0.06877154 0.057141792
-0.034766156 0.06050225 0.06366682 0.043156873 0.05308583 0.032321114 0.040710937 0.015154712
-0.015588026 -0.048309237 0.0036885382 -0.041258223 0.041059904 -0.06823163 -0.047202803 -0.04321825
-0.071949996 -0.00489291 0.029122699 -0.03887012 -0.010520622 -0.025514044 -0.06909456 0.060578413
00000000: e75a 02bc 65ae 253d 53b6 63bd 2c65 b33c
00000010: 8dfd 66bd 4c13 90bc a993 ebbc 0934 313d
00000020: dd64 44bc 3ca5 45bc 20db a43b f1d5 b83c
00000030: 3e96 c9bc 42a1 003d 7440 7a3d 93d8 3dbd
00000040: 405d 423d f82c b1bc e50c e23c b310 90bd
00000050: 69fc 4cbd 4811 7e3d 11b1 193d 5e6d 5cbd
00000060: 76e3 0fbd c015 61bb 0eb2 ddbb 1740 1a3d
00000070: 40e3 443d 5701 8c3d 7384 98bd be10 6bbc
00000080: 8607 da3c bd6f 01bd b8ef d33c 40ff d73b
00000090: 8793 94bd 2c66 5fbd 2c37 bdbc 1455 443d
000000a0: 0eb1 f8bc c0de 793d 3277 98bd a688 493d
000000b0: 6735 52bd bef4 50bc 6b29 97bd 047f 6ebd
000000c0: 9919 343c aea4 48bd 90fe 23bd c97d 28bd
000000d0: 6730 313d 8f2f 263d f4e5 6c3d 3ec1 133c
000000e0: 9c34 55bd 535d 193d dff3 f43c 7736 d0bc
000000f0: ddc9 ad3c e041 ee3c cc17 a3bd e6ff c63c
00000100: 9e86 623d e465 a6bd 4470 323d 235c 583d
00000110: 5bb5 1d3d e096 bebb 78a2 f83b bca7 e53c
00000120: 395d 1b3c d35d e3bb c2a7 833c c753 963c
00000130: ad09 24bd 5d63 1b3d bdb3 4ebc 3c58 513d
00000140: bd0b 4fbd 999f 433d 974f 633d 5666 88bc
00000150: a2cb 553d 0c40 4bbc 66ca 8b3d 04a3 a7bc
00000160: 08aa 20bd 78d8 66bd 3f21 6ebd 6309 6ebd
00000170: 2a41 47bd 6485 9e3c 19cc 363d 2296 253c
00000180: 947e 86bc cc68 6e3d bae7 6dbd 30c8 5e3b
00000190: fc1e 72bc 76c2 9fbd aaf3 08bd a057 92bd
000001a0: aa4e b83c c358 89bd 7ab3 513d 6027 2b3d
000001b0: 3449 753d 580f 59bd cc5a 80bd 71fb 89bc
000001c0: eafb 843d 03b4 47bd 350e 533d 92d6 823d
000001d0: a56d dcbc cb1c 2d3c 9ac4 fe3c e957 30bd
000001e0: 8a3f 9c3c 06bd a2bd 0e3e cf3b 9733 583d
000001f0: a2ea 85bd 35e4 7b3d aeae a3bd 2257 303d
00000200: b4cb 123c 83b8 a3bd 538b 163b 182a 14bd
00000210: a586 bb3d be7e 1dbd fa7f cbbc e824 293d
00000220: 3cad 27bd d826 813d 5784 9d3c 64f0 683d
00000230: ec22 71bc 786c 883c 2f4a 843d 34cb 0dbd
00000240: 84f7 713d 869f 6d3d 8911 063d de2e 533d
00000250: 48a3 6abd 53d8 643d ca34 9d3b 1051 733b
00000260: 773e 93bd 48e8 9a3c 7c82 1c3d da2f 0a3d
00000270: 3cfc 74bd 0c58 193d 3fa5 69bd ea29 4dbd
00000280: 61bd 4fbd 1772 4cbd e84b 783c c52f 79bd
00000290: 5d03 babc b193 853d 00c4 6ab9 0020 773d
000002a0: eed9 6abd 282d e93c b7d8 80bd 00ca 64bb
000002b0: 1c95 afbd 7352 d03b fcf3 573d dabd 4ebd
000002c0: 4434 7cbc 1c1a 143d 80c5 73bb e842 9fbc
000002d0: e87f e4bc 3b0d 353d f109 843d 4052 1abc
000002e0: 2bee e2bc c95c 4f3d 7990 28bc 33c7 653d
000002f0: 682f 9bbd 3877 5abd c614 bb3b c879 183d
00000300: 03df 5c3c d028 2b3d c19b 5cbd 0486 0cbd
00000310: e305 a6bc 5e00 333d 3eff 7c3d b9f9 633d
00000320: f347 77bc 2082 693c 45bb 7dbc 3bd9 0bbd
00000330: 16ca 7d3c 9283 a43c 918b acbc f27e 5bbd
00000340: 0547 32bd fea5 be3a 9644 033d 9702 5f3d
00000350: ec74 a438 cc0a 55bd 0d3e 95bd 36da 75bd
00000360: 45ad 173b 03e8 e13c a367 133d 00f4 8cbd
00000370: 0b28 19bd 2d5b cfbc cd55 5a3d adc4 70bd
00000380: 5cc0 4bbd 977e 4d3d 0a9d 8abd e93f 383d
00000390: eb11 68bd 8375 233c 18d8 8cbd 830d 6a3d
000003a0: f566 0ebd 35d1 773d c063 823d 43c5 303d
000003b0: 8770 593d 2563 043d 83c0 263d 784b 783c
000003c0: eb64 7fbc e8df 45bd 67bb 713b 62fe 28bd
000003d0: 6e2e 283d 06bd 8bbd ba57 41bd 9f05 31bd
000003e0: 855a 93bd b454 a0bb ba92 ee3c 4636 1fbd
000003f0: b05e 2cbc d402 d1bc 7381 8dbd 1221 783d

fc2.weight f4 [128, 256]
-0.039040163 -0.036575925 -0.026946979 0.047162883 0.019899402 -0.0040123775 0.036967237 -0.054514132
-0.02864848 0.014601447 0.03884092 0.002240069 -0.034362286 -0.009464368 0.056081004 0.00281211
-0.029982205 -0.04482238 -0.06440646 -0.00261119 -0.039429 0.014852856 0.06016993 0.030060798
0.018793829 0.027277209 -0.030054016 -0.032583214 -0.04922101 -0.0560511 -0.05285629 0.044858523
0.05309084 -0.0017691031 -0.05079615 -0.0039422875 -0.058855414 -0.008556269 -0.031651102 -0.030938718
0.022930317 -0.045091335 -0.02556968 -0.049895823 0.030409863 0.010723032 -0.027620515 -0.00578098
0.05343183 0.03180914 -0.055132553 -0.038313184 0.062267125 0.023704857 -0.0094212815 0.024105215
0.055972986 -0.06424918 -0.04523232 0.06285303 0.0030078818 -0.0026447847 -0.06475816 -0.018022558
-0.03484688 0.016400056 -0.058197625 -0.04151396 -0.019896355 -0.032378912 0.02997991 0.005947612
0.073098734 0.04689372 -0.053759016 -0.029532649 -0.0544725 -0.049957953 -0.046405036 -0.06518732
-0.05027506 0.045807086 -0.024524676 -0.055468246 0.037109878 0.011904918 0.010881826 -0.028702706
0.041805774 -0.03339419 -0.04685289 -0.12021873 -0.0070567615 0.032549717 0.04067869 0.039425585
-0.06173484 0.02746927 0.013230929 -0.039391845 -0.07437526 -0.056201965 -0.0383838 -0.0041764085
-0.06788523 0.049743205 -0.031385593 0.022017663 0.010832697 0.00031171038 0.049134016 0.01748759
-0.0492708 0.02097565 0.02214695 -0.005965054 -0.008797943 -0.049941033 -0.05664704 -0.04897272
-0.006040072 0.009142483 0.0032246662 0.0426561 0.008093465 0.013448501 -0.07498893 -0.041147534
-0.00012547562 -0.03411148 -0.04982097 0.016968839 -0.010128202 -0.057579577 0.057057083 -0.03000389
-0.033704594 0.026110984 0.031306393 -0.010077667 -0.026853474 0.027716234 -0.050140962 -0.059274275
-0.049922787 -0.05987685 -0.0639466 0.035957016 -0.050611824 -0.073771074 -0.052316137 -0.020433366
0.017187737 -0.029309768 -0.035171106 -0.01935707 0.01118548 0.05524438 -0.056894265 -0.03365498
0.045833528 0.008451767 0.052424468 -0.03452728 -0.013382186 -0.010593504 -0.031775743 -0.019793145
0.012156986 -0.030301904 -0.037880737 -0.0038739592 0.00783199 -0.034147505 0.04141309 0.036985084
-0.04089433 0.055597894 0.025865026 0.009696253 -0.0267689 -0.009930526 -0.022174815 -0.022936925
0.0041743144 -0.044210695 0.041167893 -0.034839027 -0.013300928 -0.045120575 0.033491172 0.021944229
0.038455226 -0.059608217 0.019323561 0.047142588 0.007629122 -0.044043288 0.014157174 0.040204685
-0.07257047 0.0025289194 -0.026829846 0.014167681 -0.020879278 -0.0757452 0.004439614 0.0031621829
0.054089207 -0.024307802 0.0055109872 -0.012670261 0.031103939 -0.016031848 0.029858308 -0.064999014
-0.0021753907 -0.052399155 -0.0069891056 0.023714349 -0.035210732 -0.053847507 -0.05390633 -0.06460275
-0.03333598 0.021987729 0.04814323 -0.053785484 -0.062441282 -0.060445026 -0.047975898 -0.07639027
-0.047146607 0.022975922 -0.043993928 -0.049317196 -0.050232932 -0.06408435 -0.017679079 -0.007329192
0.04017237 0.01354791 0.00367348 0.050989795 -0.027878307 -0.0118286535 -0.0360282 -0.018803148
0.019560587 -0.015657961 -0.048226546 -0.0087473905 -0.026423112 -0.079146594 -0.005781113 0.00761261
00000000: 94e8 1fbd a3d0 15bd e9bf dcbc de2d 413d
00000010: 1204 a33c 437a 83bb f56a 173d 364a 5fbd
00000020: 38b0 eabc e83a 6f3c a817 1f3d 1fce 123b
00000030: 78bf 0cbd 7010 1bbc 32b5 653d 604b 383b
00000040: 3e9d f5bc ac97 37bd 89e7 83bd 8020 2bbb
00000050: 4e80 21bd 6559 733c bf74 763d 1042 f63c
00000060: 84f5 993c 7474 df3c d733 f6bc fa75 05bd
00000070: f89b 49bd d795 65bd d67f 58bd 92bd 373d
00000080: c875 593d 40e1 e7ba a00f 50bd 4e2e 81bb
00000090: 6012 71bd 982f 0cbc 96a4 01bd 3273 fdbc
000000a0: 5cd8 bb3c b1b1 38bd 8177 d1bc 905f 4cbd
000000b0: 1b1e f93c a8af 2f3c 6b44 e2bc 606e bdbb
000000c0: 56db 5a3d 4d4a 023d acd2 61bd 49ee 1cbd
000000d0: d00b 7f3d b030 c23c b85b 1abc 4d78 c53c
000000e0: ee43 653d 1395 83bd 8645 39bd 17b9 803d
000000f0: e21f 453b 2054 2dbb ed9f 84bd 0ba4 93bc
00000100: 9abb 0ebd 6959 863c a260 6ebd 8b0a 2abd
00000110: aefd a2bc c09f 04bd 6e98 f53c 30e4 c23b
00000120: cab4 953d a113 403d 6a32 5cbd 74ee f1bc
00000130: 8e1e 5fbd b6a0 4cbd 3513 3ebd ee80 85bd
00000140: 39ed 4dbd 36a0 3b3d f9e7 c8bc ac32 63bd
00000150: 8700 183d d80c 433c b049 323c f021 ebbc
00000160: 883c 2b3d 59c8 08bd d1e8 3fbd 3d35 f6bd
00000170: 683c e7bb da52 053d b39e 263d b97c 213d
00000180: acdd 7cbd 3c07 e13c 8ac6 583c 5859 21bd
00000190: 0e52 98bd 0834 66bd 5538 1dbd 41da 88bb
000001a0: 6907 8bbd 88bf 4b3d 2e8e 00bd 635e b43c
000001b0: a07b 313c 0f6d a339 c040 493d 2242 8f3c
000001c0: 2ed0 49bd 20d5 ab3c 856d b53c 8076 c3bb
000001d0: 3f25 10bc f88e 4cbd ba06 68bd 9e97 48bd
000001e0: cceb c5bb 5aca 153c ec54 533b 2ab8 2e3d
000001f0: 749a 043c 1a57 5c3c cc93 99bd 518a 28bd
00000200: 1b92 03b9 7bb8 0bbd 1311 4cbd 3c02 8b3c
00000210: c2f0 25bc 90d8 6bbd b0b4 693d b8ca f5bc
00000220: d40d 0abd b4e6 d53c 223b 003d cd1c 25bc
00000230: d1fb dbbc 280d e33c 9c60 4dbd 95c9 72bd
00000240: d67b 4cbd 6e41 75bd 6ff6 82bd aa47 133d
00000250: 584e 4fbd 4a15 97bd 7249 56bd e063 a7bc
00000260: 4ccd 8c3c 0a1b f0bc 940f 10bd b892 9ebc
00000270: 4e43 373c ee47 623d f609 69bd ced9 09bd
00000280: f0bb 3b3d 4879 0a3c 0abb 563d 7a6c 0dbd
00000290: f540 5bbc 6090 2dbc 4827 02bd 3c25 a2bc
000002a0: 182e 473c b33b f8bc d528 1bbd 40e2 7dbb
000002b0: bf51 003c 41de 0bbd c6a0 293d ac7d 173d
000002c0: d080 27bd 9eba 633d e4e2 d33c 08dd 1e3c
000002d0: 744a dbbc a5b3 22bc f5a7 b5bc 38e6 bbbc
000002e0: b0c8 883b 4616 35bd aa9f 283d 5eb3 0ebd
000002f0: 23ec 59bc 5ad0 38bd 0a2e 093d 62c4 b33c
00000300: 3a83 1d3d bf27 74bd 724c 9e3c 9618 413d
00000310: b7fd f93b bc66 34bd 7ef3 673c abad 243d
00000320: d49f 94bd 3abc 253b 44ca dbbc 901f 683c
00000330: 050b abbc 4d20 9bbd 2e7a 913b a03c 4f3b
00000340: a58c 5d3d 2821 c7bc 8395 b43b ed96 4fbc
00000350: b0cd fe3c 3955 83bc 6999 f43c 341e 85bd
00000360: 0091 0ebb 7fa0 56bd de04 e5bb 9844 c23c
00000370: 2139 10bd 348f 5cbd e2cc 5cbd 724e 84bd
00000380: 4f8b 08bd 9c1f b43c d631 453d 2b4e 5cbd
00000390: 6ec2 7fbd 3495 77bd 6082 44bd 8072 9cbd
000003a0: cd1c 41bd 0038 bc3c fa32 34bd d400 4abd
000003b0: 0cc1 4dbd a83e 83bd b7d3 90bc b829 f0bb
000003c0: c88b 243d 0ef8 5d3c c4be 703b adda 503d
000003d0: 0c61 e4bc f8cc 41bc 4e92 13bd 0f09 9abc
000003e0: 863d a03c 2045 80bc 3389 45bd 3751 0fbc
000003f0: 4875 d8bc 9c17 a2bd 7e6f bdbb 3373 f93b

fc2.bias f4 [128]
-0.0068729897 -0.10344765 -0.00618679 -0.067565605 0.36683488 0.09486941 -0.3597818 -0.039284877
-0.64763737 -0.22842467 -0.19438551 -1.2086821 0.28451994 -0.030782357 -0.09515663 -0.044047404
-0.019809945 -0.035935428 -0.08655021 -0.5203262 -0.03903783 -0.00014141254 -0.06595541 -0.56740683
-0.89542985 -1.2668635 0.11346992 -0.15286447 0.6349768 -0.35559842 -0.01144549 -0.016802346
-0.04197333 -0.00931385 -0.056981057 -0.06415993 -0.6173995 -0.031356543 -0.6305827 -0.14270861
-0.12458038 0.514574 -0.66871095 -0.08279286 -0.06538923 -0.566665 -0.88789445 -0.067427985
-0.031264625 0.17428356 -1.0011919 0.22468974 -0.018872222 -1.0046489 -0.7840925 -0.6122238
-0.9651591 -0.049883954 -0.6471019 -0.16154775 -0.33931604 -0.0072937575 -0.01589536 0.038361143
-0.0013382416 -0.9512858 -0.03668969 0.08489828 -1.1146823 -0.08431225 0.4977077 -0.059591677
-0.040642656 -0.9804438 0.18887556 0.5592767 -0.09060594 0.3267842 -0.011282596 -0.0065709576
0.598541 -0.1380478 -0.21765694 -0.028059056 -0.95738757 -0.009037128 -0.07571199 -0.033288084
0.30983093 -0.42463458 0.3833553 -0.13992271 -0.706003 -0.09073946 0.2764199 -0.04584077
0.55262923 -0.028675586 -0.06476373 -0.2221399 -0.7162352 -0.02122285 -0.04655501 -0.24792667
0.22795008 -0.036145758 0.7795881 0.56125337 -0.66236115 -0.5498682 -0.052951623 -0.063185275
-0.044281013 -0.6145085 -0.08056532 0.807423 0.07641021 -1.0575116 -0.1009098 -0.016490266
-0.004847037 -0.085422054 0.27767932 -0.00607694 0.4464878 0.101312585 0.1100641 -0.086280435
00000000: d136 e1bb 5ddc d3bd 8eba cabb d65f 8abd
00000010: c8d1 bb3e e54a c23d 5235 b8be 2ee9 20bd
00000020: 90cb 25bf 28e8 69be ff0c 47be 18b6 9abf
00000030: 99ac 913e 482b fcbc 7be1 c2bd 0d6b 34bd
00000040: 7748 a2bc 0731 13bd 3d41 b1bd 1934 05bf
00000050: 22e6 1fbd 2448 14b9 a113 87bd 9341 11bf
00000060: e43a 65bf 9528 a2bf eb62 e83d 8188 1cbe
00000070: d78d 223f ff10 b6be dd85 3bbc 13a5 89bc
00000080: 3aec 2bbd 1e99 18bc f864 69bd 4866 83bd
00000090: e50d 1ebf b86f 00bd de6d 21bf 3522 12be
000000a0: 0024 ffbd 1fbb 033f a430 2bbf 4e8f a9bd
000000b0: caea 85bd f510 11bf 0d4d 63bf af17 8abd
000000c0: 560f 00bd 6477 323e 0e27 80bf 1115 663e
000000d0: eb99 9abc 5698 80bf 49ba 48bf b3ba 1cbf
000000e0: ab14 77bf 1e53 4cbd 78a8 25bf c66c 25be
000000f0: d5ba adbe 7900 efbb fc36 82bc 9320 1d3d
00000100: f067 afba 7787 73bf ee47 16bd 26df ad3d
00000110: e9ad 8ebf e7ab acbd 8bd3 fe3e 6716 74bd
00000120: ea78 26bd 5dfe 7abf 9868 413e c22c 0f3f
00000130: 9b8f b9bd 4250 a73e a3da 38bc 3051 d7bb
00000140: fc39 193f 675c 0dbe 76e1 5ebe 1bdc e5bc
00000150: 5a17 75bf 7610 14bc e30e 9bbd 1659 08bd
00000160: 29a2 9e3e b469 d9be 2547 c43e e647 0fbe
00000170: 9dbc 34bf 9cd5 b9bd e986 8d3e 88c3 3bbd
00000180: 1c79 0d3f 10e9 eabc d9a2 84bd a478 63be
00000190: 315b 37bf 8bdb adbc 77b0 3ebd 7de0 7dbe
000001a0: bf6b 693e 930d 14bd 1693 473f 4dae 0f3f
000001b0: 8090 29bf 2ac4 0cbf cde3 58bd 4867 81bd
000001c0: 0260 35bd 6e50 1dbf 6eff a4bd 46b3 4e3f
000001d0: f57c 9c3d 8a5c 87bf cca9 cebd 9816 87bc
000001e0: e5d3 9ebb c2f1 aebd fc2b 8e3e 1121 c7bb
000001f0: 0d9a e43e f97c cf3d 4969 e13d ccb3 b0bd

fc3.weight f4 [64, 128]
-0.014197981 0.025905117 -0.057485756 -0.06440505 -0.10210748 -0.015281554 0.034956906 -0.0064724823
-0.03138458 -0.007519041 0.059752516 -0.13586442 0.02696936 0.023413945 -0.032210253 -0.050698757
0.09879377 -0.014678154 0.0024267307 -0.115942106 0.05240631 -0.019207256 0.06753899 -0.042369068
-0.024475632 -0.17723843 0.029674161 -0.039493375 -0.09159288 -0.046537716 -0.031516496 0.0003425416
0.11646002 0.0013784763 -0.03950495 0.067280486 -0.11046642 -0.062066488 -0.062257517 -0.047504377
0.02351732 -0.26107332 0.07551681 -0.03648716 -0.08601398 0.012835594 0.05082135 -0.04595287
-0.057234053 0.049336124 0.0070332163 -0.063763015 0.036808785 -0.04185857 -0.01308918 -0.11532021
0.02183304 0.051151033 -0.061122093 -0.199711 -0.08082574 -0.047661923 0.07706983 -0.121918775
-0.021532632 -0.061001495 0.07482223 0.10711387 -0.12712613 -0.09041003 0.01403953 0.056653086
-0.0101875225 0.03776424 -0.020623103 -0.046088587 0.080924 0.21520528 0.06436179 -0.048728563
-0.2615611 0.015209583 -0.08080871 -0.027992668 -0.068242356 -0.0725949 0.07083555 0.030595036
-0.21359535 -0.150026 0.0076328036 -0.091450214 -0.044356804 -0.046999797 0.0064106463 0.00975432
0.094477594 -0.21897064 0.038107786 0.08826476 -0.0894196 0.042366754 -0.046210613 -0.023386095
-0.044645518 0.052698154 -0.105597004 -0.12737367 -0.046632092 -0.033194557 0.027002921 -0.07582759
-0.04180833 -0.08067469 0.048875425 -0.14810002 -0.012445494 0.03954508 -0.08633865 0.05997459
0.059935376 -0.040340558 -0.065468445 -0.06407463 0.008574044 -0.0336508 -0.044757284 0.0010821631
-0.016428798 0.029671043 0.029886603 -0.009518688 -0.09716968 0.007915027 0.010557041 0.03674347
0.029990945 -0.089080445 -0.06975154 0.027509086 0.06440165 -0.0025446545 0.046617236 -0.047544952
-0.029656734 -0.06181425 -0.0068340925 -0.007964521 -0.003915176 -0.08748377 -0.042080827 0.05945114
-0.11027534 -0.050019577 -0.07891541 -0.065373234 -2.9057264e-06 -0.042192597 -0.051582735 -0.046380308
0.046752036 0.072564654 0.012365897 0.046963386 -0.0781338 0.020673253 -0.08675826 0.05464621
-0.047126897 -0.015852204 -0.08394017 -0.08926141 -0.014695264 -0.01483896 -0.10159374 -0.08787142
-0.08051269 -0.019629633 0.0035547668 -0.043042004 0.06052036 -0.024380071 0.061124492 -0.07879678
0.018398501 -0.09129868 -0.1462415 0.032777343 -0.0643974 0.06392462 0.065667756 0.07014161
-0.073567204 -0.016705189 -0.05047718 -0.08504138 -0.03353512 -0.09221905 0.0014468059 -0.030528288
0.044311825 0.015515935 -0.03681704 0.035895303 0.05284626 0.023883736 -0.07906724 0.06759714
-0.006973069 -0.024865113 -0.057957005 -0.066770986 -0.009084173 -0.06670695 0.0574724 -0.043659173
-0.046605486 0.022439854 -0.013786467 -0.030481644 -0.055938095 -0.062515974 -0.04322869 -0.020550406
-0.003981778 -0.096337676 0.071060315 -0.030089984 -0.1096634 0.033021186 -0.075080775 0.00075592304
0.0018553959 0.048567705 -0.09868008 0.026785403 -0.12714933 0.02765891 -0.006038934 -0.05976992
-0.06120541 -0.08388838 0.044891875 -0.12820044 -0.030563781 -0.015891656 -0.05580703 0.05967871
0.05440503 0.0330068 -0.040057767 0.026464462 0.06288051 0.029528467 -0.0076518455 -0.099937215
00000000: a69e 68bc f836 d43c 2f76 6bbd cbe6 83bd
00000010: ba1d d1bd 7c5f 7abc f92e 0f3d 1e17 d4bb
00000020: 1e8d 00bd 4a62 f6bb 0ebf 743d 0b20 0bbe
00000030: d9ee dc3c 9ace bf3c e6ee 03bd 80a9 4fbd
00000040: 6354 ca3d a47c 70bc c909 1f3b 0e73 edbd
00000050: 00a8 563d 8958 9dbc e251 8a3d 308b 2dbd
00000060: 1f81 c8bc fe7d 35be 3a17 f33c cec3 21bd
00000070: 0c95 bbbd 559e 3ebd 7117 01bd 2897 b339
00000080: 9782 ee3d fdad b43a f1cf 21bd 5aca 893d
00000090: 383c e2bd 6e39 7ebd bd01 7fbd f393 42bd
000000a0: 65a7 c03c 67ab 85be 8fa8 9a3d 8f73 15bd
000000b0: 1928 b0bd 624c 523c 0c2a 503d 1439 3cbd
000000c0: 416e 6abd ad14 4a3d e576 e63b 2f96 82bd
000000d0: cfc4 163d e473 2bbd 0074 56bc 012d ecbd
000000e0: 34db b23c bf83 513d 295b 7abd 0a81 4cbe
000000f0: f787 a5bd 2639 43bd c9d6 9d3d 8db0 f9bd
00000100: 3465 b0bc b4dc 79bd 663c 993d 845e db3d
00000110: 5a2d 02be e528 b9bd 0f06 663c 110d 683d
00000120: 91e9 26bc adae 1a3d c8f1 a8bc 63c7 3cbd
00000130: 7bbb a53d c65e 5c3e 1dd0 833d 9a97 47bd
00000140: 56eb 85be 9d31 793c 097f a5bd e150 e5bc
00000150: a6c2 8bbd a3ac 94bd 3b12 913d 71a2 fa3c
00000160: bdb8 5abe 6aa0 19be 991c fa3b 404a bbbd
00000170: 7baf 35bd dc82 40bd 6610 d23b 95d0 1f3c
00000180: 787d c13d d739 60be e916 1c3d 28c4 b43d
00000190: a021 b7bd c388 2d3d 5747 3dbd 3294 bfbc
000001a0: 38de 36bd 05da 573d 3e43 d8bd 3e6e 02be
000001b0: 4b01 3fbd 04f7 07bd 3b35 dd3c 7f4b 9bbd
000001c0: 363f 2bbd c638 a5bd 9931 483d 88a7 17be
000001d0: 2fe8 4bbc 06fa 213d 51d2 b0bd eaa7 753d
000001e0: cc7e 753d 243c 25bd 5214 86bd 8f39 83bd
000001f0: 267a 0c3c 6cd5 09bd 6a53 37bd 5ed7 8d3a
00000200: b095 86bc b010 f33c c0d4 f43c 45f4 1bbc
00000210: e600 c7bd 08ae 013c 70f7 2c3c 5280 163d
00000220: 92af f53c cf6f b6bd e5d9 8ebd bc5a e13c
00000230: 03e5 833d 38c4 26bb b7f1 3e3d 7fbe 42bd
00000240: aef2 f2bc f030 7dbd 86f0 dfbb 9f7d 02bc
00000250: e04a 80bb b12a b3bd f25c 2cbd 0a83 733d
00000260: 0ad8 e1bd 54e1 4cbd 679e a1bd 67e2 85bd
00000270: 0000 43b6 25d2 2cbd 6b48 53bd 47f9 3dbd
00000280: 107f 3f3d c79c 943d 559a 4a3c ae5c 403d
00000290: 9d04 a0bd f45a a93c 51ae b1bd b4d4 5f3d
000002a0: 2208 41bd 7bdc 81bc d3e8 abbd b0ce b6bd
000002b0: 68c4 70bc 1c1f 73bc 6110 d0bd eef5 b3bd
000002c0: d6e3 a4bd 53ce a0bc 17f7 683b d04c 30bd
000002d0: 32e4 773d b7b8 c7bc ad5d 7a3d 3560 a1bd
000002e0: 74b8 963c cdfa babd 55c0 15be 8941 063d
000002f0: c9e2 83bd e9ea 823d d17c 863d 68a6 8f3d
00000300: 67aa 96bd 52d9 88bc 29c1 4ebd 2d2a aebd
00000310: 1f5c 09bd 57dd bcbd c0a2 bd3a 7616 fabc
00000320: 5180 353d 8c36 7e3c 77cd 16bd f406 133d
00000330: 5275 583d d3a7 c33c 01ee a1bd 5f70 8a3d
00000340: 587e e4bb ecb1 cbbc 5364 6dbd 3abf 88bd
00000350: c8d5 14bc a79d 88bd 2e68 6b3d f6d3 32bd
00000360: 65e5 3ebd c9d3 b73c a2e0 61bc a4b4 f9bc
00000370: 581f 65bd 6008 80bd 9110 31bd 5359 a8bc
00000380: 9379 82bb b04c c5bd 1288 913d 457f f6bc
00000390: 3497 e0bd 3941 073d f3c3 99bd 2329 463a
000003a0: c130 f33a eeee 463d c818 cabd 106d db3c
000003b0: 6f33 02be f094 e23c 40e2 c5bb 4ed1 74bd
000003c0: 86b2 7abd accd abbd 8be0 373d fa46 03be
000003d0: e560 fabc 382f 82bc ea95 64bd aa71 743d
000003e0: cfd7 5e3d 2332 073d 9d13 24bd 00cc d83c
000003f0: 7fc7 803d afe5 f13c 55bc fabb e2ab ccbd

fc3.bias f4 [64]
-0.25885138 -0.017115708 -0.12761769 -0.17095724 -0.46547493 -0.14115794 0.47389928 -0.5743605
-0.14666325 -0.023654938 -0.00162771 0.06685845 -0.03218167 0.5941621 -0.033182368 -0.16915506
-0.001190697 -1.1207544 0.02860217 -0.10835332 -1.0065565 0.00664876 -0.00813165 -0.17283429
-0.11315947 0.05455146 -0.079106286 -0.1259974 -0.1675797 0.07888849 -0.13115048 -0.2136387
-0.10302838 -0.040775616 -0.02004701 -0.7045539 0.6590751 -0.1788069 -0.13398735 -0.06501362
-0.15186718 -0.03347326 -0.06233585 -0.1659397 0.10076788 -0.3873512 -0.10685769 0.6131421
0.026249353 -0.5767392 -0.07273202 0.53553087 -0.122627266 -0.265231 -0.11981445 0.15024564
0.06301299 -0.26334447 -0.17009911 0.53483427 -0.0510718 -0.1351626 -1.0652698 0.7335391
00000000: 2b88 84be 3e36 8cbc 36ae 02be 6a0f 2fbe
00000010: bb52 eebe b58b 10be eda2 f23e 4a09 13bf
00000020: e42e 16be 00c8 c1bc e258 d5ba 15ed 883d
00000030: edd0 03bd 021b 183f 3cea 07bd fc36 2dbe
00000040: 2911 9cba e174 8fbf 194f ea3c 58e8 ddbd
00000050: d8d6 80bf d7dd d93b 9d3a 05bc 79fb 30be
00000060: 27c0 e7bd 5a71 5f3d 7a02 a2bd 7605 01be
00000070: 039a 2bbe 4a90 a13d 504c 06be 1ac4 5abe
00000080: 8b00 d3bd 5504 27bd a139 a4bc a55d 34bf
00000090: 25b9 283f 2819 37be fb33 09be dc25 85bd
000000a0: 1283 1bbe 421b 09bd e053 7fbd 19ec 29be
000000b0: 645f ce3d e652 c6be 34d8 dabd e1f6 1c3f
000000c0: e208 d73c 2ea5 13bf 86f4 94bd 8d18 093f
000000d0: 0124 fbbd 5ccc 87be 4761 f5bd fed9 193e
000000e0: f40c 813d 16d5 86be 762e 2ebe e6ea 083f
000000f0: aa30 51bd 1168 0abe c35a 88bf 38c9 3b3f

fc4.weight f4 [32, 64]
-0.043730658 0.01265308 -0.118361786 -0.08913685 0.13792706 0.0055121635 0.5816884 0.078468286
0.022637613 0.028427193 -0.0018680308 0.4036787 0.051876884 0.5414096 0.066109866 -0.11688228
0.025472816 -0.110966355 0.010983902 0.048096053 -0.4389897 0.031183068 -0.004632142 -0.1343732
-0.0054149213 0.17856051 0.10044716 -0.07442478 -0.09941312 0.7240335 -0.046218604 -0.017603947
0.42520964 0.048788656 -0.08133364 -0.14563188 -0.02599474 0.06258471 0.097994745 0.061618067
0.01047271 -0.013299649 0.0669816 -0.43553108 0.009341118 -0.113432385 0.09636099 0.25635535
-0.05852699 0.07523537 0.024250165 0.17536587 -0.008562413 0.042969614 -0.0556242 0.5757912
0.09797037 0.09907396 0.053609405 0.062220376 -0.06966117 0.10002625 -0.11793255 0.2180269
-0.08705105 -0.06903643 -0.044027407 -0.0257651 -0.010495425 -0.05842923 -0.106835924 -0.048249546
0.020952515 -0.068475574 -0.050862193 0.05955821 -0.08351222 -0.1039172 0.079960436 0.16092752
0.0019382476 -0.09468361 -0.10590845 0.102657534 0.24181563 -0.11893888 7.7356686e-05 -0.1335701
0.103020445 -0.10660302 -0.12389872 0.06483046 -0.13857143 0.20994987 -0.096108876 -0.06924295
0.107779734 -0.20559481 -0.017067995 0.12843837 0.09593169 -0.010847076 -0.016240053 -0.11887219
-0.055338893 0.03972155 -0.10208763 0.025709225 0.01400818 -0.00961546 -0.034717727 -0.22782107
-0.065228075 0.10249917 0.11444927 -0.11303573 0.030038351 0.42996067 0.05127581 0.014709152
0.21171874 0.20762746 0.11025387 -0.0006061669 0.20135121 -0.058506936 0.161549 -0.24927168
-0.09380706 0.048899326 0.022515649 -0.13419598 -0.08221344 0.06685964 0.27964765 0.28424713
-0.027729403 -0.14537713 0.06759474 0.5830712 -0.18648328 0.19253705 0.026629046 -0.01155605
-0.055326704 0.04972394 0.13089517 -0.11889264 -0.25621852 -0.0019821008 -0.13003796 -0.09706794
0.022308748 -0.087560296 0.08524283 0.17568846 -0.13381027 0.082263395 -0.10691227 0.013016095
-0.09446281 -0.13255541 0.032162573 -0.038468726 -0.05671071 -0.0017588664 0.10495356 0.035919234
-0.116375 0.06646778 0.028625837 -0.1400639 0.49139413 0.1263195 -0.02666094 0.40209985
-0.097872026 0.17400917 -0.07851275 0.2649087 0.06428969 -0.121311605 0.030082785 0.1350889
0.67271346 0.09603922 0.098044164 -0.123003624 0.014638023 -0.09989226 0.007960482 0.40991992
0.07154289 -0.0545056 0.08818071 -0.071678646 0.033200506 0.016024463 0.03727516 0.007736454
0.035704546 -0.10778925 -0.087063834 -0.1995642 0.02170243 -0.08278235 -0.039751455 -0.08315243
-0.068310186 -0.116616555 -0.024498664 0.024803137 -0.18107106 -0.0024673105 -0.1464998 0.05683566
-0.068102464 -0.118429616 -0.07199116 -0.022854699 -0.043295212 -0.040976007 0.04827388 0.057960093
0.028111497 -0.08553509 -0.092468545 -0.070030965 -0.1122567 -0.043205664 0.095322594 -0.078662336
0.06749094 0.051671818 0.08705902 0.07280375 -0.17151351 0.21993199 -0.107373916 -0.056100663
0.019372137 -0.13235264 -0.12234774 -0.14702728 0.028626114 -0.10091655 0.023513198 -0.07954683
0.01807819 -0.15776794 -0.1123582 0.09269231 -0.06459075 -0.0045855343 -0.011727604 -0.14207467
00000000: eb1e 33bd dd4e 4f3c aa67 f2bd 618d b6bd
00000010: c03c 0d3e 619f b43b 88e9 143f fbb3 a03d
00000020: 8472 b93c 25e0 e83c b6d8 f4ba f9ae ce3e
00000030: db7c 543d d299 0a3f 9c64 873d fa5f efbd
00000040: 5eac d03c 5442 e3bd d3f5 333c 5e00 453d
00000050: 42c3 e0be a273 ff3c 39c9 97bb 2199 09be
00000060: a76f b1bb 91d8 363e 3eb7 cd3d 056c 98bd
00000070: 1b99 cbbd 425a 393f b84f 3dbd 2736 90bc
00000080: 14b5 d93e 9dd6 473d 4092 a6bd 8620 15be
00000090: ecf2 d4bc 6a2c 803d 78b1 c83d 3a63 7c3d
000000a0: bb95 2b3c c5e6 59bc a62d 893d eefd debe
000000b0: 7d0b 193c 3d4f e8bd e958 c53d 0241 833e
000000c0: ffb9 6fbd 0015 9a3d 48a8 c63c 1c93 333e
000000d0: 5d49 0cbc e800 303d 33d6 63bd 0d67 133f
000000e0: b0a4 c83d 4ae7 ca3d 8995 5b3d cbda 7e3d
000000f0: 84aa 8ebd 90da cc3d 9f86 f1bd 7242 5f3e
00000100: d247 b2bd f962 8dbd 1556 34bd 5511 d3bc
00000110: 01f5 2bbc 7d53 6fbd cbcc dabd 51a1 45bd
00000120: 9ca4 ab3c ec3c 8cbd e054 50bd 4ff3 733d
00000130: 7408 abbd 8ad2 d4bd 4cc2 a33d 2fca 243e
00000140: cc0c fe3a 7be9 c1bd 88e6 d8bd 1d3e d23d
00000150: 849e 773e 3a96 f3bd 8e3a a238 9ac6 08be
00000160: 62fc d23d af52 dabd 9dbe fdbd d5c5 843d
00000170: abe5 0dbe 19fd 563e bbd4 c4bd 3fcf 8dbd
00000180: 9fbb dc3d 7287 52be 2ed2 8bbc 5985 033e
00000190: d577 c43d efb7 31bc dc09 85bc 4373 f3bd
000001a0: 09ab 62bd 10b3 223d 5213 d1bd 279c d23c
000001b0: 9182 653c 2a8a 1dbc 2d34 0ebd ed49 69be
000001c0: 4c96 85bd 16eb d13d 6164 ea3d 477f e7bd
000001d0: fd12 f63c ce23 dc3e 9506 523d a8fe 703c
000001e0: cccc 583e 4b9c 543e c8cc e13d 2ce7 1eba
000001f0: 032f 4e3e f8a4 6fbd 1a6d 253e 1341 7fbe
00000200: ea1d c0bd a94a 483d bd72 b83c ac6a 09be
00000210: 855f a8bd b5ed 883d fa2d 8f3e d788 913e
00000220: c628 e3bc bedd 14be 1c6f 8a3d 2744 153f
00000230: 79f5 3ebe 6f28 453e 2825 da3c 9655 3dbc
00000240: 419e 62bd 55ab 4b3d 6209 063e fc7d f3bd
00000250: 132f 83be 22e6 01bb ac28 05be 8ecb c6bd
00000260: d6c0 b63c d052 b3bd cb93 ae3d ade7 333e
00000270: 8f05 09be b679 a83d d2f4 dabd 7641 553c
00000280: b875 c1bd 9bbc 07be e7bc 033d 6291 1dbd
00000290: 7d49 68bd c389 e6ba e4f1 d63d 0c20 133d
000002a0: 0456 eebd 4220 883d bb80 ea3c e96c 0fbe
000002b0: 0398 fb3e e659 013e 0b68 dabc 08e0 cd3e
000002c0: 2171 c8bd 762f 323e 4bcb a0bd 1da2 873e
000002d0: 50aa 833d 3872 f8bd 2c70 f63c bf54 0a3e
000002e0: f336 2c3f 36b0 c43d 61cb c83d 53e9 fbbd
000002f0: 52d4 6f3c 5094 ccbd ae6c 023c 06e1 d13e
00000300: 1485 923d 4441 5fbd 1798 b43d 41cc 92bd
00000310: 41fd 073d bc45 833c d7ad 183d 1482 fd3b
00000320: ee3e 123d 9cc0 dcbd 864e b2bd 8f5a 4cbe
00000330: 4bc9 b13c cb89 a9bd 6cd2 22bd d24b aabd
00000340: 36e6 8bbd a9d4 eebd 6cb1 c8bc f32f cb3c
00000350: b16a 39be 9ab2 21bb 0b04 16be 82cc 683d
00000360: 4e79 8bbd 3a8b f2bd 1a70 93bd c739 bbbc
00000370: 5256 31bd 75d6 27bd d5ba 453d 9067 6d3d
00000380: 154a e63c 052d afbd 2660 bdbd 656c 8fbd
00000390: d7e6 e5bd 6cf8 30bd 7e38 c33d b819 a1bd
000003a0: b138 8a3d d4a5 533d 004c b23d 221a 953d
000003b0: 3da1 2fbe da35 613e dbe6 dbbd cfc9 65bd
000003c0: 51b2 9e3c 7387 07be 7491 fabd 528e 16be
000003d0: 5081 ea3c 56ad cebd c09e c03c 73e9 a2bd
000003e0: b618 943c eb8d 21be 0e1c e6bd 77d5 bd3d
000003f0: 2848 84bd 4042 96bb 2325 40bc 067c 11be

fc4.bias f4 [32]
0.414363 -0.8201521 0.8745255 -0.20034567 0.5703202 -0.39608514 -0.26731852 -0.19217329
0.106014244 -0.074095 -0.18186994 0.72129965 -0.06626704 0.7041712 -0.09888683 1.2035776
-0.068660736 -0.14453362 -0.46201575 0.18610413 1.3257476 0.067065485 -0.15961038 0.17103732
-0.6020054 -0.041172907 0.0068552457 -0.30729562 -0.09822412 0.087291025 0.15726882 -0.1606709
00000000: 6327 d43e 7df5 51bf e7e0 5f3f 6a27 4dbe
00000010: 8100 123f accb cabe f9dd 88be 13c9 44be
00000020: ff1d d93d 1fbf 97bd 1d3c 3abe 18a7 383f
00000030: 04b7 87bd 9044 343f 2e85 cabd d50e 9a3f
00000040: 009e 8cbd 9f00 14be 548d ecbe 1592 3e3e
00000050: 19b2 a93f a159 893d e770 23be 6824 2f3e
00000060: 071d 1abf eca4 28bd f8a1 e03b da55 9dbe
00000070: ba29 c9bd a3c5 b23d 140b 213e ea86 24be

fc5.weight f4 [3, 32]
0.27725467 -0.23010653 0.3176267 0.039928537 0.11675936 -0.06715807 -0.097794734 -0.122276686
0.26544392 -0.14567249 -0.08345284 0.10457417 -0.06353883 -0.11530115 0.22923447 0.19734043
-0.020741291 0.071189836 0.012455847 0.07111586 0.4209442 0.12965685 0.029402876 0.09962733
0.021693658 -0.025318954 0.02359194 -0.07765882 -0.1390643 0.121549614 0.2970067 0.048915304
-0.33873123 -0.09481935 -0.32525685 0.066824384 0.024651607 -0.089918844 -0.119566664 -0.18495443
-0.5128962 0.27177116 0.13851602 0.041960213 0.064515315 -0.16133799 -0.03023246 -0.15501143
0.0466192 0.06579915 0.006399508 0.104122475 -0.12823538 -0.06354272 0.02269565 -0.045134913
-0.024500089 -0.0007491647 -0.025212334 0.27525404 0.2147158 -0.1309311 -0.16374224 -0.0008344029
-0.74402547 0.18196872 -0.82947195 0.03426321 -0.47369596 0.25293884 -0.7543352 -0.11447488
-0.13893247 -0.1953786 -0.43094882 -0.9383355 -0.29357958 0.33739352 -0.34310028 -0.12695627
-0.078229316 -0.19454497 -0.006383609 -0.7833506 -0.35069647 -0.34946233 -0.15377012 0.11133723
-0.021044865 -0.012263371 -0.49903938 -0.09207496 -0.17644517 -0.49003372 -0.6818279 -0.062939025
00000000: 53f4 8d3e 0ca1 6bbe f89f a23e 1b8c 233d
00000010: 881f ef3d 2c8a 89bd 9b48 c8bd 336c fabd
00000020: 44e8 873e 2b2b 15be 53e9 aabd fc2a d63d
00000030: a520 82bd 0223 ecbd 71bc 6a3e 9c13 4a3e
00000040: a4e9 a9bc facb 913d 9c13 4c3c 31a5 913d
00000050: 0086 d73e c4c4 043e 4dde f03c 6a09 cc3d
00000060: e6b6 b13c b269 cfbc e243 c13c 960b 9fbd
00000070: df66 0ebe 01ef f83d 4311 983e 6a5b 483d
00000080: 2e6e adbe a630 c2bd 1188 a6be 39db 883d
00000090: 2bf2 c93c 5f27 b8bd 5edf f4bd b264 3dbe
000000a0: 2a4d 03bf 9725 8b3e 25d7 0d3e 79de 2b3d
000000b0: 9b20 843d c935 25be 10aa f7bc 51bb 1ebe
000000c0: c6f3 3e3d b4c1 863d f7b2 d13b 2a3e d53d
000000d0: 2350 03be b022 82bd 3aec b93c 63df 38bd
000000e0: 69b4 c8bc 9863 44ba 198a cebc 19ee 8c3e
000000f0: 75de 5b3e cd12 06be 0cac 27be d5bb 5aba
00000100: 7478 3ebf 0256 3a3e 4658 54bf 9457 0c3d
00000110: 4788 f2be 3381 813e 1d1c 41bf ce71 eabd
00000120: 5044 0ebe 5411 48be 53a5 dcbe c136 70bf
00000130: 1050 96be d8be ac3e d7aa afbe d300 02be
00000140: b136 a0bd cc36 47be 982d d1bb aa89 48bf
00000150: 7d8e b3be baec b2be ea75 1dbe c604 e43d
00000160: 4866 acbc 4eec 48bc 1782 ffbe cc91 bcbd
00000170: 0bae 34be b3e5 fabe 468c 2ebf 2de6 80bd

fc5.bias f4 [3]
1.436567 -0.9561384 -1.0849408
00000000: 6de1 b73f 7cc5 74bf 57df 8abf
