01_pytorch_workflow.pth (torch, 327991 bytes, 6 tensors)

fc1.weight f4 [256, 187]
-0.05095837 -0.04034615 0.0072646914 -0.14864707 -0.24612522 -0.095616944 0.12782614 -0.040872127
0.040102467 0.03767255 -0.0140440995 0.063630104 0.007215215 0.0431431 -0.0722879 -0.036559004
0.03714633 0.058453392 -0.06725557 0.00045006062 -0.05157043 -0.071129516 -0.049254127 0.00069952145
0.012596448 -0.03500923 0.012568178 -0.012811945 -0.010661229 -0.056928426 0.06344654 -0.012140237
-0.035878588 0.031015608 0.023094686 0.052132986 -0.023344005 -0.023042323 0.037464112 -0.0108169895
-0.07833044 -0.07596641 0.05197402 0.00023691932 -0.07752924 0.05505299 -0.06452227 0.01596334
0.054302715 -0.045763556 -0.030401023 0.04502537 0.010059013 -0.01890703 -0.044571742 0.010747752
-0.00820029 -0.012756207 0.06607133 0.02439327 0.031487055 -0.076500826 -0.03972715 -0.01644223
-0.07171312 -0.04506602 0.059897877 0.021738851 0.04402285 0.034626655 0.014112078 0.010948165
0.058417443 0.006997621 -0.06816442 -0.05132737 -0.04506755 -0.03687292 0.029979194 0.043814026
-0.022236506 0.024409452 0.04547491 -0.07577703 0.038745463 -0.018876659 0.015435166 0.0118004335
0.038187847 -0.014189721 -0.041884206 -0.027743345 0.02220528 -0.059120532 -0.0002841353 -0.022369506
0.06723427 -0.06184536 -0.007076087 -0.016987808 0.044802535 -0.06704007 0.037760206 0.015170716
0.030223615 0.053264722 -0.021965507 -0.06504624 -0.012200689 0.017769055 0.026119571 -0.03741318
0.03736949 0.042313386 0.013280689 0.04945441 0.064529195 0.024082068 -0.021886194 -0.051922485
0.009047304 -0.08381279 0.029593827 -0.044670857 0.047741145 -0.08974809 -0.023843007 -0.054668512
-0.068887696 0.0011164593 -0.07811666 0.049376998 -0.03764671 0.05859825 -0.083886504 0.051573005
-0.056751765 -0.043181304 0.059129804 -0.03515034 -0.009577108 -0.024123292 -0.020127416 -0.055061765
-0.029725889 -0.07717193 -0.08080568 0.0022931271 -0.06282974 -0.010471907 0.044131506 -0.06443742
-0.027495641 0.031970214 0.026110303 0.042321406 -0.022864034 0.033335496 -0.0036947718 -0.023976034
0.05785189 -0.07112869 0.0032010267 0.052445788 -0.06673297 -0.040361483 0.023443315 0.030259345
-0.06968253 0.024164304 0.012192636 0.06810801 0.052565947 0.03658337 -0.077184126 0.061894335
-0.00065475504 0.009853623 -0.038827304 0.0021075434 0.057483874 -0.035299424 0.012844739 0.017161401
-0.065407395 0.0002597419 0.101649426 0.03807035 0.030490974 -0.016981818 0.028664233 0.008185858
0.06497666 0.038988117 0.021591336 0.04259702 -0.010199458 0.030253572 0.0074648745 -0.06691918
-0.037349455 -0.046889175 0.005618391 -0.056224488 -0.017549243 -0.04480285 0.06232474 0.05221816
0.008852958 0.0015786471 0.06212662 -0.034015723 -0.012236499 0.053196363 -0.025505524 -0.07480839
-0.03645869 -0.054323945 -0.04604431 -0.04479648 0.052679144 0.025873415 -0.05711572 0.0032487628
-0.02559439 -0.041371312 -0.06654216 -0.015496709 0.056504034 -0.023624048 0.035309665 0.027103597
0.053349204 -0.033467934 0.065310985 0.017982021 0.017059065 -0.046982102 0.06539373 0.014696755
0.05226987 -0.059722118 -0.013829933 -0.04939286 0.049189664 -0.019599255 -0.07777338 -0.042987656
-0.076629445 -0.060895942 -0.018632317 -0.07061567 -0.05251173 -0.032264 0.06570196 -0.002001781
00000000: b9b9 50bd 0142 25bd a60c ee3b f036 18be
00000010: 4008 7cbe d1d2 c3bd dbe4 023e 8869 27bd
00000020: 7c42 243d 884e 1a3d 3919 66bc 8050 823d
00000030: 9c6d ec3b d2b6 303d ae0b 94bd e5be 15bd
00000040: c026 183d d36c 6f3d 4abd 89bd 1df6 eb39
00000050: 843b 53bd 5aac 91bd b2be 49bd 1760 373a
00000060: 5561 4e3c d765 0fbd c2ea 4d3c 31e9 51bc
00000070: 6fac 2ebc c82d 69bd 42f0 813d d8e7 46bc
00000080: 6df5 12bd 7214 fe3c 1131 bd3c 6689 553d
00000090: ed3b bfbc 41c3 bcbc f873 193d be39 31bc
000000a0: b66b a0bd 4794 9bbd b6e2 543d 8c6d 7839
000000b0: a6c7 9ebd 3e7f 613d 4024 84bd 8dc5 823c
000000c0: 866c 5e3d 9172 3bbd 910b f9bc 866c 383d
000000d0: 8fce 243c eae2 9abc dc90 36bd 5717 303c
000000e0: 825a 06bc 69ff 50bc 6850 873d 65d4 c73c
000000f0: 92f8 003d 77ac 9cbd f0b8 22bd dbb1 86bc
00000100: 54de 92bd 2697 38bd 7a57 753d ad15 b23c
00000110: 4e51 343d aed4 0d3d 5836 673c ef5f 333c
00000120: 2147 6f3d 4d4c e53b ca99 8bbd a63c 52bd
00000130: c098 38bd 0f08 17bd ed96 f53c 5676 333d
00000140: 5529 b6bc 55f6 c73c e643 3a3d fd30 9bbd
00000150: 90b3 1e3d 39a3 9abc c7e3 7c3c 9b56 413c
00000160: dc6a 1c3d 017c 68bc c68e 2bbd 0346 e3bc
00000170: d9e7 b53c 5f28 72bd fff7 94b9 4140 b7bc
00000180: 1fb2 893d 8f51 7dbd 85de e7bb 042a 8bbc
00000190: dd82 373d 4e4c 89bd 72aa 1a3d 988e 783c
000001a0: 8497 f73c 1c2c 5a3d 02f1 b3bc f736 85bd
000001b0: 66e5 47bc 6990 913c b6f8 d53c 903e 19bd
000001c0: c010 193d cd50 2d3d 3f97 593c b590 4a3d
000001d0: e227 843d c247 c53c ad4a b3bc acac 54bd
000001e0: 253b 143c 0aa6 abbd c16e f23c caf8 36bd
000001f0: 388c 433d d9cd b7bd 6952 c3bc 17ec 5fbd
00000200: fe14 8dbd 2856 923a a1fb 9fbd 893f 4a3d
00000210: 7033 1abd b804 703d b0cc abbd 373e 533d
00000220: 8a74 68bd e1de 30bd 1832 723d cef9 0fbd
00000230: 4de9 1cbc 369e c5bc 40e2 a4bc 7288 61bd
00000240: b583 f3bc 510c 9ebd 737d a5bd 4a48 163b
00000250: e1ac 80bd 5d92 2bbc 3dc3 343d c4f7 83bd
00000260: 8a3e e1bc 33f3 023d 46e5 d53c 3659 2d3d
00000270: 5b4d bbbc cd8a 083d fc23 72bb 6369 c4bc
00000280: 1af6 6c3d ebab 91bd 51c8 513b 65d1 563d
00000290: 4cab 88bd 1552 25bd 320c c03c 72e2 f73c
000002a0: b7b5 8ebd 38f4 c53c 9fc3 473c 367c 8b3d
000002b0: 644f 573d 72d8 153d b612 9ebd ea84 7d3d
000002c0: dea3 2bba 1771 213c 6109 1fbd b61e 0a3b
000002d0: 3674 6b3d 2196 10bd bd72 523c 1196 8c3c
000002e0: 50f4 85bd f82d 8839 932d d03d a8ef 1b3d
000002f0: 35c8 f93c 741d 8bbc 41d1 ea3c fa1d 063c
00000300: 7c12 853d 01b2 1f3d 50e0 b03c 367a 2e3d
00000310: a11b 27bc 57d6 f73c e89b f43b ec0c 89bd
00000320: befb 18bd dd0e 40bd 7b1a b83b a64b 66bd
00000330: 6ec3 8fbc 3183 37bd 3a48 7f3d b6e2 553d
00000340: ff0b 113c 9bea ce3a 7c78 7e3d 1254 0bbd
00000350: 997b 48bc 6ee4 593d f6f0 d0bc 2435 99bd
00000360: b555 15bd c982 5ebd f598 3cbd 847c 37bd
00000370: 16c6 573d 7cf4 d33c 2cf2 69bd 32e9 543b
00000380: 54ab d1bc f774 29bd 4247 88bd e9e5 7dbc
00000390: c670 673d 3887 c1bc dea0 103d 5d08 de3c
000003a0: b284 5a3d ac15 09bd c4c1 853d 084f 933c
000003b0: 74bf 8b3c 4e70 40bd 26ed 853d a9ca 703c
000003c0: ee18 563d 2e9f 74bd f196 62bc 2b50 4abd
000003d0: 1a7b 493d 9e8e a0bc a647 9fbd d313 30bd
000003e0: e6ef 9cbd 066e 79bd cda2 98bc f39e 90bd
000003f0: 8a16 57bd 4227 04bd c08e 863d 5030 03bb

fc1.bias f4 [256]
0.019125741 -0.046077218 0.02858448 -0.034290507 -0.012258019 -0.014817487 -0.050750062 0.0024509914
0.053112365 0.019933827 -0.0032682396 0.03674794 -0.039095346 0.062547505 0.05927382 0.058122016
-0.05376558 -0.07287844 0.04761269 -0.006841743 0.054736935 -0.06737091 -0.0023721776 0.051398464
0.065067194 0.019700706 -0.047861878 0.0009778916 0.07289724 0.040520735 0.005716115 0.009497525
0.07084611 -0.01653416 0.018689178 0.05882733 -0.00096145814 0.05670242 0.055448286 0.04011386
-0.055523507 0.025257915 0.0124874115 -0.021875769 0.045076672 -0.05232386 0.028296664 0.058498602
-0.010919861 -0.035663247 -0.036916707 -0.051454064 -0.04450066 -0.026080027 -0.049929496 -0.027636914
0.03514819 0.008109736 0.05825373 0.0565042 0.04877907 -0.026462182 0.019194856 -0.022063818
-0.019171823 -0.086989656 -0.029583992 0.06625975 0.02619604 -0.067246564 0.050173804 -0.058064457
0.0051543564 -0.049037237 -0.07086891 0.013360858 0.051759772 0.015787639 -0.001327533 -0.06800674
0.03230993 -0.07417163 0.039961554 0.05064192 -0.050198205 -0.059142865 -0.025732227 -0.06638508
-0.0533391 0.008249671 -0.0073903142 -0.0640782 -0.04365428 0.01987464 0.0422868 0.041900452
-0.005521366 -0.041122835 -0.080936454 0.021168614 -0.03817901 0.022246294 0.022526586 0.009551093
0.051110905 -0.017432671 0.048865587 -0.06800822 -0.0031419902 0.03405341 0.035832986 0.063155755
-0.042259876 -0.00556712 -0.08391755 0.014172092 -0.020507557 -0.07704211 0.031900987 0.031654306
0.070662886 -0.041297976 0.015990041 -0.016330604 -0.065145 0.0471315 0.044873297 -0.049333893
0.06833485 -0.06869294 0.036643505 -0.046095636 -0.01633305 0.019222138 0.049027603 0.055569306
-0.048809566 0.0026619958 -0.00054421515 -0.003745155 0.051256705 -0.015537458 0.04691892 -0.051895525
-0.077029 -0.0028743518 0.0690763 -0.06448729 0.063880876 -0.016224172 0.05738923 0.0434855
-0.0024117455 -0.0041999705 -0.0021152769 -0.05878681 -0.08736117 0.02358492 -0.036215328 0.034785356
-0.01937325 0.0010939521 -0.07153997 -0.017501522 0.038073495 -0.053510807 0.019499846 -0.07209654
0.039081015 -0.0731414 -0.053343255 0.06719057 -0.008698215 0.02481402 -0.00467576 -0.046387624
-0.00082735455 -0.0780318 -0.0013386648 -0.078318134 -0.031507134 -0.04675023 -0.0025283722 -0.0056652436
0.0121370405 0.0030863327 -0.049903035 -0.016500853 -0.018388368 0.029156728 0.0031160738 0.0045495466
-0.05250943 -0.06517058 -0.018674828 -0.02805862 -0.07729172 -0.043977093 -0.0649462 -0.050133914
0.053432897 0.04240615 -0.058347095 0.064486146 -0.07359484 0.0074794586 0.049302276 -0.05570502
-0.09629778 0.0029968768 -0.0726225 0.03275497 0.030027054 0.032934587 0.025362983 0.030697007
-0.07445241 -0.0671676 0.0071287975 -0.012755517 -0.019292971 0.04565385 0.062050223 -0.054364048
-0.072534926 0.007725917 -0.06740057 0.044915564 0.013734145 0.052891087 0.04321911 -0.05896129
-0.056311905 -0.020718133 -0.040353134 -0.030347386 -0.074340895 0.0031387524 0.003820534 0.019070044
-3.090071e-05 -0.04832515 -0.021898312 0.046266954 0.0019089537 -0.08250256 0.021838985 0.047360238
-0.04006184 0.0069365324 0.061319184 -0.049613975 0.054508217 -0.008205249 -0.06512758 -0.024816422
00000000: 96ad 9c3c 77bb 3cbd 002a ea3c 3474 0cbd
00000010: dcd5 48bc 0cc5 72bc 4cdf 4fbd d0a0 203b
00000020: 5a8c 593d 444c a33c f62f 56bb 0285 163d
00000030: 7122 20bd e818 803d 1bc9 723d 5a11 6e3d
00000040: 4c39 5cbd 4b41 95bd 8605 433d b330 e0bb
00000050: d633 603d c2f9 89bd 8976 1bbb 3287 523d
00000060: f341 853d 6063 a13c d10a 44bd 992c 803a
00000070: 264b 953d 12f9 253d 3f4e bb3b 829b 1b3c
00000080: c417 913d a672 87bc 0c1a 993c edf4 703d
00000090: 5d0a 7cba cc40 683d be1d 633d 6e4e 243d
000000a0: 9e6c 63bd b0e9 ce3c 0098 4c3c d034 b3bc
000000b0: 51a2 383d 8b51 56bd 68ce e73c 3b9c 6f3d
000000c0: 37e9 32bc a013 12bd f935 17bd 7fc1 52bd
000000d0: 5346 36bd c8a5 d5bc df82 4cbd cf66 e2bc
000000e0: 8cf7 0f3d b3de 043c 779b 6e3d f370 673d
000000f0: 90cc 473d 38c7 d8bc 883e 9d3c 2ebf b4bc
00000100: 3a0e 9dbc a227 b2bd 215a f2bc 31b3 873d
00000110: 1499 d63c 91b8 89bd 0c83 4d3d ffd4 6dbd
00000120: e0e5 a83b 45db 48bd b823 91bd 80e7 5a3c
00000130: 0e02 543d 1455 813c 9e00 aeba 1e47 8bbd
00000140: 6b57 043d 4ce7 97bd baae 233d e76d 4f3d
00000150: a29c 4dbd ca3f 72bd 64cc d2bc e7f4 87bd
00000160: 1a7a 5abd a129 073c 732a f2bb 6e3b 83bd
00000170: d5ce 32bd 24d0 a23c ec34 2d3d cf9f 2b3d
00000180: 93ec b4bb 6b70 28bd 03c2 a5bd cd69 ad3c
00000190: 9861 1cbd dc3d b63c ad89 b83c 307c 1c3c
000001a0: ab59 513d f6ce 8ebc 4827 483d e547 8bbd
000001b0: d9e9 4dbb 977b 0b3d 9cc5 123d ce57 813d
000001c0: b118 2dbd 636c b6bb f7dc abbd 1032 683c
000001d0: 77ff a7bc 41c8 9dbd 9caa 023d f2a7 013d
000001e0: b4b7 903d 1128 29bd 8cfd 823c c2c7 85bc
000001f0: be6a 85bd f60c 413d 10cd 373d 5612 4abd
00000200: 24f3 8b3d e2ae 8cbd 8017 163d c7ce 3cbd
00000210: e3cc 85bc bf77 9d3c 2bd1 483d a49c 633d
00000220: 8aec 47bd e174 2e3b a9a9 0eba 4671 75bb
00000230: 8df2 513d d290 7ebc 0e2e 403d 6790 54bd
00000240: 61c1 9dbd 9f5f 3cbb e077 8d3d ea11 84bd
00000250: fad3 823d 8ee8 84bc f810 6b3d da1d 323d
00000260: 600e 1ebb e89f 89bb 75a0 0abb 70ca 70bd
00000270: 6aea b2bd 2a35 c13c 8656 14bd 177b 0e3d
00000280: a6b4 9ebc f162 8f3a 8c83 92bd 5a5f 8fbc
00000290: f4f2 1b3d 262e 5bbd 24be 9f3c 5aa7 93bd
000002a0: 6a13 203d 29cb 95bd 757e 5abd 369b 893d
000002b0: f582 0ebc c646 cb3c 1e37 99bb f300 3ebd
000002c0: d3e2 58ba 23cf 9fbd 2376 afba 4265 a0bd
000002d0: a00d 01bd 2b7d 3fbd 0cb3 25bb 82a3 b9bb
000002e0: 70da 463c 1244 4a3b 2067 4cbd cc2c 87bc
000002f0: 34a3 96bc 17da ee3c 0b37 4c3b 5d14 953b
00000300: 2114 57bd 2778 85bd f4fb 98bc 31db e5bc
00000310: 1f4b 9ebd 5321 34bd 8302 85bd 3859 4dbd
00000320: 74dc 5a3d 12b2 2d3d 5dfd 6ebd 5011 843d
00000330: e4b8 96bd 3f16 f53b 2ff1 493d f22a 64bd
00000340: c537 c5bd 4067 443b 1bbb 94bd 132a 063d
00000350: 4cfb f53c 6be6 063d 08c6 cf3c 4a78 fb3c
00000360: 817a 98bd 2b8f 89bd b098 e93b 84fc 50bc
00000370: 4b0c 9ebc 88ff 3a3d 6028 7e3d d6ac 5ebd
00000380: 318d 94bd b029 fd3b 4f09 8abd 62f9 373d
00000390: 2e05 613c 53a4 583d 8606 313d 6581 71bd
000003a0: 50a7 66bd 13b9 a9bc 5449 25bd 159b f8bc
000003b0: 0a40 98bd 87b3 4d3b ed61 7a3b c838 9c3c
000003c0: 629b 01b8 98f0 45bd 1764 b3bc 6b82 3d3d
000003d0: db35 fa3a 1af7 a8bd ace7 b23c cffc 413d
000003e0: e217 24bd da4b e33b d329 7b3d 0638 4bbd
000003f0: 0244 5f3d 4f6f 06bc 9c61 85bd cf4b cbbc

fc2.weight f4 [128, 256]
0.01853901 -0.05575341 0.014796257 3.6767503e-06 0.05162535 -0.053717732 -0.023887375 -0.02960896
0.04051382 -0.03587729 -0.016507605 -0.0080907745 -0.0039987895 -0.044056393 -0.0049348273 0.04449913
-0.15969843 0.051694304 -0.03290879 -0.032430038 -0.024961302 0.035992242 -0.0030043647 0.031936735
-0.064671576 -0.0068091005 -0.027627243 -0.06762163 -0.049656354 -0.0318449 -0.09539939 -0.047895513
-0.0074527934 -0.037485898 0.054980174 -0.031544924 0.022058977 0.03212986 -0.034590982 -0.05631488
0.023508927 -0.013999291 -0.05450607 -0.051675357 -0.022812285 0.03494875 0.026373707 -0.061923996
0.013315158 0.05560796 -0.06322047 0.011632286 -0.022966988 0.049562663 0.024491875 -0.05993227
0.016536493 0.026420197 0.012211113 -0.034889597 -0.010175966 0.039255716 0.043781318 0.01933231
0.056334365 -0.025100617 -0.019969031 0.0034956082 -0.039546974 -0.10708866 -0.020934628 -0.02452908
-0.0067583323 -0.0027052334 -0.05943291 -0.038284533 0.014183848 -0.026302122 -0.044053443 0.014050645
0.0511408 0.031380147 -0.04873778 -0.014008672 0.047582425 0.027546212 -0.041804247 0.036608793
0.046189167 0.04445023 -0.1903066 -0.068007365 -0.02569736 0.03448744 -0.026446298 -0.024276117
0.008228071 -0.022115096 0.0037774113 -0.06499176 -0.0655942 0.02819258 -0.065163985 -0.051561438
-0.117601976 0.021588517 0.017825887 -0.028556056 0.039873518 0.021877808 0.0070317457 0.017570525
0.010677354 -0.05693167 0.004394603 -0.04520171 -0.01695446 0.0030450951 -0.037795335 -0.008935952
-0.057896838 -0.010007098 0.03471285 -0.017091636 -0.03972986 -0.010449833 0.022395855 -0.059692964
-0.006221667 0.014481893 -0.0679261 -0.049070485 -0.054637134 -0.006266374 -0.067575805 0.04971879
0.009269126 0.051619902 -0.048309177 0.049608737 -0.042042606 -0.0065049795 -0.001269035 -0.062004723
0.013584069 0.0015240409 -0.048053846 -0.058388922 0.045828924 0.014954677 -0.0054225475 -0.006049745
0.059758596 0.02191256 -0.008497516 -0.0015369682 0.046402037 0.005292709 -0.040723003 0.054003477
-0.007965641 -0.036511496 -0.0053612404 0.045240328 0.0039015263 -0.05722881 -0.050504588 -0.0037557837
-0.03661453 0.04355322 0.017238421 0.053743206 0.051609643 0.048882514 -0.022415968 -0.05299151
-0.064142615 0.012228593 0.036651395 -0.02011732 -0.0011839196 -0.035837412 -0.0115582 0.032279402
-0.057470307 -0.014626071 0.022868713 -0.017028429 -0.009050071 0.008437857 -0.04269356 0.011301301
0.0030927197 0.010733355 0.025572143 -0.06233903 0.013147382 -0.037813842 -0.00264211 -0.01082626
-0.05346874 -0.012466907 0.038952634 -0.025717521 0.05468311 0.038489416 -0.030758927 0.009384826
0.019315006 -0.062412445 0.011903204 0.023123633 -0.05016431 -0.027070029 -0.041149653 -0.02480788
-0.021934466 0.056867056 -0.053932235 0.051919855 0.0009772911 -0.022675524 -0.041573457 -0.014016159
0.027356379 -0.00014440954 -0.04394542 -0.057664588 0.04031103 0.023521658 0.020076094 -0.014202185
-0.03570579 -0.03526581 0.0535215 0.056059115 -0.06197067 -0.032648426 0.0072339494 0.029807216
0.049364567 0.040442877 -0.052339874 0.004855554 -0.015989935 -0.03168026 -0.016445851 0.04882612
-0.0033255168 0.053429626 -0.035666946 -0.020696193 0.019711336 0.052173607 -0.05215782 0.033752844
00000000: 1fdf 973c b05d 64bd 006c 723c 17be 7636
00000010: 1a75 533d 2007 5cbd 75af c3bc 7d8e f2bc
00000020: d2f1 253d 11f4 12bd f53a 87bc 2b8f 04bc
00000030: 4708 83bb 7a74 34bd 55b4 a1bb b844 363d
00000040: fc87 23be 68bd 533d 5ecb 06bd 5cd5 04bd
00000050: a57b ccbc 9a6c 133d e0e4 44bb 18d0 023d
00000060: 8872 84bd e01e dfbb 8752 e2bc 367d 8abd
00000070: 7664 4bbd cc6f 02bd c160 c3bd 162e 44bd
00000080: 9036 f4bb d08a 19bd e432 613d 4035 01bd
00000090: 07b5 b43c 9a9a 033d 46af 0dbd 6eaa 66bd
000000a0: cb95 c03c 485d 65bc c241 5fbd 8aa9 53bd
000000b0: d4e0 babc 6c26 0f3d ac0d d83c 04a4 7dbd
000000c0: d227 5a3c 2cc5 633d bc79 81bd 5895 3e3c
000000d0: 4425 bcbc 3802 4b3d 2fa3 c83c 8a7b 75bd
000000e0: 8a77 873c 2b6f d83c 1f11 483c 65e8 0ebd
000000f0: 18b9 26bc 9aca 203d 0a54 333d cb5e 9e3c
00000100: ddbe 663d cf9f cdbc 1896 a3bc 9316 653b
00000110: 02fc 21bd 4d51 dbbd 197f abbc 36f1 c8bc
00000120: 0075 ddbb 494a 31bb ec6f 73bd 3ed0 1cbd
00000130: 5f63 683c 8c77 d7bc 6271 34bd ad34 663c
00000140: 0479 513d 7888 003d 44a1 47bd a184 65bc
00000150: cae5 423d 98a8 e13c ee3a 2bbd 1af3 153d
00000160: da30 3d3d 7211 363d bcdf 42be 7247 8bbd
00000170: 4583 d2bc b442 0d3d e8a5 d8bc b5de c6bc
00000180: 08cf 063c b82a b5bc 728e 773b 661a 85bd
00000190: 4056 86bd 20f4 e63c b274 85bd 1632 53bd
000001a0: 4ed9 f0bd 67da b03c 9807 923c 64ee e9bc
000001b0: 6a52 233d 1739 b33c 8f6a e63b 10f0 8f3c
000001c0: 12f0 2e3c 2f31 69bd 9a00 903b 6e25 39bd
000001d0: 14e4 8abc 3890 473b 48cf 1abd 1968 12bc
000001e0: 3c25 6dbd d0f4 23bc 102f 0e3d c203 8cbc
000001f0: c7bb 22bd c735 2bbc 8377 b73c 9c80 74bd
00000200: 20df cbbb 7645 6d3c d71c 8bbd 22fe 48bd
00000210: 30cb 5fbd 2856 cdbb 2f65 8abd eea5 4b3d
00000220: 88dd 173c 646f 533d d8df 45bd 8832 4b3d
00000230: de34 2cbd b927 d5bb c055 a6ba aaf8 7dbd
00000240: b78f 5e3c 54c2 c73a 1cd4 44bd 3929 6fbd
00000250: 1cb7 3b3d 7604 753c a0af b1bb f03c c6bb
00000260: 6ec5 743d f881 b33c 2a39 0bbc 1874 c9ba
00000270: 1010 3e3d 766e ad3b 2acd 26bd c032 5d3d
00000280: 5282 02bc 148d 15bd 58ad afbb ec4d 393d
00000290: c0b0 7f3b c268 6abd e6dd 4ebd 9823 76bb
000002a0: 1ef9 15bd dc64 323d 9737 8d3c d621 5c3d
000002b0: a264 533d 0839 483d b1a1 b7bc a00d 59bd
000002c0: 345d 83bd 705a 483c c61f 163d 14cd a4bc
000002d0: c02d 9bba 40ca 12bd 9b5e 3dbc 6837 043d
000002e0: fc65 6bbd 30a2 6fbc 2b57 bb3c 347f 8bbc
000002f0: c046 14bc f03e 0a3c 71df 2ebd 1829 393c
00000300: 3aaf 4a3b f4da 2f3c ac7c d13c 3657 7fbd
00000310: 1e68 573c b0e2 1abd 4027 2dbb a060 31bc
00000320: 0a02 5bbd ff41 4cbc cc8c 1f3d 8dad d2bc
00000330: 66fb 5f3d 14a7 1d3d 25fa fbbc d0c2 193c
00000340: 813a 9e3c 31a4 7fbd a805 433c c66d bd3c
00000350: 1779 4dbd f7c1 ddbc 8a8c 28bd e539 cbbc
00000360: e9af b3bc 6eed 683d 0ce8 5cbd eaa9 543d
00000370: 7318 803a 05c2 b9bc ee48 2abd 08a4 65bc
00000380: 7c1a e03c a46c 17b9 1d00 34bd b431 6cbd
00000390: 2e1d 253d 7eb0 c03c 9f76 a43c 48b0 68bc
000003a0: 3c40 12bd e272 10bd 5c39 5b3d 3e9e 653d
000003b0: f5d4 7dbd 5bba 05bd c40a ed3b 432e f43c
000003c0: 8032 4a3d 6ea7 253d 5662 56bd 571b 9f3b
000003d0: 53fd 82bc 29c3 01bd 73b9 86bc e6fd 473d
000003e0: eaf0 59bb 06d9 5a3d 8117 12bd 108b a9bc
000003f0: ab79 a13c feb3 553d 70a3 55bd 6c40 0a3d

fc2.bias f4 [128]
-0.22334288 -0.014105361 -0.010257814 -0.079873964 -0.07887658 0.82030576 -0.037881322 -0.10245636
-0.044752646 -0.04320954 -0.018635377 0.5762623 -0.0035392859 -0.01990148 -0.047452703 -0.030003605
-0.0046821735 -1.6320182 -0.05641945 0.20982769 -0.052519646 -0.046721995 -0.10636645 1.069782
-0.37960157 -0.38360292 -0.079717055 -0.099843025 0.3615561 -0.001343721 -1.8230611 0.8576886
-0.010262872 -0.1469181 -0.07605398 -0.53256524 -0.035501614 -0.003241613 1.6239991 -0.038810555
-0.03674366 -0.046100065 -0.035158638 -0.06742193 0.19405043 -0.03780091 -0.14556953 -1.0359364
-0.053591847 -0.08609314 -0.07441241 0.66492975 -0.12547651 -9.217005e-05 -0.12193842 -0.06736048
-0.15227585 -0.17896312 -0.009530583 -0.042549938 -0.10234104 -0.07168702 -0.08393578 -0.12606965
-0.32561964 2.3693252 -0.037587952 -0.20129618 -0.040174793 -0.12778851 -0.0007860682 -0.025776677
-0.22203705 0.80652815 -0.010984381 0.12072859 -0.04958124 -0.034322202 -0.09357734 -0.043535583
-0.06767116 -0.009213228 -0.09801289 -0.048542496 -0.15980199 -0.0030199487 -0.08631848 -0.20446868
-0.019177763 0.73321146 -0.16358021 -0.023244362 -0.010890738 -0.015597142 -0.029997893 -0.042647135
-0.058557857 -2.186218 -0.013250984 -0.4479179 -2.0866694 -0.009032819 -0.10564061 0.8374171
-0.05743799 -0.006934158 -0.060367752 -0.14667958 1.7207125 -0.004053471 -0.09562903 -0.24780448
-0.10679535 -0.07852197 -0.14294514 -0.053783197 -0.012928038 0.6542704 -0.12645006 0.55308646
-0.07443526 -0.03588889 -0.06363995 -0.11368669 -0.1424309 -0.060161203 -0.44344324 -0.08857215
00000000: ffb3 64be 2c1a 67bc 6410 28bc f694 a3bd
00000010: 0b8a a1bd 8fff 513f 7229 1bbd a4d4 d1bd
00000020: 8d4e 37bd 7dfc 30bd 38a9 98bc ed85 133f
00000030: 5df3 67bb 6e08 a3bc c45d 42bd 1fca f5bc
00000040: eb6c 99bb f9e5 d0bf 1518 67bd 12dd 563e
00000050: d71e 57bd 905f 3fbd a7d6 d9bd 9eee 883f
00000060: 235b c2be 9a67 c4be b242 a3bd 807a ccbd
00000070: e21d b93e cb1f b0ba 115a e9bf 7b91 5b3f
00000080: 9b25 28bc b371 16be 30c2 9bbd 3256 08bf
00000090: 246a 11bd 3e71 54bb 34df cf3f d1f7 1ebd
000000a0: 8580 16bd 6cd3 3cbd 8102 10bd 8214 8abd
000000b0: 28b5 463e 21d5 1abd 2e10 15be 9099 84bf
000000c0: 2083 5bbd 9a51 b0bd 8965 98bd d638 2a3f
000000d0: ea7c 00be 6b4b c1b8 daba f9bd 4bf4 89bd
000000e0: 33ee 1bbe 1c42 37be 2a26 1cbc d848 2ebd
000000f0: 2e98 d1bd a5d0 92bd 86e6 abbd 6718 01be
00000100: 9eb7 a6be 06a3 1740 d3f5 19bd 9620 4ebe
00000110: 538e 24bd feda 02be 2510 4eba 9c29 d3bc
00000120: ae5d 63be a178 4e3f d5f7 33bc 8d40 f73d
00000130: b315 4bbd 7095 0cbd 7aa5 bfbd 5e52 32bd
00000140: 2d97 8abd 14f3 16bc fbba c8bd 7fd4 46bd
00000150: 22a3 23be 55ea 45bb bec7 b0bd 3d60 51be
00000160: af1a 9dbc bfb3 3b3f 9281 27be f66a bebc
00000170: 116f 32bc 288b 7fbc 24be f5bc c3ae 2ebd
00000180: 5dda 6fbd ffea 0bc0 a81a 59bc 7f55 e5be
00000190: fe8b 05c0 64fe 13bc 1b5a d8bd f860 563f
000001a0: 1944 6bbd ef37 e3bb 2d44 77bd 2c33 16be
000001b0: 4f40 dc3f fbd2 84bb 27d9 c3bd 75c0 7dbe
000001c0: 85b7 dabd 20d0 a0bd 3660 12be c54b 5cbd
000001d0: 1fd0 53bc 447e 273f 207c 01be 1397 0d3f
000001e0: 8371 98bd 3b00 13bd a955 82bd 91d4 e8bd
000001f0: 68d9 11be 986b 76bd fe0a e3be 5165 b5bd

fc3.weight f4 [3, 128]
-0.041191544 0.10814619 -0.09843147 0.013274782 0.06205608 0.15475826 0.064512715 -0.019588597
-0.05052637 0.017121807 0.031293236 0.1278798 -0.03609426 0.031520113 -0.010766789 -0.04943697
0.0024758987 -0.022799626 -0.043182332 0.09056467 0.10267252 0.036322694 0.00839001 -0.07367646
-0.06343704 -0.05514992 -0.016568232 0.059441105 0.058817755 0.07227856 -0.028098399 -0.68216777
0.09867279 -0.07551207 0.014282571 -0.033319555 0.06854106 0.012479148 0.11898109 -0.003085913
-0.028832367 0.030246489 -0.044821065 0.017109882 -0.08061246 -0.028156182 -0.044480126 -0.029573185
-0.0069200606 0.04888857 -0.019927708 -0.71079624 -0.011436475 -0.05502218 0.01988532 0.022396257
0.06620986 0.09770079 0.1201717 0.0735565 0.006423886 -0.023196585 -0.064206034 -0.05628847
-0.018277183 0.19008304 0.01666053 -0.021835366 0.08960578 -0.017349867 0.07446064 -0.02953819
0.034358125 -0.63484895 0.068916194 -0.14684182 -0.05131789 -0.041127935 0.03448221 0.07555299
0.055620413 0.11688577 -0.0075537087 0.0098703485 -0.030476468 -0.044129666 -0.014390158 0.005983286
-0.016002802 -0.1281056 -0.066101104 0.025116 0.1791174 -0.04063605 0.02403338 -0.034628
0.016328953 -0.099926025 0.040437203 0.06483516 -0.049466297 0.02257991 0.0720588 -0.020023579
0.054174073 0.010022343 -0.03605606 -0.016416509 -0.04616035 -0.009610294 -0.065310426 -0.032589026
-0.014436115 -0.02674978 0.02967026 0.013126757 0.0072978246 -0.53024304 0.06898935 0.07374785
0.05728594 0.028014844 0.033808533 0.051268063 0.037414037 -0.0094060125 -0.036430083 -0.022051334
0.003818802 0.037974406 -0.06080736 0.022297796 -0.033214428 -1.5386728 0.024967631 -0.0070985095
-0.056796513 -0.08952385 -6.904667e-05 -1.1456542 -0.05619685 0.027547682 -0.05216895 -0.045269
-0.21795607 0.083703116 0.04564601 -0.55404186 -0.006027423 0.030202836 -0.3048625 -0.42826438
-0.006213744 -0.029346103 -0.03200234 0.07596098 0.10505162 0.052827667 0.03394322 0.3438276
-0.021388572 -0.0660494 0.013266285 0.14058088 -0.07163707 -0.066560276 -0.34829664 0.055793326
0.0033408282 -0.082223095 -0.0006513851 -0.07711523 -0.9412765 -0.029846445 -0.06615259 0.12282197
-0.00025789882 -0.010215871 -0.063038155 -1.650562 -0.057640065 0.088065736 0.081033655 0.023757236
0.054300245 0.07912663 -0.0037388522 -0.022411352 -0.030012855 -0.03414699 -0.035298955 -0.049567018
-0.06203893 -1.6865568 -0.016480252 -0.05593893 0.031268634 -0.04281186 0.073612854 -0.02761351
0.027491054 0.20503417 -0.117708184 -1.6074468 -0.08121051 -0.04107887 -0.099001504 0.03568814
0.024911456 -1.5271939e-05 -0.03902309 0.017422097 -0.029752927 -0.037608754 -0.016858082 0.05815432
-0.03096754 0.6749939 -0.10059928 -0.019223532 -0.036481075 0.03899405 0.049524527 0.0034843702
-0.12390455 0.24188171 -0.29938686 0.068931796 0.14864253 -0.029751036 0.050091513 0.48624083
0.07683126 -0.021303874 -0.06750319 -0.019035274 -0.25146297 -0.07590202 -0.08341176 -0.033145472
-0.037670843 -0.026460392 0.07429282 -0.11905089 -0.063680276 -2.010603 0.070033774 -0.9731395
0.041589003 -0.031966113 -0.24393679 0.07042034 0.025728686 -0.017628582 -0.015680073 -0.06701522
00000000: 77b8 28bd c07b dd3d 7096 c9bd 797e 593c
00000010: 842e 7e3d f378 1e3e 3e1f 843d 4478 a0bc
00000020: bdf4 4ebd 0843 8c3c 562d 003d ecf2 023e
00000030: 93d7 13bd 3c1b 013d 3067 30bc 6c7e 4abd
00000040: b042 223b 48c6 babc f5df 30bd f879 b93d
00000050: f845 d23d 1bc7 143d 4176 093c afe3 96bd
00000060: 47eb 81bd e2e4 61bd 1aba 87bc 8478 733d
00000070: e3ea 703d c806 943d 9d2e e6bc 8ca2 2ebf
00000080: f614 ca3d 12a6 9abd 7201 6a3c 167a 08bd
00000090: 415f 8c3d 5775 4c3c 5cac f33d 073d 4abb
000000a0: db31 ecbc 7cc7 f73c 4b96 37bd 062a 8c3c
000000b0: 2518 a5bd cba7 e6bc cb30 36bd 7743 f2bc
000000c0: adc1 e2bb 623f 483d 6f3f a3bc bef6 35bf
000000d0: 0e60 3bbc f05e 61bd 8ae6 a23c 5b78 b73c
000000e0: 0999 873d 5a17 c83d 951c f63d caa4 963d
000000f0: 767f d23b c406 bebc 747e 83bd bd8e 66bd
00000100: 08ba 95bc 21a5 423e aa7b 883c 15e0 b2bc
00000110: 3c83 b73d 4f21 8ebc d27e 983d 13fa f1bc
00000120: 1bbb 0c3d 7685 22bf ef23 8d3d b45d 16be
00000130: b532 52bd c475 28bd 383d 0d3d 87bb 9a3d
00000140: 3bd2 633d ce61 ef3d 1a85 f7bb 3eb7 213c
00000150: c9a9 f9bc 4fc1 34bd b2c4 6bbc 710f c43b
00000160: 4f18 83bc 1d2e 03be 0460 87bd 12c0 cd3c
00000170: 8d6a 373e fd71 26bd a7e1 c43c 17d6 0dbd
00000180: 4cc4 853c 04a6 ccbd 7ba1 253d 4cc8 843d
00000190: 2c9d 4abd 81f9 b83c 9093 933d 7d08 a4bc
000001a0: a2e5 5d3d c134 243c 85af 13bd ea7b 86bc
000001b0: a312 3dbd 7f74 1dbc 79c1 85bd 127c 05bd
000001c0: 7485 6cbc 5b22 dbbc 0c0f f33c 9c11 573c
000001d0: 9722 ef3b 02be 07bf 4a4a 8d3d 1d09 973d
000001e0: a9a4 6a3d 637f e53c d17a 0a3d 76fe 513d
000001f0: 763f 193d ad1b 1abc b637 15bd 00a5 b4bc
00000200: de44 7a3b 0d8b 1b3d 2311 79bd dea9 b63c
00000210: da0b 08bd 3bf3 c4bf eb88 cc3c 9d9a e8bb
00000220: 76a3 68bd 4858 b7bd 26cd 90b8 cca4 92bf
00000230: ab2e 66bd adab e13c 1caf 55bd fd6b 39bd
00000240: e02f 5fbe 8a6c ab3d 50f7 3a3d b0d5 0dbf
00000250: b081 c5bb f06b f73c f016 9cbe 7845 dbbe
00000260: aa9c cbbb 3d67 f0bc e314 03bd 6e91 9b3d
00000270: 4e25 d73d d361 583d 0c08 0b3d 2c0a b03e
00000280: 1637 afbc e844 87bd d55a 593c 6ff4 0f3e
00000290: 75b6 92bd c150 88bd f053 b2be 8b87 643d
000002a0: ccf1 5a3b 9564 a8bd b7c1 2aba 97ee 9dbd
000002b0: 7ff7 70bf 8880 f4bc 027b 87bd 168a fb3d
000002c0: 9836 87b9 7860 27bc 261a 81bd 9e45 d3bf
000002d0: fd17 6cbd cf5b b43d f9f4 a53d 899e c23c
000002e0: ef69 5e3d 250d a23d 8807 75bb 0398 b7bc
000002f0: 85dd f5bc b7dd 0bbd a395 10bd c906 4bbd
00000300: 881c 7ebd 18e1 d7bf 9801 87bc 3820 65bd
00000310: 8a13 003d 7d5b 2fbd 56c2 963d ba35 e2bc
00000320: eb34 e13c 7af4 513e fd10 f1bd d1c0 cdbf
00000330: b251 a6bd 5142 28bd 4dc1 cabd ba2d 123d
00000340: 1c13 cc3c 3d1c 80b7 add6 1fbd c9b8 8e3c
00000350: 69bc f3bc a30b 1abd f619 8abc 3933 6e3d
00000360: a3af fdbc 66cc 2c3f ff06 cebd ab7a 9dbc
00000370: 2e6d 15bd 3ab8 1f3d 3bda 4a3d 085a 643b
00000380: abc1 fdbd d7af 773e 3c49 99be 1d2c 8d3d
00000390: bf35 183e 72b8 f3bc c22c 4d3d 8ff4 f83e
000003a0: b559 9d3d 7685 aebc 1d3f 8abd ddef 9bbc
000003b0: c1bf 80be 8572 9bbd c9d3 aabd 8cc3 07bd
000003c0: be4c 1abd 77c3 d8bc d626 983d f4d0 f3bd
000003d0: ce6a 82bd b8ad 00c0 de6d 8f3d ac1f 79bf
000003e0: 3b59 2a3d e6ee 02bd 91ca 79be 8a38 903d
000003f0: f7c4 d23c d169 90bc 7f73 80bc 473f 89bd

fc3.bias f4 [3]
0.7199239 -2.513588 0.17321083
00000000: ef4c 383f a0de 20c0 2e5e 313e
