01_pytorch_workflow.pth (torch, 366295 bytes, 10 tensors)

fc1.weight f4 [256, 184]
0.11385897 3.8821108 8.743093 -4.1625686 -0.088219106 -0.049372926 -0.14781667 -0.021210415
-0.007798587 -0.1285925 -0.13848461 -0.10569661 -0.10942891 -0.1326838 -0.027573513 -0.14156827
-0.14922053 -0.11893422 -0.018612573 -0.05221592 -0.12049493 -0.027276604 -0.13510746 -0.11279545
-0.032582786 -0.11240752 -0.12933068 -0.053663433 -0.09724508 -0.020265115 -0.043655425 -0.117771395
-0.09263099 -0.08540338 -0.13459449 -0.09844218 -0.060793266 -0.10487505 -0.09881442 -0.00921531
-0.10915611 -0.010225223 -0.03203863 -0.12883864 -0.15176895 -0.121815965 -0.13060942 -0.027601296
-0.0660138 -0.0626861 -0.09064418 -0.0668143 -0.10969445 -0.023516813 -0.014992184 -0.054220494
-0.050930373 -0.0990051 -0.0285246 -0.10386528 -0.024127763 -0.06789689 -0.0057448107 -0.079323895
-0.019002879 -0.09528 -0.04260067 -0.030236114 -0.04175011 -0.13776267 -0.024187405 -0.037930023
-0.011949085 -0.07160501 -0.08567485 -0.11305193 -0.040940378 -0.06599226 -0.08813741 -0.15154876
-0.11851691 -0.09796409 -0.10100871 -0.06830483 -0.100572325 -0.08033991 -0.046399545 -0.111194074
-0.07042208 -0.0800964 0.024193242 -0.07227151 0.004554462 -0.029734913 0.025461985 -0.051096197
-0.022941858 -0.085973464 -0.07528443 -0.038837682 -0.061637335 0.027468827 0.028429506 -0.062367927
-0.09611385 -0.075130604 0.029368551 -0.027970498 -0.038216475 0.041178145 0.015720438 0.072330534
0.09738152 0.1173102 0.094196856 0.27199927 0.13606904 0.077421695 0.037628777 -0.10103033
-0.13924266 -0.14971763 -0.07683489 -0.08838149 -0.03210758 0.02697333 0.05205323 0.0010528608
-0.10505483 -0.05597258 0.01385456 0.084895305 0.18868269 0.15585533 0.052173 0.1404112
0.107603185 -0.101901665 -0.12112486 0.15766889 0.3286843 0.32343712 -0.0136184525 -0.040396288
-0.034744762 0.07876386 -0.27144098 -0.01944285 -0.094372146 -0.42280376 -0.43152314 -0.5156986
-0.6454224 -0.622908 -0.43894014 -0.5268859 -0.5815418 -0.13620822 -0.20078434 0.25434935
0.08386399 -0.03181201 -0.018147213 -0.18855031 -0.10626897 0.008925116 -0.06464277 0.005753368
0.09581885 0.055683848 0.046175487 0.040925797 0.13719667 0.12590899 0.1332176 0.06591363
0.043364838 -0.028395865 -0.0790971 0.016920285 -0.056556348 -0.12723225 -0.07360894 13.105875
0.06836076 -0.087074704 -0.04213959 -0.077518485 -0.039839465 0.00042837282 -0.02255246 -0.06240035
-0.008231502 0.025753416 -0.024638161 0.030779421 -0.07949102 -0.07452289 -0.09131131 -0.0960887
0.030175041 -0.00074808946 -0.094862826 -0.06362668 -0.035704896 -0.007941802 -0.03336647 -0.01946166
0.039454155 0.03534353 0.043350074 0.00704194 0.025740705 -0.06890028 -0.061753005 -0.033749655
-0.08159315 0.012563016 0.0035107448 0.03716703 -0.03584228 0.019052707 -0.06793321 0.029503116
0.02112929 -0.05845143 -0.04422829 -0.070761405 -0.04873977 0.012551811 -0.055378873 -0.0018898979
-0.06981355 0.050372455 -0.08499704 -0.06842687 -0.00048023343 -0.0026137363 -0.028382113 0.03217225
-0.02214481 0.0062903105 0.022901913 -0.036712337 -0.08804046 -0.014377852 -0.0049539865 -0.0685296
-0.09076381 -0.024875274 -0.007572017 -0.094065495 -0.09129672 -0.0651 0.032610822 -0.018566169
00000000: e42e e93d 8174 7840 b5e3 0b41 c333 85c0
00000010: 38ac b4bd 443b 4abd 415d 17be 77c1 adbc
00000020: 4a8b ffbb c1ad 03be e9ce 0dbe 7777 d8bd
00000030: 441c e0bd 43de 07be d9e1 e1bc 46f7 10be
00000040: 44cd 18be c993 f3bd 6579 98bc 5ce0 55bd
00000050: 0cc6 f6bd 2f73 dfbc 9c59 0abe 4d01 e7bd
00000060: 8775 05bd ea35 e6bd 436f 04be 30ce 5bbd
00000070: 6e28 c7bd 0703 a6bc 08d0 32bd 2132 f1bd
00000080: 51b5 bdbd f8e7 aebd 23d3 09be 0e9c c9bd
00000090: 5c02 79bd bbc8 d6bd 375f cabd d0fb 16bc
000000a0: 3d8d dfbd b287 27bc f03a 03bd 47ee 03be
000000b0: 5269 1bbe a67a f9bd 7abe 05be 1d1c e2bc
000000c0: 3e32 87bd 9261 80bd a8a3 b9bd f0d5 88bd
000000d0: 7ca7 e0bd 55a6 c0bc c7a1 75bc 4f16 5ebd
000000e0: 5e9c 50bd 30c3 cabd 6cac e9bc 52b7 d4bd
000000f0: 96a7 c5bc 860d 8bbd f73e bcbb 9174 a2bd
00000100: edab 9bbc 2922 c3bd 0a7e 2ebd bab1 f7bc
00000110: 2a02 2bbd a811 0dbe aa24 c6bc 835c 1bbd
00000120: 18c6 43bc a6a5 92bd 4c76 afbd c587 e7bd
00000130: 19b1 27bd f326 87bd 6381 b4bd 992f 1bbe
00000140: feb8 f2bd 66a1 c8bd a8dd cebd 67e3 8bbd
00000150: ddf8 cdbd 4089 a4bd 730d 3ebd b8b9 e3bd
00000160: 7439 90bd 9509 a4bd e830 c63c 1603 94bd
00000170: 993d 953b a296 f3bc a795 d03c 3f4a 51bd
00000180: 90f0 bbbc db12 b0bd b92e 9abd 4314 1fbd
00000190: 6e77 7cbd 4e06 e13c ffe4 e83c 8375 7fbd
000001a0: 57d7 c4bd 13de 99bd 5196 f03c 6322 e5bc
000001b0: e188 1cbd 6aaa 283d 26c8 803c 0822 943d
000001c0: f66f c73d 5540 f03d 48ea c03d 7d43 8b3e
000001d0: af55 0b3e 448f 9e3d a220 1a3d fde8 cebd
000001e0: a195 0ebe 944f 19be 9c5b 9dbd 5b01 b5bd
000001f0: 3d83 03bd 2cf7 dc3c c535 553d 2500 8a3a
00000200: fd26 d7bd 8143 65bd 3dfe 623c 97dd ad3d
00000210: 0936 413e 8a98 1f3e 5bb3 553d f4c7 0f3e
00000220: 0f5f dc3d d2b1 d0bd 5010 f8bd f473 213e
00000230: 4f49 a83e 8d99 a53e ee1f 5fbc 9476 25bd
00000240: 8650 0ebd f24e a13d 50fa 8abe 9d46 9fbc
00000250: 2f46 c1bd bc79 d8be 9af0 dcbe d304 04bf
00000260: 673a 25bf e676 1fbf c3bc e0be ffe1 06bf
00000270: ecdf 14bf 2b7a 0bbe 699a 4dbe 143a 823e
00000280: e2c0 ab3d 4f4d 02bd 77a9 94bc 5513 41be
00000290: 8ca3 d9bd a63a 123c 6e63 84bd c086 bc3b
000002a0: ac3c c43d bf14 643d 8222 3d3d cfa1 273d
000002b0: 497d 0c3e 49ee 003e 326a 083e bafd 863d
000002c0: 549f 313d 729e e8bc a9fd a1bd 699c 8a3c
000002d0: a1a7 67bd 2c49 02be 49c0 96bd aab1 5141
000002e0: ba00 8c3d 3954 b2bd 909a 2cbd 03c2 9ebd
000002f0: b52e 23bd 3a97 e039 f0bf b8bc 8297 7fbd
00000300: 6cdd 06bc d4f8 d23c f8d5 c9bc 2025 fc3c
00000310: 30cc a2bd 759f 98bd 6d01 bbbd 27ca c4bd
00000320: a631 f73c 6f1b 44ba 7147 c2bd b44e 82bd
00000330: 4c3f 12bd 551e 02bc 48ab 08bd 0f6e 9fbc
00000340: ae9a 213d 61c4 103d d98f 313d 13c0 e63b
00000350: 2cde d23c 971b 8dbd b8f0 7cbd 143d 0abd
00000360: 4f1a a7bd 1cd5 4d3c 8614 663b 753c 183d
00000370: 5bcf 12bd 6c14 9c3c 9120 8bbd 85b0 f13c
00000380: 5517 ad3c c46a 6fbd b928 35bd 5beb 90bd
00000390: 5aa3 47bd 1ca6 4d3c f5d4 62bd 73b6 f7ba
000003a0: 68fa 8ebd 5953 4e3d ee12 aebd 6323 8cbd
000003b0: d7c7 fbb9 384b 2bbb 9b81 e8bc 0dc7 033d
000003c0: 0869 b5bc f31e ce3b cb9c bb3c ad5f 16bd
000003d0: 8f4e b4bd 1591 6bbc 0d55 a2bb 3f59 8cbd
000003e0: 60e2 b9bd 3bc7 cbbc af1e f8bb 69a5 c0bd
000003f0: c6f9 babd 2653 85bd ed92 053d 1418 98bc

fc1.bias f4 [256]
-0.15122059 -0.09089151 -0.05813941 -0.07089229 -0.081865236 0.0127490675 0.0460215 -0.024871567
-0.014312223 -0.039744873 -0.07626203 -0.048793428 0.022945447 0.009576596 -0.044726267 -0.05039002
-0.06745387 -0.01906462 -0.07844386 0.05782312 -0.020871552 -0.058987617 -0.02212133 -0.042078897
-0.06808796 -0.01473413 -0.038766038 -0.060102515 -0.077231996 -0.009881822 0.028931925 -0.029484408
-0.023539029 0.01578272 -0.012199145 -0.026115194 -0.037612263 -0.06422873 -0.059494466 -0.046322055
-0.05324217 -0.07385269 -0.07322684 -0.0026250258 0.039076913 -0.033005416 -0.08075331 -0.108325444
0.0017298311 0.0016148244 0.020581111 -0.04064414 -0.08631046 -0.020738345 -0.00082731585 -0.08264197
-0.017763164 -0.035133276 -0.05626075 0.0013268609 0.028353646 0.03525909 -0.0779882 -0.080985695
-0.020862862 0.005896389 -0.070402026 -0.06830744 0.040154796 -0.080552965 -0.0413759 -0.022359528
-0.016392415 -0.0033660897 -0.036483426 -0.037475463 -0.09646358 -0.04687983 0.030631639 0.0132948235
-0.03838796 -0.052997917 -0.14273998 -0.028280009 -0.032650813 0.03184879 -0.026700068 -0.0074474523
-0.091404326 -0.03848464 -0.038914137 0.024895273 -0.034543235 0.034048952 -0.073230244 -0.024407724
0.015241429 0.026081389 -0.012088327 -0.035931677 0.050370827 -0.0735752 0.0136236325 -0.05690563
-0.039496604 -0.04367329 -0.0075045526 -0.053518508 0.024719557 -0.018223273 -0.0031738474 -0.05035315
-0.03899057 -0.04841849 -0.03644594 0.031207727 -0.07124312 -0.064725384 -0.07866849 0.016095804
-0.02140911 -0.02827534 -0.055954963 -0.07975289 -0.08560215 -0.04271229 0.0013201558 -0.019108878
0.059993125 -0.06334642 -0.043661274 -0.011861008 -0.0614073 -0.023089064 -0.10292326 0.021476312
-0.042148884 -0.023352386 -0.08567221 0.0074872375 -0.008031048 0.029239835 -0.01029345 -0.060327396
0.03125743 -0.07401895 0.022822628 0.000582494 0.04870282 0.008063603 0.010422779 -0.06605581
-0.084587544 -0.011536989 -0.070995264 0.00024264435 0.03492032 0.0040370636 -0.01449032 0.031574108
-0.021628907 0.044226956 0.006292861 0.0113764 -0.032422755 -0.098640054 0.01951047 -0.049676422
-0.015517709 -0.06312968 -0.059106797 0.031037852 -0.061105274 -0.03461708 -0.04304534 -0.0143385865
0.05287747 -0.07308942 -0.04539211 0.040977903 -0.08011658 -0.08620073 -0.042481784 -0.053531528
0.027748004 -0.031386603 -0.031102981 -0.008278223 -0.05560065 -0.095139876 -0.013688531 -0.009055048
-0.08437412 -0.056245513 -0.0059991903 -0.026860576 -0.014470233 -0.041840486 0.02067373 0.032263387
0.04309945 -0.024204794 -0.058031492 -0.07217224 -0.061318148 0.03207144 -0.069808684 -0.07789964
-0.08795326 -0.099849485 0.007058798 -0.08019768 -0.0072267875 0.03592955 -0.023658717 0.016622059
0.020852795 -0.04539196 -0.013682824 -0.077117 -0.0052228225 0.013864047 0.003444363 0.006738926
0.009555936 -0.03209629 0.005139342 -0.07441117 -0.006972627 -0.068563834 0.039673865 -0.052325815
-0.059475277 -0.04628263 0.023624536 -0.07114994 -0.009123692 -0.0292193 -0.013464037 -0.10413913
-0.064133674 0.0040187095 -0.051241167 -0.049145866 -0.037613723 -0.04453933 -0.03849432 -0.05357612
-0.052542116 -0.06161341 0.021743968 0.03055619 -0.051130503 -0.029862069 -0.042375777 0.07230453
00000000: 92d9 1abe 5425 babd 9723 6ebd fa2f 91bd
00000010: f6a8 a7bd 77e1 503c 0a81 3c3d 75bf cbbc
00000020: d07d 6abc 85cb 22bd 442f 9cbd 9edb 47bd
00000030: 17f8 bb3c 28e7 1c3c e432 37bd c465 4ebd
00000040: 4125 8abd 682d 9cbc 2da7 a0bd f0d7 6c3d
00000050: d1fa aabc 009d 71bd cb37 b5bc ec5a 2cbd
00000060: b371 8bbd 6c67 71bc 23c9 1ebd 0e2e 76bd
00000070: cf2b 9ebd 5ee7 21bc a502 ed3c 4989 f1bc
00000080: ecd4 c0bc c34a 813c ecde 47bc 88ef d5bc
00000090: 510f 1abd 5a8a 83bd 78b0 73bd 32bc 3dbd
000000a0: 7614 5abd 1440 97bd f4f7 95bd a008 2cbb
000000b0: 1d0f 203d b030 07bd fe61 a5bd bbd9 ddbd
000000c0: 80bb e23a 84a8 d33a b899 a83c 787a 26bd
000000d0: 8ac3 b0bd 76e3 a9bc 3ae0 58ba 3140 a9bd
000000e0: 0e84 91bc e9e7 0fbd ac71 66bd 10ea ad3a
000000f0: e845 e83c d66b 103d 47b8 9fbd d4db a5bd
00000100: 98e8 aabc 7f36 c13b f02e 90bd c5e4 8bbd
00000110: 5b79 243d f4f8 a4bd c779 29bd 542b b7bc
00000120: 6349 86bc 9d99 5cbb a56f 15bd df7f 19bd
00000130: b38e c5bd 1105 40bd 34ef fa3c 88d2 593c
00000140: b23c 1dbd 5814 59bd 6e2a 12be 7aab e7bc
00000150: dcbc 05bd e073 023d 1aba dabc c209 f4bb
00000160: 3132 bbbd 12a2 1dbd 6e64 1fbd 2cf1 cb3c
00000170: 357d 0dbd ea76 0b3d bdf9 95bd b5f2 c7bc
00000180: 30b7 793c a3a8 d53c 1e0e 46bc 182d 13bd
00000190: a451 4e3d 98ae 96bd a835 5f3c e115 69bd
000001a0: 31c7 21bd c4e2 32bd c0e8 f5bb 3936 5bbd
000001b0: ab80 ca3c f948 95bc 5300 50bb 1b3f 4ebd
000001c0: 93b4 1fbd 7752 46bd 5748 15bd 59a7 ff3c
000001d0: eae7 91bd be8e 84bd f21c a1bd 59db 833c
000001e0: 2862 afbc b0a1 e7bc 0831 65bd 7c55 a3bd
000001f0: 2e50 afbd 15f3 2ebd 1409 ad3a 398a 9cbc
00000200: 5abb 753d c5bb 81bd 2ad6 32bd ac54 42bc
00000210: 3986 7bbd 4725 bdbc 6ec9 d2bd 17ef af3c
00000220: 4fa4 2cbd 814d bfbc e974 afbd 8057 f53b
00000230: a894 03bc 6188 ef3c dca5 28bc dc19 77bd
00000240: ca07 003d 3f97 97bd 85f6 ba3c 83b2 183a
00000250: 9c7c 473d 341d 043c 4ec4 2a3c 4548 87bd
00000260: 3c3c adbd a405 3dbc f765 91bd 596e 7e39
00000270: 9c08 0f3d 5849 843b cf68 6dbc da53 013d
00000280: 1b2f b1bc 5327 353d 5834 ce3b 1464 3a3c
00000290: b9cd 04bd cc03 cabd 6cd4 9f3c 8179 4bbd
000002a0: fd3d 7ebc 224a 81bd f819 72bd 1843 fe3c
000002b0: 8649 7abd a4ca 0dbd 4f50 30bd 64ec 6abc
000002c0: 0c96 583d e8af 95bd 14ed 39bd 72d8 273d
000002d0: 2914 a4bd 028a b0bd 6101 2ebd e043 5bbd
000002e0: c84f e33c 3d8f 00bd aecb febc 62a1 07bc
000002f0: 82bd 63bd b2d8 c2bd dc45 60bc a05b 14bc
00000300: 57cc acbd b261 66bd db94 c4bb b60a dcbc
00000310: 8e14 6dbc ee60 2bbd f45b a93c 9d26 043d
00000320: 0d89 303d 2249 c6bc 6eb2 6dbd 0acf 93bd
00000330: bd28 7bbd 585d 033d dbf7 8ebd d989 9fbd
00000340: d720 b4bd e37d ccbd 7d4d e73b ae3e a4bd
00000350: b0ce ecbb dd2a 133d edcf c1bc fc2a 883c
00000360: 7bd3 aa3c ebec 39bd ec2d 60bc 85ef 9dbd
00000370: 3624 abbb 0726 633c d2ba 613b 35d2 dc3b
00000380: 8090 1c3c 6677 03bd ed67 a83b e264 98bd
00000390: a27a e4bb 326b 8cbd 1081 223d 9853 56bd
000003a0: 599c 73bd db92 3dbd 3e88 c13c 0fb7 91bd
000003b0: 8a7b 15bc 505d efbc 4498 5cbc e546 d5bd
000003c0: 8458 83bd 61af 833b 42e2 51bd 2d4d 49bd
000003d0: d910 1abd df6e 36bd 38ac 1dbd a272 5bbd
000003e0: 6736 57bd 585e 7cbd 6820 b23c fa50 fa3c
000003f0: 386e 51bd 4ca1 f4bc 3992 2dbd 6614 943d

fc2.weight f4 [128, 256]
-0.024375245 0.037622936 0.012851998 -0.00872664 0.036584586 0.02151971 -0.014487037 0.009977667
-0.050751366 0.028004803 -0.02266428 0.06909573 0.022226531 0.057181537 -0.0820649 0.040154736
0.026033845 -0.021757673 -0.0904953 0.0022665858 -0.05372039 0.004031423 -0.061187018 -0.05011374
0.068503484 -0.05095689 -0.054624304 -0.026443288 0.005060509 -0.055931874 0.005173575 0.026141461
-0.013621493 0.054179467 -0.028006077 0.059944138 0.04276002 0.007790786 0.017678639 -0.008642565
-0.030824672 0.03545908 0.058980074 -0.021146715 -0.057422798 0.089926794 0.057161722 0.042772163
-0.027833998 0.028552603 -0.05947479 0.010619136 0.0372036 0.01827687 0.0645596 0.041487146
0.050708078 0.0054178666 0.018119296 -0.051729 0.07344649 -0.06658108 0.016034307 0.098268844
-0.012514218 0.07819739 0.063105546 0.020466536 0.04088017 -0.03905778 0.063130006 -0.026467439
0.001382839 0.0899722 -0.0034640091 -0.002910653 0.0802579 -0.008467672 0.030098958 -0.0032004341
-0.06199918 -0.059984043 -0.010644452 0.026461786 0.08427025 0.08007322 0.02398576 0.011214071
0.016694423 0.0039785802 -0.033530768 0.007952802 0.0113255605 -0.045621432 -0.045856237 0.0034581085
-0.029165782 0.089299925 0.015906127 0.0316818 0.036406018 -0.019338539 -0.028724797 0.017159443
0.02274225 0.0006685856 -0.035336472 0.0027040765 0.020917661 -0.03129237 0.008008921 0.0070145684
-0.0022509173 0.0024043217 0.07016494 0.08300913 0.015208685 0.07134651 -0.015484229 0.008713674
0.052802466 0.025754226 -0.0025440666 -0.10807342 0.049165864 0.06530865 0.025095837 0.053523764
-0.061843537 0.04137817 0.0061742365 -0.049851466 0.05816592 0.039918184 0.08634979 0.06681104
0.020717077 0.057640746 -0.039031588 0.022195674 0.05625002 -0.04795416 0.00882123 0.0046948474
-0.00659156 0.09051402 -0.072693475 -0.013179256 0.024592936 0.027831217 0.036428805 -0.050107878
0.0459893 0.0616439 0.0013973926 0.011650937 -0.032663543 0.057842817 0.03033038 0.03233775
0.014909588 0.08035324 -0.057035457 0.043861225 0.06499919 0.071739264 0.031510964 0.0069151577
0.007534108 -0.0101541355 0.07022048 0.023635492 -0.0016858497 0.04541598 0.043320466 -0.0030467436
0.009257483 0.04399882 0.02332813 -0.008305661 -0.03926873 0.05987554 -0.02323452 -0.011612182
0.062674634 -0.023758303 -0.010329313 0.03977956 0.022014813 0.04996498 0.010183975 -0.02110625
0.047643285 -0.0061809644 -0.034351226 0.0061055645 -0.061417185 0.06695229 0.013783842 -0.044934355
-0.058630504 0.018407062 0.03839051 0.0198583 0.031406626 0.04962823 0.029994443 0.0044821557
0.05981154 0.07265552 0.07932049 -0.0015394296 0.033134058 0.012225112 0.009184413 -0.008578561
0.10966281 0.064077586 -0.03230951 0.037370965 -0.015203699 0.0022070098 0.013015163 0.015407938
0.05470682 -0.016239012 0.07533397 0.015956793 -0.024738736 0.098233335 0.040260978 0.04176971
-0.004873276 -0.015823314 -0.07119166 0.019140886 0.03530708 0.042302813 0.038145922 0.11151083
-0.01978758 -0.0084724305 -0.016072314 0.005348299 0.04002329 0.0067121414 0.01631988 0.021601645
0.041069854 -0.032369554 0.029678022 0.086144745 -0.0055403933 0.040070944 -0.016858136 -0.12032389
00000000: 98ae c7bc 821a 1a3d 3091 523c 2efa 0ebc
00000010: b8d9 153d 1a4a b03c 0a5b 6dbc 5e79 233c
00000020: aae0 4fbd 546a e53c 71aa b9bc 1082 8d3d
00000030: 6a14 b63c 3037 6a3d a411 a8bd 4b79 243d
00000040: ee44 d53c 263d b2bc 9a55 b9bd 008b 143b
00000050: e909 5cbd 071a 843b 3d9f 7abd 1144 4dbd
00000060: 8e4b 8c3d 2cb8 50bd bcbd 5fbd 989f d8bc
00000070: a0d2 a53b d218 65bd 1887 a93b 9e26 d63c
00000080: af2c 5fbc 4aeb 5d3d 006d e5bc fc87 753d
00000090: 2125 2f3d da49 ff3b cbd2 903c 8c99 0dbc
000000a0: 0684 fcbc 8a3d 113d 1795 713d e03b adbc
000000b0: 2b34 6bbd 8a2b b83d 6922 6a3d dd31 2f3d
000000c0: 2004 e4bc 26e7 e93c d69b 73bd e2fb 2d3c
000000d0: cd62 183d 60b9 953c d337 843d 6dee 293d
000000e0: 46b3 4f3d 5c88 b13b eb6e 943c cae1 53bd
000000f0: 1d6b 963d a95b 88bd 615a 833c 2d41 c93d
00000100: 6f08 4dbc f425 a03d 7b3d 813d 70a9 a73c
00000110: f771 273d 0dfb 1fbd 4e4a 813d 3ed2 d8bc
00000120: 6140 b53a 5843 b83d 6e04 63bb a7c0 3ebb
00000130: 415e a43d febb 0abc 1792 f63c 60be 51bb
00000140: daf2 7dbd d4b1 75bd 1166 2ebc 63c6 d83c
00000150: e195 ac3d 6efd a33d c97d c43c 39bb 373c
00000160: bec2 883c c05e 823b 8f57 09bd 784c 023c
00000170: d88e 393c 8add 3abd c0d3 3bbd 6fa1 623b
00000180: 14ed eebc e1e2 b63d 914d 823c c6c4 013d
00000190: 7a1e 153d db6b 9ebc 4450 ebbc f691 8c3c
000001a0: f44d ba3c 0544 2f3a fabc 10bd e036 313b
000001b0: 845b ab3c 6e2c 00bd d937 033c 77da e53b
000001c0: 2084 13bb d391 1d3b a3b2 8f3d b100 aa3d
000001d0: d92d 793c 1e1e 923d 90b1 7dbc ccc3 0e3c
000001e0: 6647 583d 87fa d23c 5bba 26bb 9955 ddbd
000001f0: 2562 493d 8bc0 853d c995 cd3c bc3b 5b3d
00000200: a64f 7dbd 287c 293d 4051 ca3b 0d31 4cbd
00000210: 633f 6e3d 4081 233d 29d8 b03d 3ad4 883d
00000220: dcb6 a93c b418 6c3d 96df 1fbd b4d3 b53c
00000230: 6c66 663d 956b 44bd ec86 103c 3cd7 993b
00000240: 03fe d7bb 6a5f b93d 51e0 94bd ceed 57bc
00000250: 2077 c93c 4bfe e33c 5f36 153d eb3d 4dbd
00000260: 475f 3c3d 507e 7c3d b728 b73a 92e3 3e3c
00000270: 35ca 05bd 97ec 6c3d 6b77 f83c 9774 043d
00000280: 5847 743c 3d90 a43d 039e 69bd d4a7 333d
00000290: 4c1e 853d 09ec 923d a411 013d 8c98 e23b
000002a0: aee0 f63b 885d 26bc c1cf 8f3d 389f c13c
000002b0: bbf7 dcba 1b06 3a3d cd70 313d e0ab 47bb
000002c0: b3ac 173c 1b38 343d a21a bf3c 7814 08bc
000002d0: 3fd8 20bd 0e40 753d 5256 bebc 0541 3ebc
000002e0: 8f5b 803d c6a0 c2bc 473c 29bc e4ef 223d
000002f0: 6958 b43c 14a8 4c3d b0da 263c 04e7 acbc
00000300: 9b25 433d b089 cabb dfb3 0cbd 3011 c83b
00000310: 9690 7bbd 481e 893d a0d5 613c 160d 38bd
00000320: 8a26 70bd 68ca 963c 5e3f 1d3d e0ad a23c
00000330: 3ca4 003d f946 4b3d e8b6 f53c 0cdf 923b
00000340: f2fc 743d 6bcc 943d c872 a23d b0c6 c9ba
00000350: 94b7 073d d64b 483c 387a 163c 188d 0cbc
00000360: e596 e03d 1c3b 833d fa56 04bd 4c12 193d
00000370: ef18 79bc 7ba3 103b 8d3d 553c 9371 7c3c
00000380: 4214 603d ad07 85bc b248 9a3d d2b7 823c
00000390: e4a8 cabc 8f2e c93d b2e8 243d b716 2b3d
000003a0: 01b0 9fbb e59f 81bc efcc 91bd 59cd 9c3c
000003b0: 289e 103d b745 2d3d e63e 1c3d ca5f e43d
000003c0: 9019 a2bc f3cf 0abc 16aa 83bc c940 af3b
000003d0: 76ef 233d 86f1 db3b 45b1 853c eff5 b03c
000003e0: dd38 283d f095 04bd 531f f33c a86c b03d
000003f0: 308c b5bb 6e21 243d 131a 8abc 5f6c f6bd

fc2.bias f4 [128]
-0.025478259 -0.06803427 -0.117229216 -0.023372097 -0.04999289 -0.012195456 -0.06778581 -0.1389603
-0.11365179 -0.025288727 -0.014375623 -0.04094991 -0.03934055 -0.110024005 -0.054733276 -0.039574157
-0.05787707 -0.055574693 -0.102859 -0.056428283 -0.12005531 -0.043276526 -0.06567571 -0.19745363
-0.045664478 -0.03680244 -0.0773096 -0.019684538 -0.09291518 -0.061233696 -0.33383352 -0.023936026
-0.0058101015 -0.20023116 -0.010171499 -0.08555484 -0.017131908 -0.09422301 -0.05027977 -0.017587243
-0.15592353 -0.0029753358 -0.0707805 -0.1109286 -0.041136213 -0.13114831 -0.011836023 -0.0607321
-0.29645863 -0.0144098345 -0.030484715 -0.09081879 -0.013380235 -0.0056194635 -0.035133906 -0.15868646
-0.04927518 -0.07403527 -0.15792337 -0.035252284 -0.08128886 -0.054821793 -0.094283566 -0.04810259
-0.04307113 -0.0042228997 -0.033825528 -0.085727304 -0.052473262 -0.079977214 -0.09311127 -0.1352856
-0.15424621 -0.008407729 -0.22321016 -0.037021596 -0.06968248 -0.11399037 -0.013524961 -0.16343045
-0.061995026 -0.07136398 -0.0037295888 -0.12157102 -0.016430942 -0.017962797 -0.05337476 -0.014277745
-0.25310844 -0.0027423224 -0.12500872 -0.079581 -0.13975425 -0.068294324 -0.008459344 -0.0750193
-0.09484219 -0.008336101 -0.1976225 -0.0096895965 -0.052384216 -0.0081343865 -0.56223375 -0.0704181
-0.13187248 -0.14745414 -0.12208099 -0.10899166 -0.055466928 -0.17404234 -0.06448907 -0.037327986
-0.08268322 -0.010435837 -0.05952528 -0.15079552 -0.29038152 -0.023486963 -0.09880144 -0.05082396
-0.014206641 -0.037770413 -0.09233922 -0.074025035 -0.07831155 -0.002480257 -0.01977256 -0.12187996
00000000: c8b7 d0bc 8d55 8bbd df15 f0bd d776 bfbc
00000010: 58c5 4cbd 73cf 47bc 49d3 8abd 9c4b 0ebe
00000020: 45c2 e8bd 4e2a cfbc bc87 6bbc 18bb 27bd
00000030: 8e23 21bd 4454 e1bd 0030 60bd 8318 22bd
00000040: 8210 6dbd 4aa2 63bd bda7 d2bd 5821 67bd
00000050: 8fdf f5bd ba42 31bd fd80 86bd 4931 4abe
00000060: ad0a 3bbd 28be 16bd 7f54 9ebd 7841 a1bc
00000070: 504a bebd 2fd0 7abd 3aec aabe 7c15 c4bc
00000080: aa62 bebb 6609 4dbe 5ca6 26bc 6037 afbd
00000090: 3758 8cbc fef7 c0bd 29f2 4dbd 1f13 90bc
000000a0: 6baa 1fbe dafd 42bb 5ef5 90bd 892e e3bd
000000b0: 727e 28bd be4b 06be e1eb 41bc 39c2 78bd
000000c0: 6dc9 97be 3a17 6cbc 15bb f9bc 34ff b9bd
000000d0: c638 5bbc 7a23 b8bb 92e8 0fbd b47e 22be
000000e0: c5d4 49bd ce9f 97bd aab6 21be b364 10bd
000000f0: c67a a6bd d18c 60bd be17 c1bd 3907 45bd
00000100: 5a6b 30bd 4060 8abb a38c 0abd cc91 afbd
00000110: 34ee 56bd 18cb a3bd 1fb1 bebd 4f88 0abe
00000120: b8f2 1dbe 92c0 09bc 3491 64be f5a3 17bd
00000130: b0b5 8ebd c873 e9bd cc97 5dbc 505a 27be
00000140: 7fee 7dbd 4727 92bd 1e6c 74bb 3afa f8bd
00000150: 2f9a 86bc b726 93bc 7e9f 5abd 34ed 69bc
00000160: 6e97 81be 89b8 33bb 4902 00be 5dfb a2bd
00000170: bd1b 0fbe e5dd 8bbd 0f99 0abc b8a3 99bd
00000180: 9f3c c2bd 2494 08bc 8d5d 4abe 1dc1 1ebc
00000190: d590 56bd 1746 05bc 8dee 0fbf 5d37 90bd
000001a0: 9409 07be 38fe 16be 9905 fabd 0537 dfbd
000001b0: 4a31 63bd 2838 32be d812 84bd 3be5 18bd
000001c0: d255 a9bd 13fb 2abc c8d0 73bd 246a 1abe
000001d0: e3ac 94be bb67 c0bc 6958 cabd c92c 50bd
000001e0: f9c2 68bc 26b5 1abd 581c bdbd 709a 97bd
000001f0: ce61 a0bd cf8b 22bb 10fa a1bc 339c f9bd

fc3.weight f4 [64, 128]
0.039390974 -0.052123073 -0.088183746 0.005533427 -0.034519535 0.11944354 -0.063348 0.044797312
-5.2399933e-05 -0.013239382 0.039628897 -0.029962951 0.066956274 -0.035473168 0.030019088 0.0077289166
0.06523798 0.0631183 -0.01696419 0.047022264 -0.01726892 -0.025957754 0.049550377 -0.0051938826
0.1105375 0.05288773 -0.065338396 -0.11152574 0.01108786 -0.038827606 0.013618991 -0.0019153573
0.047364652 -0.19852027 -0.09669064 -0.07547736 0.041288853 0.04598493 0.016196968 -0.1996082
-0.07382506 -0.10482306 -0.027104769 0.10806664 0.049017377 0.0019782959 -0.04327799 -0.06750807
-0.07582146 -0.09436413 0.01941894 -0.071631745 0.034177966 0.07937863 -0.062480852 0.0123066
-0.042914134 -0.06297607 -0.038616035 -0.10595351 0.029309893 -0.07463771 0.025394822 -0.081881285
-0.013423709 -0.021792935 -0.017775537 0.0044921096 -0.10411064 -0.08164615 -0.13158526 0.048130196
0.06157586 0.08688678 0.042919006 -0.07010269 0.027408011 -0.06807938 -0.009048192 -0.09360352
0.008874327 0.04132003 0.022396438 0.044298183 0.0070568845 -0.12032962 -0.052215137 -0.09823024
-0.060876723 -0.08829536 -0.09544229 0.00784472 0.10039748 -0.022990609 -0.10940766 -0.0642033
-0.07808623 -0.022657821 -0.023153 -0.038814653 0.01879621 -0.06823532 -0.027134543 -0.11744631
-0.06494041 0.07833123 0.02377897 -0.0029146997 -0.037474513 -0.105314136 0.07144152 0.039789878
-0.11386581 -0.0459464 -0.05574831 0.23361258 -0.0034605118 0.04723843 -0.032537684 -0.08613021
0.033709347 0.029648317 0.0573762 -0.060992885 -0.054153673 0.07130166 0.02792511 -0.014417542
-0.05017202 -0.08912324 -0.18234302 -0.12412635 0.072581746 0.01375348 0.0026331842 0.008389197
-0.022485241 -0.11480878 0.013279058 0.028172648 -0.014231555 0.042416126 -0.045651328 0.03658132
0.010796448 -0.057254523 -0.07464208 -0.09776707 0.006109493 -0.064161725 -0.052830685 -0.077843815
-0.09202234 -0.06952857 -0.10900796 0.044533726 0.009384304 0.012686331 -0.049175702 0.026296526
-0.06287801 -0.047355462 -0.0631424 0.031570982 0.0042369924 -0.067648865 -0.06690131 -0.117234476
-0.063707516 -0.07478494 -0.011581654 -0.08062153 -0.009976683 -0.03972354 -0.0061302893 0.04267072
-0.06797231 0.0047087856 -0.024890155 -0.018016174 -0.03176721 -0.0031948036 -0.10258524 -0.022377022
0.025787987 -0.072290055 -0.048561856 0.04188902 0.06378963 -0.035874136 -0.05980792 -0.11267647
-0.05721757 -0.11571044 -0.09686131 0.116207115 -0.0066966154 -0.059517868 -0.22438696 -0.0030419694
-0.07629074 -0.0691686 0.022343053 -0.058413267 0.0030302703 -0.0008625091 -0.07322984 0.032972034
0.09636107 -0.08350474 -0.00653716 -0.015107118 -0.00028151044 -0.00094895496 -0.084612906 -0.006556684
0.0043828143 -0.007333187 -0.06749018 0.0357026 -0.09826093 0.016091712 -0.12106152 0.039591942
0.009412358 -0.0874744 -0.065066054 0.03927904 -0.10605745 -0.100284986 -0.14711054 -0.023959756
-0.019474724 -0.057800177 -0.027255438 -0.04370342 0.002972161 0.07689559 -0.03640879 -0.075188965
0.015742514 -0.028380815 0.008438912 -0.02435387 -0.09826946 -0.06783072 -0.07404525 -0.035863303
-0.08784969 0.05402528 -0.021023124 -0.003590756 -0.13243759 -0.05446149 -0.1131336 0.010826127
00000000: 6e58 213d 017f 55bd ae99 b4bd c051 b53b
00000010: 5b64 0dbd d19e f43d 99bc 81bd 637d 373d
00000020: 00c8 5bb8 fee9 58bc e951 223d dd74 f5bc
00000030: 5f20 893d 504c 11bd 97ea f53c da42 fd3b
00000040: 7d9b 853d 2b44 813d 7cf8 8abc 6b9a 403d
00000050: 8d77 8dbc 5ba5 d4bc 56f5 4a3d 7231 aabb
00000060: 7c61 e23d cea0 583d 23d0 85bd 9b67 e4bd
00000070: dba9 353c b209 1fbd 3022 5f3c ba0c fbba
00000080: 7001 423d e648 4bbe be05 c6bd e093 9abd
00000090: 801e 293d b25a 3c3d 81af 843c 1866 4cbe
000000a0: 9831 97bd 79ad d6bd d20a debc 0b52 dd3d
000000b0: 72c6 483d 4ca6 013b 4344 31bd ac41 8abd
000000c0: 4848 9bbd fb41 c1bd 7814 9f3c aab3 92bd
000000d0: 32fe 0b3d 4391 a23d eceb 7fbd 9fa1 493c
000000e0: bbc6 2fbd 99f9 80bd d92b 1ebd 27fe d8bd
000000f0: 4d1b f03c a8db 98bd cd08 d03c 60b1 a7bd
00000100: 1eef 5bbc 1987 b2bc 019e 91bc 8c32 933b
00000110: f637 d5bd 1936 a7bd 49be 06be 2b24 453d
00000120: f836 7c3d b2f1 b13d d7cb 2f3d 0092 8fbd
00000130: c486 e03c 346d 8bbd de3e 14bc 34b3 bfbd
00000140: a065 113c 313f 293d bc78 b73c 0372 353d
00000150: 703d e73b 606f f6bd 8adf 55bd f02c c9bd
00000160: df59 79bd 33d4 b4bd 3f77 c3bd 2487 003c
00000170: 329d cd3d cd56 bcbc 2011 e0bd 057d 83bd
00000180: aceb 9fbd e59c b9bc 5cab bdbc 1dfc 1ebd
00000190: 82fa 993c f6be 8bbd 4349 debc b187 f0bd
000001a0: 7aff 84bd 206c a03d 1dcc c23c 8c04 3fbb
000001b0: e07e 19bd f0ae d7bd ee4f 923d b6fa 223d
000001c0: 7a32 e9bd 4b32 3cbd 5758 64bd 2338 6f3e
000001d0: c1c9 62bb 157d 413d 3c46 05bd 0965 b0bd
000001e0: d012 0a3d 07e1 f23c 4e03 6b3d add3 79bd
000001f0: 3ed0 5dbd 9b06 923d 33c3 e43c 8e37 6cbc
00000200: 2d81 4dbd 3f86 b6bd 21b8 3abe f535 febd
00000210: bda5 943d 4756 613c 8091 2c3b d872 093c
00000220: f832 b8bc de20 ebbd 6890 593c 53ca e63c
00000230: 782b 69bc 88bc 2d3d e3fc 3abd 4bd6 153d
00000240: 96e3 303c b883 6abd f2dd 98bd 1a3a c8bd
00000250: 2432 c83b 3967 83bd fd64 58bd 946c 9fbd
00000260: 3576 bcbd ff64 8ebd 913f dfbd ff68 363d
00000270: a0c0 193c 54da 4f3c 766c 49bd d06b d73c
00000280: 30c6 80bd cdf7 41bd cd50 81bd 9350 013d
00000290: 78d6 8a3b 7d8b 8abd 8e03 89bd a118 f0bd
000002a0: 1679 82bd d928 99bd fac0 3dbc e71c a5bd
000002b0: 3e75 23bc 27b5 22bd 98e0 c8bb 7ec7 2e3d
000002c0: 1135 8bbd 284c 9a3b 70e6 cbbc a896 93bc
000002d0: 561e 02bd e95f 51bb 3618 d2bd 0450 b7bc
000002e0: 5441 d33c cf0c 94bd cce8 46bd d293 2b3d
000002f0: 23a4 823d c2f0 12bd 26f9 74bd ecc2 e6bd
00000300: f85c 6abd 98f9 ecbd 395f c6bd fffd ed3d
00000310: 486f dbbb 02c9 73bd b2c5 65be c75b 47bb
00000320: 523e 9cbd 44a8 8dbd c708 b73c c042 6fbd
00000330: 8097 463b 021a 62ba 87f9 95bd af0d 073d
00000340: f458 c53d 8804 abbd ac35 d6bb d883 77bc
00000350: b197 93b9 4ac3 78ba 8849 adbd 74d9 d6bb
00000360: b69d 8f3b 3b4b f0bb 4b38 8abd e43c 123d
00000370: 073d c9bd c4d2 833c 1aef f7bd 292b 223d
00000380: 4a36 1a3c c725 b3bd 5a41 85bd 0fe3 203d
00000390: a634 d9bd 3762 cdbd 25a4 16be 4047 c4bc
000003a0: 7589 9fbc e1bf 6cbd cc46 dfbc 5b02 33bd
000003b0: 96c8 423b 6f7b 9d3d 6221 15bd acfc 99bd
000003c0: 72f6 803c e27e e8bc 5d43 0a3c c481 c7bc
000003d0: 8041 c9bd d5ea 8abd 09a5 97bd 66e5 12bd
000003e0: 8aea b3bd 9d49 5d3d b038 acbc e452 6bbb
000003f0: b89d 07be 0313 5fbd 97b2 e7bd 1160 313c

fc3.bias f4 [64]
-0.24137948 -0.07959162 -0.034080252 -0.06959693 -0.13888606 -0.31221077 -0.11735456 -0.09774943
-0.046488687 -0.10031795 -0.17618722 -0.8090021 -0.11649444 -0.11545391 -0.10907187 -0.12623915
-0.05334109 -0.089043595 -0.06304397 -0.11174051 -0.13891412 -0.042228036 -0.054239653 -0.006547548
-0.09553462 -0.18799554 -0.1467109 -0.10348017 -0.030349841 -0.09619584 -0.14893678 -0.09673693
-0.10842096 -0.07808257 -0.16289349 -0.08141036 -0.16286106 -0.09321665 -0.036717232 -0.07272716
-0.06622714 -0.057529505 0.0041479045 -0.08957866 -0.1130718 -0.14150889 -0.06303623 -0.110776246
-0.035915885 -0.11991749 -0.0028351042 -0.07294194 -0.058703255 -0.1415887 -0.07625157 -0.069448546
-0.03953997 -0.46245587 -0.20304532 -0.04102997 -0.19064301 -0.022667348 -0.06776446 -0.08271164
00000000: 2f2c 77be ee00 a3bd bc97 0bbd d688 8ebd
00000010: 2638 0ebe 17da 9fbe 9657 f0bd da30 c8bd
00000020: ec6a 3ebd 7f73 cdbd 6c6a 34be c31a 4fbf
00000030: a394 eebd 1973 ecbd 1361 dfbd d644 01be
00000040: 307c 5abd 7d5c b6bd 321d 81bd 35d8 e4bd
00000050: 813f 0ebe 4ef7 2cbd 662a 5ebd d08c d6bb
00000060: a8a7 c3bd e781 40be 623b 16be 69ed d3bd
00000070: 3ba0 f8bc 5302 c5bd e282 18be 031e c6bd
00000080: cf0b debd c1e9 9fbd 8dcd 26be 7aba a6bd
00000090: 0dc5 26be 5fe8 bebd cf64 16bd faf1 94bd
000000a0: 18a2 87bd 0fa4 6bbd 25eb 873b 0475 b7bd
000000b0: 3092 e7bd b5e7 10be 2419 81bd a8de e2bd
000000c0: 891c 13bd 4d97 f5bd 28cd 39bb 9562 95bd
000000d0: d372 70bd a1fc 10be c829 9cbd 0a3b 8ebd
000000e0: aaf4 21bd 04c7 ecbe 1deb 4fbe 0b0f 28bd
000000f0: ec37 43be e0b0 b9bc 18c8 8abd b864 a9bd

fc4.weight f4 [32, 64]
-0.001679794 0.010285295 0.09242532 -0.0639795 0.055605028 -0.0645071 0.016336149 0.15095249
-0.046287347 0.037038896 0.044593163 -0.10476906 0.103318445 -0.049891263 -0.039845325 -0.114733234
-0.013929307 0.12945677 0.04198017 -0.14664109 -0.06974889 -0.090207174 0.111453526 -0.0003372314
0.1300322 0.046460323 -0.05841131 0.0002276318 -0.06944513 -0.004455518 -0.109625556 -0.009137467
-0.048489667 0.0076354113 0.39139283 0.03544512 0.10897103 -0.09094716 0.05446798 -0.0059421444
-0.009008482 0.13306656 -0.27230388 -0.0778657 0.06488848 -0.14987485 0.108539864 -0.065166116
0.015936852 -0.07792997 0.36693573 0.09367898 0.10420105 -0.082942635 -0.097469285 -0.013026594
0.14905755 -0.08080488 0.07158446 -0.0104003465 -0.13633324 -0.059340224 0.08599294 -0.1452388
-0.1440089 0.14496776 0.051914994 -0.0320536 -0.10020257 0.025118597 -0.08132635 0.0073885997
0.09583307 0.09444617 -0.053283025 -0.070273995 0.068293706 -0.020253854 0.08821507 -0.06263367
-0.012225017 0.00042676096 0.07928791 -0.020728083 0.04358029 -0.016326906 0.13605928 -0.019707184
-0.043151293 0.056083895 -0.088493295 -0.15628195 -0.009130316 0.08517361 -0.064949915 -0.025043204
0.10931622 0.082439624 -0.031632155 0.06881551 -0.06530738 0.08060728 -0.14556514 0.015864857
0.001651696 -0.03728691 -0.03891512 0.018532885 -0.009497815 0.032620642 0.11066752 0.08121779
0.071765035 0.05620001 -0.01770946 0.027392875 0.04518526 -0.084037565 0.06479941 0.09155622
-0.05558839 -0.20379272 0.120978035 0.015420888 -0.019189207 0.030325996 0.073055126 0.07146497
0.07523431 0.11803694 0.04576917 0.018549815 -0.027333956 -0.101977915 -0.015724272 0.07853949
0.028038071 -0.0017224401 -0.09834859 -0.17328763 0.05446267 -0.045388386 -0.02980348 0.044729024
0.050505504 -0.02038452 0.08207457 -0.052134793 0.07064471 -0.030866966 -0.05673355 -0.027701512
-0.09981237 -0.106907204 0.024052572 -0.040643573 -0.17955017 0.049019903 -0.058059335 -0.11467348
-0.14008987 -0.10300793 -0.11930658 0.02529912 -0.12018462 0.023453355 0.1143336 -0.115697816
0.0643069 -0.087052815 -0.09837512 -0.062469527 0.06679918 -0.024815599 -0.06246793 -0.03553398
-0.14438787 0.087242424 -0.1137781 0.0010375082 0.048373505 -0.058772475 -0.09708285 -0.11151057
0.017992955 0.05344044 0.00928399 -0.005853278 -0.107205674 -0.065268174 -0.12087385 -0.11135035
0.08603915 0.051758416 -0.060331553 0.08177719 -0.22150058 0.004557649 0.04220834 0.18092616
-0.025230903 0.022019118 -0.09391774 -0.18093817 0.00013652444 -0.120510615 -0.024708388 0.041736647
0.11533521 -0.14030045 -0.09049606 -0.102453284 0.05319927 0.0075586718 -0.15353829 -0.070475295
-0.04977535 -0.120469846 -0.04269642 0.11103913 0.054432645 0.043732233 0.036372185 0.10321963
-0.041599683 -0.097739734 0.05540174 -0.14959061 0.068897486 0.039025284 -0.07009325 -0.08823101
0.053878367 -0.11408288 -0.0825831 -0.13615637 -0.0067978147 0.04071872 0.0740603 -0.013358315
-0.07029016 0.111496374 -0.012210652 -0.012521076 -0.060828827 -0.019074546 0.24956322 -0.14391173
0.009463347 -0.021977656 -0.02916567 0.11336015 -0.09333336 -0.0156071475 0.07953944 -0.1326973
00000000: 892c dcba a783 283c 7c49 bd3d af07 83bd
00000010: 19c2 633d 4c1c 84bd 63d3 853c 4a93 1a3e
00000020: cd97 3dbd 19b6 173d 52a7 363d 2991 d6bd
00000030: 9f98 d33d c85a 4cbd da34 23bd 42f9 eabd
00000040: c037 64bc 5190 043e 66f3 2b3d 1529 16be
00000050: 82d8 8ebd 8abe b8bd bf41 e43d 6fce b0b9
00000060: 2927 053e 2e4d 3e3d b340 6fbd 72b0 6e39
00000070: 4039 8ebd 98ff 91bb 5d83 e0bd 50b5 15bc
00000080: 1a9d 46bd 7932 fa3b a464 c83e e72e 113d
00000090: 342c df3d 8142 babd d119 5f3d 52b6 c2bb
000000a0: 5098 13bc 9a42 083e 6a6b 8bbe 0d78 9fbd
000000b0: 40e4 843d cb78 19be 264a de3d d075 85bd
000000c0: 008e 823c c099 9fbd 00df bb3e c4da bf3d
000000d0: 5c67 d53d d4dd a9bd fa9d c7bd 7f6d 55bc
000000e0: 8ba2 183e 077d a5bd e09a 923d 3766 2abc
000000f0: f19a 0bbe bc0e 73bd 111d b03d 7bb9 14be
00000100: 1277 13be 6e72 143e d1a4 543d a34a 03bd
00000110: 0137 cdbd 84c5 cd3c 6e8e a6bd 111c f23b
00000120: 2144 c43d fe6c c13d 4d3f 5abd d0eb 8fbd
00000130: 92dd 8b3d 69eb a5bc 1aaa b43d 1546 80bd
00000140: 704b 48bc e3be df39 b361 a23d f1cd a9bc
00000150: 3f81 323d 01c0 85bc 2053 0b3e f670 a1bc
00000160: 69bf 30bd 3ab8 653d f93b b5bd 6008 20be
00000170: 5297 15bc 806f ae3d 7604 85bd 6827 cdbc
00000180: 2fe1 df3d 1bd6 a83d b890 01bd 25ef 8c3d
00000190: e0bf 85bd 6e15 a53d 070f 15be 04f7 813c
000001a0: b97d d83a 29ba 18bd 7665 1fbd 47d2 973c
000001b0: b99c 1bbc 399d 053d a7a5 e23d 8355 a63d
000001c0: 8cf9 923d fb31 663d 6e13 91bc 0667 e03c
000001d0: 2e14 393d e31b acbd 8eb5 843d d481 bb3d
000001e0: a7b0 63bd 0aaf 50be 55c3 f73d e4a7 7c3c
000001f0: af32 9dbc 396e f83c ed9d 953d 3a5c 923d
00000200: 7214 9a3d 5abd f13d 7478 3b3d c8f5 973c
00000210: 76eb dfbc ccd9 d0bd 30d0 80bc 50d9 a03d
00000220: 19b0 e53c 80c3 e1ba fc6a c9bd 5072 31be
00000230: 4014 5f3d 2ce9 39bd 6d26 f4bc c835 373d
00000240: dcde 4e3d 70fd a6bc b616 a83d 4b8b 55bd
00000250: 2cae 903d b8dc fcbc 7061 68bd 48ee e2bc
00000260: 6e6a ccbd 2af2 dabd e609 c53c e079 26bd
00000270: 00dc 37be 18c9 483d a0cf 6dbd eed9 eabd
00000280: b873 0fbe d2f5 d2bd 0257 f4bd 1a40 cf3c
00000290: 5b23 f6bd 4021 c03c bc27 ea3d faf2 ecbd
000002a0: 56b3 833d bf48 b2bd e578 c9bd 0ce0 7fbd
000002b0: 02ce 883d 154a cbbc 5fde 7fbd 148c 11bd
000002c0: 6ada 13be 28ac b23d 7e04 e9bd 00fd 873a
000002d0: 4c23 463d 68bb 70bd 60d3 c6bd a75f e4bd
000002e0: f665 933c 5de4 5a3d e01b 183c dbcc bfbb
000002f0: a68e dbbd 52ab 85bd b68c f7bd a70b e4bd
00000300: 4b35 b03d a200 543d 381e 77bd cd7a a73d
00000310: 0cd1 62be 5558 953b a7e2 2c3d b544 393e
00000320: 0ab1 cebc 7061 b43c f257 c0bd db47 39be
00000330: 0028 0f39 45ce f6bd 3f69 cabc 0cf4 2a3d
00000340: de34 ec3d ecaa 0fbe 0056 b9bd 07d3 d1bd
00000350: 7ae7 593d bcae f73b 2439 1dbe 5a55 90bd
00000360: 3de1 4bbd e5b8 f6bd 71e2 2ebd 7c68 e33d
00000370: c4f4 5e3d 9220 333d 00fb 143d d064 d33d
00000380: 6e64 2abd c52b c8bd efec 623d 482e 19be
00000390: 201a 8d3d fad8 1f3d 0d8d 8fbd 76b2 b4bd
000003a0: 90af 5c3d 49a4 e9bd 5421 a9bd 936c 0bbe
000003b0: 34c0 debb acc8 263d edac 973d d6dc 5abc
000003c0: 4af4 8fbd 3658 e43d 300f 48bc 3325 4dbc
000003d0: a627 79bd 3942 9cbc 808d 7f3e 995d 13be
000003e0: 270c 1b3c 7c0a b4bc d8ec eebc 5e29 e83d
000003f0: 9025 bfbd 1fb5 7fbc 93e5 a23d cde1 07be

fc4.bias f4 [32]
-0.059711948 -0.23280324 -0.074420735 -0.09626878 -0.12423733 -0.064883634 -0.18213408 -0.15834112
-0.17162172 -0.016650684 -0.029813228 -0.042583346 0.48331946 -0.015590533 -0.119975775 -0.111983515
-0.10761877 -0.020494381 -0.028099108 -0.01896256 -0.14188308 2.1989975 -0.5070136 -0.26384076
-0.047402583 1.7456263 -0.052546877 -0.113514006 -0.07218135 2.989807 -0.022421654 -0.00037753535
00000000: 8494 74bd f963 6ebe e669 98bd 9128 c5bd
00000010: 2470 febd b6e1 84bd 5b81 3abe 2d24 22be
00000020: 9bbd 2fbe 0467 88bc df3a f4bc e06b 2ebd
00000030: a675 f73e 6f6f 7fbc dcb5 f5bd 9d57 e5bd
00000040: 3b67 dcbd d5e3 a7bc 1a30 e6bc 5f57 9bbc
00000050: cc49 11be 60bc 0c40 a5cb 01bf 2316 87be
00000060: 3629 42bd af70 df3f 653b 57bd 087a e8bd
00000070: d1d3 93bd ff58 3f40 9ead b7bc f0ef c5b9

fc5.weight f4 [3, 32]
0.016377226 -0.022824343 0.07277183 -0.031747352 -0.12160881 -0.019499442 -0.047220618 0.073390536
-0.027310697 0.099588655 -0.11466029 -0.026571633 -0.06149472 0.15660056 0.059999056 0.10910677
0.055323794 0.040559378 0.02104551 0.016384922 0.090100914 1.0556636 0.059929244 -0.04308408
0.06246438 -0.098752104 -0.14472526 0.05130641 -0.01846339 -2.0271537 0.002987349 -0.11915133
-0.106967136 -0.070324965 -0.058712076 0.12613267 0.09833939 0.036854625 -0.049610406 0.104165144
0.03182743 0.01910233 0.05989435 -0.14246911 0.31897393 0.03448017 -0.18562986 0.39627743
-0.061195638 0.22480363 0.017331403 -0.080199964 -0.09623358 -2.4706044 0.03328245 -0.19449276
0.08761618 -5.5009584 0.023791706 -0.18217634 -0.029152919 4.736055 0.008280358 0.116139375
0.02388067 -0.046908922 -0.07755598 -0.0061849616 -0.004069212 0.013502263 -0.05307334 0.044667065
0.011347 0.076949 0.11188725 -0.002392323 -2.8696833 0.16480152 -0.11017029 0.43624458
-0.112411894 -0.15324517 -0.073325425 -0.1824007 -0.003560297 0.6533816 -0.37785488 0.08307103
0.069314465 1.1777635 -0.07552045 0.11559837 -0.17327267 0.701127 -0.09550989 0.1947393
00000000: 8829 863c 1efa babc 6609 953d 8309 02bd
00000010: 0a0e f9bd 4bbd 9fbc 686a 41bd c74d 963d
00000020: afba dfbc 23f5 cb3d 04d3 eabd c1ac d9bc
00000030: e3e1 7bbd e65b 203e 92c1 753d 5f73 df3d
00000040: 349b 623d 9721 263d a267 ac3c ac39 863c
00000050: d486 b83d fc1f 873f 5e78 753d ef78 30bd
00000060: a6da 7f3d 8b3e cabd dc32 14be ac26 523d
00000070: 8940 97bc e3bc 01c0 66c7 433b 9d05 f4bd
00000080: 9611 dbbd 8906 90bd 137c 70bd ec28 013e
00000090: 2966 c93d e0f4 163d 4834 4bbd 8954 d53d
000000a0: 7b5d 023d 7d7c 9c3c c753 753d 6ce3 11be
000000b0: 8d50 a33e 143b 0d3d c115 3ebe e0e4 ca3e
000000c0: 47a8 7abd ec32 663e 96fa 8d3c e13f a4bd
000000d0: 1c16 c5bd 621e 1ec0 2e53 083d 1c29 47be
000000e0: 1d70 b33d da07 b0c0 d3e6 c23c 6f8c 3abe
000000f0: 1ad2 eebc c38d 9740 57aa 073c 7bda ed3d
00000100: 65a1 c33c 9223 40bd abd5 9ebd 38ab cabb
00000110: 0657 85bb 9938 5d3c 6e63 59bd d0f4 363d
00000120: c4e8 393c 7097 9d3d 2425 e53d 85c8 1cbb
00000130: e4a8 37c0 bbc1 283e f6a0 e1bd 735b df3e
00000140: 3538 e6bd 4dec 1cbe a42b 96bd 40c7 3abe
00000150: df53 69bb 0444 273f 3276 c1be 2521 aa3d
00000160: bef4 8d3d f4c0 963f 77aa 9abd d7be ec3d
00000170: 646e 31be 0f7d 333f b09a c3bd bd69 473e

fc5.bias f4 [3]
0.6600476 -1.8671302 -0.14020163
00000000: e1f8 283f 1ffe eebf 0491 0fbe
