lstm_model.pth (torch, 655843 bytes, 6 tensors)

lstm.weight_ih_l0 f4 [512, 189]
0.057185374 -0.08893393 0.006595021 0.01932044 0.02794679 -0.028787563 0.07519553 -0.019464953
-0.07571999 -0.060640033 0.025433581 0.037513472 -0.029761912 -0.039112303 0.072373055 -0.037789304
0.047391746 0.056280535 -0.055838507 -0.026976047 -0.057136092 0.018794829 0.031639848 -0.052295707
-0.06485699 -0.05239969 -0.050855685 -0.0061210566 -0.08800282 -0.08638123 0.07656449 -0.055267893
-0.008368382 0.028687337 0.010013795 -0.09946609 -0.076409794 -0.07347928 0.05385909 -0.05672456
0.03458609 0.030833142 0.043499622 -0.0037185885 0.04736136 0.052585 -0.06481797 -0.016873842
-0.070848994 0.044278484 -0.08908014 -0.025780646 -0.078419074 0.019565294 0.055484466 0.01775533
-0.08282315 0.055126697 0.043270808 1.7570086e-05 -0.054294795 0.05016678 -0.07138072 0.049331512
0.037782855 0.03428273 0.034604877 -0.039560534 -0.032530565 -0.016292203 0.0062636435 0.05237288
0.028851233 0.02331856 -0.034171246 -0.09113641 -0.07026757 0.025714796 0.028911717 -0.079024486
-0.05430493 -0.00860179 -0.023245016 -0.05340888 -0.01049882 0.06589983 0.036582008 0.075064056
0.0013061472 0.0005571136 0.06072907 -0.06723834 -0.038287606 -0.083458036 0.011427045 -0.06734791
-0.04115343 0.013554662 -0.006966648 -0.096285865 0.064813435 0.039992794 0.035572086 -0.05258022
-0.052317508 -0.0744384 0.032616567 0.036818672 -0.078889236 -0.035638243 0.053757813 -0.090867855
0.0018157815 0.05506494 0.07167843 -0.016179211 -0.09076286 -0.011895859 -0.03829781 0.076402254
0.015976124 0.0011465311 -0.033410124 -0.093847916 0.040558204 0.016755164 0.04157452 -0.052721255
-0.019194717 -0.08104614 0.07378141 0.0046164743 0.003964898 0.052105024 -0.010536035 -0.06287279
0.003308955 0.053697363 -0.08307916 -0.042088233 -0.017312512 0.027508505 0.02904733 -0.0115250265
-0.04195932 -0.024752045 0.0307491 0.006343533 -0.0124729145 0.057931717 -0.0852889 0.06292905
-0.089987814 0.032592643 -0.0088668885 -0.009557408 -0.079198934 0.07400785 -0.05510185 0.01609988
-0.090033166 -0.086370006 -0.043783735 -0.046062928 0.08047731 -0.07815977 0.00697264 -0.016021527
0.021948487 -0.0051661725 -0.07125058 0.031956844 0.047525752 -0.0038194354 0.039749138 -0.0702956
0.04060125 -0.006203113 -0.053860545 0.053157046 0.008074481 -0.009684048 -0.03578838 0.026642237
0.036674887 -0.02948388 0.01972304 0.07614048 -0.049664393 0.06265338 0.009118038 0.03334979
0.0036863107 -0.052815575 0.026314264 -0.016518548 0.012613856 0.040954076 0.0022612237 0.0878258
0.0025044428 -0.026775356 0.021125864 -0.06840729 -0.02561125 0.035424326 0.07444981 0.03333697
-0.07993658 0.04754125 0.07762155 -0.0228728 -0.03904024 0.045214016 -0.011514223 0.04475984
-0.07534049 0.067787215 0.027253173 0.014377428 -0.042984247 0.023056539 -0.038211275 0.03399214
-0.08828732 -0.061107278 -0.058323234 0.050727613 -0.02860768 -0.004885798 0.02322109 -0.03505139
0.06717482 0.071654126 -0.07223984 -0.086981356 0.038329717 0.016660122 -0.05235715 0.07973634
0.0048528216 -0.072199166 -0.06375427 -0.054305166 0.07721393 -0.06226755 0.025667155 -0.055554546
-0.05757902 0.030345613 -0.06098448 -0.007672695 0.062476657 -0.0814403 -0.07711999 -0.041299503
00000000: 363b 6a3d fe22 b6bd 0c1b d83b e645 9e3c
00000010: abf0 e43c e5d3 ebbc 1d00 9a3d f774 9fbc
00000020: 1513 9bbd af61 78bd 165a d03c baa7 193d
00000030: 41cf f3bc 3934 20bd 5338 943d f5c8 1abd
00000040: d91d 423d 6b86 663d ebb6 64bd dffc dcbc
00000050: 8907 6abd 9df7 993c c998 013d 0634 56bd
00000060: bed3 84bd 0fa1 56bd 0d4e 50bd 2593 c8bb
00000070: d33a b4bd a4e8 b0bd d8cd 9c3d 9660 62bd
00000080: 8a1b 09bc b501 eb3c e710 243c e1b4 cbbd
00000090: bd7c 9cbd 4e7c 96bd 599b 5c3d 0358 68bd
000000a0: 25aa 0d3d c995 fc3c a92c 323d 90b3 73bb
000000b0: fcfd 413d 5e63 573d 49bf 84bd 033b 8abc
000000c0: 4719 91bd 5b5d 353d a66f b6bd ef31 d3bc
000000d0: 2e9a a0bd 6547 a03c ae43 633d a073 913c
000000e0: 2f9f a9bd 88cc 613d bb3c 313d 7963 9337
000000f0: 3864 5ebd ae7b 4d3d 0e30 92bd d70f 4a3d
00000100: 32c2 1a3d 0c6c 0c3d d8bd 0d3d 3a0a 22bd
00000110: c53e 05bd 3a77 85bc 403f cd3b f284 563d
00000120: 6c59 ec3c 9106 bf3c 26f7 0bbd baa5 babd
00000130: 72e8 8fbd d6a7 d23c 44d8 ec3c 97d7 a1bd
00000140: d96e 5ebd 86ee 0cbc 556c bebc 45c3 5abd
00000150: 3e03 2cbc 7df6 863d 04d7 153d 2fbb 993d
00000160: 0733 ab3a 430b 123a 0cbf 783d 41b4 89bd
00000170: 77d3 1cbd 0cec aabd 8038 3b3c b3ed 89bd
00000180: 8090 28bd 5f14 5e3c 7b48 e4bb 8631 c5bd
00000190: e8bc 843d 7ccf 233d 09b4 113d 5b5e 57bd
000001a0: e24a 56bd 2973 98bd f398 053d 2dcf 163d
000001b0: ae90 a1bd 68f9 11bd 2731 5c3d ed18 babd
000001c0: 84ff ed3a c68b 613d 24cc 923d 448a 84bc
000001d0: e1e1 b9bd d9e6 42bc 2ade 1cbd c978 9c3d
000001e0: 5ce0 823c 3347 963a 0ed9 08bd 5633 c0bd
000001f0: 5c20 263d 2042 893c 0b4a 2a3d 3ef2 57bd
00000200: 3d3e 9dbc 85fb a5bd b51a 973d cb45 973b
00000210: faeb 813b 146c 553d 559f 2cbc 73c3 80bd
00000220: 0edb 583b c4f1 5b3d 6825 aabd b664 2cbd
00000230: f8d2 8dbc 8459 e13c abf4 ed3c 77d3 3cbc
00000240: 89dd 2bbd cdc4 cabc 89e5 fb3c 69dd cf3b
00000250: 325b 4cbc cf49 6d3d f2ab aebd f2e0 803d
00000260: 884b b8bd dd7f 053d 6d46 11bc ad96 1cbc
00000270: 0d33 a2bd 6d91 973d 7ab2 61bd e5e3 833c
00000280: 4f63 b8bd c2e2 b0bd 9356 33bd 7bac 3cbd
00000290: 4ad1 a43d 3b12 a0bd be7a e43b 943f 83bc
000002a0: 50cd b33c ff48 a9bb d3eb 91bd 2ee5 023d
000002b0: 5daa 423d 7e4f 7abb fecf 223d 24f7 8fbd
000002c0: 7f4d 263d 7c43 cbbb e09c 5cbd 34bb 593d
000002d0: d44a 043c d7a9 1ebc d696 12bd d240 da3c
000002e0: 6838 163d 2e88 f1bc 3692 a13c 8aef 9b3d
000002f0: e46c 4bbd 6a50 803d d363 153c ca99 083d
00000300: 0896 713b 2555 58bd 0391 d73c e851 87bc
00000310: 59aa 4e3c 76bf 273d 0a31 143b 03de b33d
00000320: 9421 243b fe57 dbbc 2610 ad3c 1f19 8cbd
00000330: afce d1bc 1919 113d 2479 983d 598c 083d
00000340: cab5 a3bd 9dba 423d 0cf8 9e3d bd5f bbbc
00000350: a9e8 1fbd 5532 393d 27a6 3cbc 1856 373d
00000360: 1d4c 9abd 06d4 8a3d 0c42 df3c 4e8f 6b3c
00000370: 4010 30bd 11e1 bc3c 6d83 1cbd 583b 0b3d
00000380: fccf b4bd a04b 7abd 58e4 6ebd c2c7 4f3d
00000390: a75a eabc 0b19 a0bb 283a be3c 0c92 0fbd
000003a0: f492 893d 66bf 923d 7bf2 93bd 4823 b2bd
000003b0: 9fff 1c3d cf7a 883c 7374 56bd ce4c a33d
000003c0: 6b04 9f3b 28dd 93bd 9991 82bd 186f 5ebd
000003d0: 5622 9e3d 420c 7fbd ed43 d23c 2a8d 63bd
000003e0: fad7 6bbd 5d97 f83c ddca 79bd 3b6b fbbb
000003f0: 86e7 7f3d 2cca a6bd 16f1 9dbd ab29 29bd

lstm.weight_hh_l0 f4 [512, 128]
-0.055980664 -0.019846393 -0.003988978 0.050546892 0.042037856 -0.04011636 0.07928027 -0.04453709
-0.019774457 -0.0046204324 -0.06296606 -0.016776858 -0.08144637 0.08233151 0.07197693 -0.025926707
0.054778162 0.013546587 -0.07291944 0.037696708 -0.04490463 0.07855241 -0.033087857 0.03978827
-0.015073493 0.03388361 -0.0152814565 -0.056995373 0.08286444 0.06905977 -0.08103993 0.07902967
-0.009504852 0.06585135 0.078581385 -0.02531738 0.042262435 0.05372131 -0.042505484 -0.025949372
0.026437169 0.006431693 -0.018536342 0.027238023 0.04417541 -0.060418677 -0.024277711 -0.054817338
0.0405272 -0.062265698 -0.00797098 -0.047125507 -0.07485217 0.084633894 -0.05815337 -0.0051260684
-0.075558245 -0.022257572 0.06714423 0.03127276 -0.049460538 0.047925614 -0.07194228 0.05819028
-0.039036136 -0.04359788 0.011523538 0.03907111 -0.056323647 0.005323958 -0.043581147 -0.07325635
0.004549942 0.0462871 -0.069255546 0.035097808 -0.05623576 0.02837425 -0.014140994 -0.05030201
-0.06975202 -0.052301973 0.06644622 -0.023535453 0.056546003 -0.026971422 0.03315229 0.047095023
0.05656718 0.033540126 -0.08138975 0.047310404 0.024255006 0.048320476 0.0503778 0.022017693
-0.06559738 0.055536553 0.015480927 0.06907812 -0.018448044 0.07139534 -0.056912184 0.030207478
0.03981502 -0.049884934 -0.083002225 -0.001782622 -0.06921309 0.059498124 0.048287876 -0.019962959
-0.08614546 -0.07581591 0.06784978 0.0825123 -0.019365033 -0.016357139 0.053007312 -0.07358496
0.021276077 -0.021021994 -0.053112205 -0.05165131 -0.046244543 -0.0027381647 0.0064535253 0.021909228
0.007275189 -0.038509384 -0.05077027 -0.012175192 0.019069057 0.06775877 0.03816669 0.011319073
-0.032191247 0.07264594 0.012735091 0.025502658 -0.024226429 0.008260308 -0.01243037 0.009023661
0.07129413 -0.08569081 0.005884311 -0.034092344 -0.08593764 -0.006722833 -0.058438405 0.008234809
-0.08248332 -0.07725118 -0.04141202 -0.006183807 0.034680597 0.040171593 0.00020595058 0.072985984
-0.0551568 -0.05900565 -0.023581551 0.03390382 0.06985499 -0.022795882 0.01881508 0.06254943
0.009635591 -0.066104546 -0.0032132019 0.027537633 0.044470478 -0.05002639 -0.02150013 0.047239304
-0.060355056 0.011247982 0.0040584463 -0.027128546 0.038736157 0.049076315 0.01586398 0.029196166
-0.0103056105 -0.030689817 0.03565538 -0.030917715 0.016020449 -0.026386613 -0.0612719 0.057908274
-0.005053881 -0.069080085 -0.0022585548 0.027673073 0.084800735 -0.010559429 0.074332364 -0.06544114
0.017579544 0.0867791 0.08725435 0.06608264 0.00811526 0.037939444 0.073869154 -0.06534847
-0.02648176 0.04459086 0.01338881 -0.061060794 0.049746525 -0.0142942825 -0.0013816159 -0.088134676
-0.018600773 -0.053800747 -0.0049187057 -0.016104879 -0.037908413 -0.08486937 -0.010120248 -0.024519783
0.028133947 -0.026916431 -0.034340262 0.07214705 0.065782666 0.0073803556 0.006320805 0.045289863
0.06744131 0.040902928 0.029476482 -0.06244458 0.07248809 -0.08226924 -0.075881705 0.0063383277
-0.041144215 -0.008232618 0.006389062 -0.0060674287 -0.025636273 0.003996069 -0.057129927 -0.07920744
-0.036461934 0.05584495 -0.048558448 0.03298331 0.07483707 -0.053785965 0.018190496 0.05569079
00000000: fb4b 65bd e794 a2bc f9b5 82bb 420a 4f3d
00000010: e32f 2c3d 0d51 24bd b25d a23d 866c 36bd
00000020: 0bfe a1bc ff66 97bb 5af4 80bd 9f6f 89bc
00000030: 5bcd a6bd 6c9d a83d a468 933d 3f64 d4bc
00000040: 115f 603d 81f2 5d3c ca56 95bd dd67 1a3d
00000050: ebed 37bd 16e0 a03d 2287 07bd 06f9 223d
00000060: d0f6 76bc 8ac9 0a3d 135f 7abc fb73 69bd
00000070: d5b4 a93d 356f 8d3d 43f8 a5bd 4fda a13d
00000080: 3dba 1bbc 13dd 863d 47ef a03d 6566 cfbc
00000090: 601b 2d3d e00a 5c3d 3b1a 2ebd c793 d4bc
000000a0: c392 d83c f4c0 d23b 87d9 97bc 4622 df3c
000000b0: 46f1 343d 9379 77bd 0de2 c6bc 2588 60bd
000000c0: d9ff 253d 510a 7fbd b798 02bc ad06 41bd
000000d0: 184c 99bd 8954 ad3d 3a32 6ebd 94f8 a7bb
000000e0: 48be 9abd 8355 b6bc ea82 893d de17 003d
000000f0: 2297 4abd a64d 443d 7956 93bd ee58 6e3d
00000100: 5be4 1fbd b193 32bd 39cd 3c3c 0709 203d
00000110: a0b3 66bd 9974 ae3b 2582 32bd 6d07 96bd
00000120: ae17 953b 8b97 3d3d dad5 8dbd b8c2 0f3d
00000130: 7857 66bd 1d71 e83c a1af 67bc 7b09 4ebd
00000140: 26da 8ebd 983a 56bd f514 883d 6ccd c0bc
00000150: c89c 673d 2cf3 dcbc b2ca 073d b6e6 403d
00000160: fdb2 673d 5f61 093d abaf a6bd 8ec8 413d
00000170: 6fb2 c63c b1eb 453d f458 4e3d 735e b43c
00000180: eb57 86bd 4c7a 633d b7a3 7d3c d478 8d3d
00000190: 5a20 97bc b837 923d c01c 69bd ac75 f73c
000001a0: 1315 233d 2554 4cbd 12fd a9bd dea6 e9ba
000001b0: 98bf 8dbd 4eb4 733d 82c9 453d 5c89 a3bc
000001c0: 086d b0bd 5f45 9bbd d3f4 8a3d 35fc a83d
000001d0: 6ba3 9ebc 68ff 85bc 321e 593d b6b3 96bd
000001e0: 2b4b ae3c 5136 acbc 2f8c 59bd 5390 53bd
000001f0: eb6a 3dbd c872 33bb 1878 d33b fb7a b33c
00000200: b564 ee3b 04bc 1dbd 7df4 4fbd 757a 47bc
00000210: b636 9c3c 1cc5 8a3d ad54 1c3d a273 393c
00000220: f8da 03bd 65c7 943d d8a6 503c f3ea d03c
00000230: 8176 c6bc 3e56 073c c0a8 4bbc fad7 133c
00000240: a802 923d aa7e afbd 2ed1 c03b 6aa4 0bbd
00000250: 1300 b0bd 364b dcbb 1c5d 6fbd 4beb 063c
00000260: 04ed a8bd de35 9ebd a69f 29bd 88a1 cabb
00000270: 3e0d 0e3d f88a 243d 70f4 5739 ad79 953d
00000280: 19ec 61bd e9af 71bd 192e c1bc bbde 0a3d
00000290: 2210 8f3d 6ebe babc 1522 9a3c ea19 803d
000002a0: 99de 1d3c d261 87bd 9594 52bb 9a96 e13c
000002b0: ad26 363d 79e8 4cbd 0a21 b0bc 007e 413d
000002c0: dd36 77bd 7549 383c b7fc 843b af3c debc
000002d0: cea9 1e3d 3f04 493d 2df5 813c cc2c ef3c
000002e0: ddd8 28bc 3669 fbbc 600b 123d 2647 fdbc
000002f0: 513d 833c bd28 d8bc 3ef8 7abd 3a31 6d3d
00000300: 079b a5bb dc79 8dbd 4304 14bb a4b2 e23c
00000310: 02ac ad3d 7501 2dbc 913b 983d 0106 86bd
00000320: fa02 903c 3eb9 b13d 69b2 b23d 5656 873d
00000330: def5 043c 6466 1b3d b648 973d 6bd5 85bd
00000340: 47f0 d8bc e8a4 363d bd5c 5b3c e21a 7abd
00000350: 03c3 4b3d 9132 6abc 5617 b5ba f47f b4bd
00000360: a660 98bc 2c5e 5cbd 182d a1bb 61ee 83bc
00000370: da45 1bbd fecf adbd 66cf 25bc b6dd c8bc
00000380: 2a79 e63c d97f dcbc 60a8 0cbd d5c1 933d
00000390: 10b9 863d e9d6 f13b c11e cf3b dd81 393d
000003a0: ab1e 8a3d d489 273d aa78 f13c e3c5 7fbd
000003b0: a374 943d c67c a8bd de67 9bbd bfb1 cf3b
000003c0: d686 28bd 1ae2 06bc 565b d13b 48d1 c6bb
000003d0: 2903 d2bc 75f1 823b 1201 6abd 8337 a2bd
000003e0: 1c59 15bd adbd 643d 39e5 46bd 8219 073d
000003f0: 2e44 993d ac4e 5cbd 3c04 953c 071c 643d

lstm.bias_ih_l0 f4 [512]
-0.083903454 0.054003716 -0.051305734 0.023093997 0.014405148 -0.017182142 -0.085734114 0.01615318
-0.037341245 -0.030396707 -0.04209533 -0.078734495 -0.02077476 -0.037327547 -0.028372956 -0.053848688
-0.024445478 0.013024472 0.066481076 -0.07771234 0.0040154313 0.052764658 0.06551648 -0.004374341
0.047162496 0.065840855 0.022202943 -0.06789927 -0.0017100085 0.007364877 -0.067759566 -0.05829731
0.0643131 -0.06583938 -0.016932761 -0.0036781835 0.044832565 0.09256766 -0.03213615 0.072556354
0.046962705 0.051696878 0.009262046 0.053855713 -0.017786382 0.024749748 -0.05694983 -0.08810799
-0.07821847 -0.0819046 -0.073568776 0.054442253 -0.0089450255 -0.019464212 -0.044525657 -0.08135073
-0.031448912 -0.053513482 -0.0034399452 -0.0060791476 -0.058194004 0.079204656 -0.08395044 0.06103289
-0.021832058 0.003985406 -0.08029805 -0.06640555 -0.0320391 -0.011544402 0.04761822 -0.023926154
-0.058671147 0.07265049 -0.046489816 -0.035927758 0.07483355 0.07608029 0.019101713 0.07048293
-0.07299794 -0.009389928 -0.06770012 0.044719186 0.060741857 0.06089069 0.033089533 0.08647542
0.019391418 0.013587626 0.027830571 -0.057388317 -0.016638743 0.07776949 -0.03380557 -0.00042558473
-0.0044019464 0.05916466 0.06914561 0.05364902 -0.04151727 0.01720673 0.06647744 -0.027195878
0.067158945 0.02284129 -0.06823929 -0.08313394 -0.031394128 -0.07721289 0.034320343 0.049958456
0.07561253 -0.06400649 -0.060843293 0.06284953 -0.03684325 -0.052128263 0.05867499 -0.026077256
-0.033762783 -0.027640078 -0.025208125 0.083721556 -0.07519685 0.06583135 -0.06736892 0.03848688
-0.03210756 -0.0746219 0.0084001515 -0.028764307 -0.029161561 0.042166077 -0.056982234 -0.028726058
-0.056533683 -0.0543835 0.08406843 -0.015984783 0.048579164 0.026844867 0.07070656 -0.07929962
-0.023944888 0.018099658 0.02866503 -0.04441791 0.019134196 -0.010400314 0.0303367 -0.024968794
0.016719159 0.009784285 0.067065224 0.066974 0.06884741 -0.059150815 0.03158486 -0.07055721
0.07233895 0.051759932 -0.0705464 0.04651286 0.07556072 -0.012717653 -0.04904537 -0.055812016
0.004169398 0.045642402 0.07184147 0.0058365585 0.04196472 0.057558212 0.08814153 -0.016969185
0.053072765 -0.008700016 -0.006382687 0.04419918 -0.06659653 -0.050691657 0.012494159 -0.07310148
-0.014585475 0.012013538 -0.017601777 0.052472226 0.07386228 0.009010964 -0.017537946 0.0049648564
0.00075554545 -0.014094865 0.019907864 0.035239168 0.042085484 0.008102984 -0.058576837 -0.046382744
0.001429895 -0.003283861 0.059019875 -0.0093365805 -0.021237923 0.010267415 -0.07485662 -0.001324138
-0.056036014 -0.06517468 -0.07575615 0.01618439 -0.06147851 0.08084101 -0.06937633 0.07449859
0.045700945 0.08821053 0.08729043 0.011168746 -0.00841523 0.057773296 -0.06730043 -0.030057024
0.004681419 0.022683011 -0.055502772 0.022781447 0.062166244 0.039161935 0.051841002 -0.029396003
-0.06755791 0.024601948 -0.025471427 0.010128182 -0.006856565 0.018708216 -0.038004592 -0.06695641
0.052556656 0.051681973 0.04717703 -0.083324336 0.035192322 0.030159114 -0.06311351 0.018383265
0.039551053 0.08019623 -0.0053227358 -0.035816234 -0.029656913 -0.050700393 0.043045606 -0.03233343
00000000: 93d5 abbd 0033 5d3d f625 52bd 9f2f bd3c
00000010: 9203 6c3c 90c1 8cbc 5e95 afbd ac53 843c
00000020: 22f3 18bd 8402 f9bc 276c 2cbd 8d3f a1bd
00000030: d42f aabc c5e4 18bd 676e e8bc 7190 5cbd
00000040: e241 c8bc 9864 553c 3b27 883d a627 9fbd
00000050: e193 833b c11f 583d 812d 863d a256 8fbb
00000060: 762d 413d 92d7 863d f2e2 b53c c60e 8bbd
00000070: 5d22 e0ba 1155 f13b 87c5 8abd 29c9 6ebd
00000080: 96b6 833d ccd6 86bd 93b6 8abc ae0d 71bb
00000090: 5aa2 373d 1d94 bd3d 32a1 03bd 6d98 943d
000000a0: f75b 403d 1bc0 533d d6bf 173c cf97 5c3d
000000b0: bfb4 91bc fcbf ca3c 3a44 69bd f671 b4bd
000000c0: 0131 a0bd 99bd a7bd 3aab 96bd d7fe 5e3d
000000d0: 288e 12bc 6973 9fbc 8960 36bd 369b a6bd
000000e0: 93d0 00bd f430 5bbd b470 61bb 9633 c7bb
000000f0: d65c 6ebd 0d36 a23d 35ee abbd a0fd 793d
00000100: 25d9 b2bc 0298 823b 4e73 a4bd a2ff 87bd
00000110: 6e3b 03bd bb24 3dbc 530b 433d c800 c4bc
00000120: 2851 70bd c8c9 943d 1b6c 3ebd fc28 13bd
00000130: 5542 993d fccf 9b3d 327b 9c3c 5b59 903d
00000140: f27f 95bd 36d8 19bc 5ca6 8abd 772b 373d
00000150: 74cc 783d 8468 793d e488 073d 061a b13d
00000160: c0da 9e3c a29e 5e3c f0fc e33c 0310 6bbd
00000170: f94d 88bc 9c45 9f3d b677 0abd 0421 dfb9
00000180: 343e 90bb a456 723d 379c 8d3d 13bf 5b3d
00000190: 030e 2abd 21f5 8c3c 5325 883d e4c9 debc
000001a0: a18a 893d a81d bb3c 0ac1 8bbd 2142 aabd
000001b0: 2197 00bd cb21 9ebd 7d93 0c3d 3da1 4c3d
000001c0: beda 9a3d d615 83bd d136 79bd 41b7 803d
000001d0: f3e8 16bd 7284 55bd 3055 703d f89f d5bc
000001e0: d84a 0abd 726d e2bc 4581 cebc 3576 ab3d
000001f0: ce00 9abd 96d2 863d b7f8 89bd 6ba4 1d3d
00000200: 3883 03bd 5ed3 98bd caa0 093c 20a3 ebbc
00000210: 3ae4 eebc 56b6 2c3d 3466 69bd e952 ebbc
00000220: dd8f 67bd 3cc1 5ebd 122c ac3d 85f2 82bc
00000230: f2fa 463d c4e9 db3c 9ace 903d d767 a2bd
00000240: 1228 c4bc bc45 943c edd2 ea3c 8eef 35bd
00000250: 51bf 9c3c 1466 2abc ac84 f83c 5b8b ccbc
00000260: 9ef6 883c 444e 203c 7e59 893d aa29 893d
00000270: dfff 8c3d 2048 72bd 205f 013d 4c80 90bd
00000280: 7226 943d 3902 543d a27a 90bd 4584 3e3d
00000290: 94bf 9a3d b45d 50bc cce3 48bd 249b 64bd
000002a0: 729f 883b 87f3 3a3d 9f21 933d 9a40 bf3b
000002b0: 33e3 2b3d 29c2 6b3d 8c83 b43d f602 8bbc
000002c0: d462 593d 838a 0ebc dc25 d1bb 330a 353d
000002d0: c363 88bd 0ea2 4fbd 4db4 4c3c 3bb6 95bd
000002e0: ebf7 6ebc 6ed4 443c 9a31 90bc 1eed 563d
000002f0: 1b45 973d b9a2 133c bdab 8fbc 3cb0 a23b
00000300: cc0f 463a 26ee 66bc d115 a33c f256 103d
00000310: d461 2c3d 61c2 043c 44ee 6fbd d5fb 3dbd
00000320: 516b bb3a 0c36 57bb d3be 713d 75f8 18bc
00000330: 27fb adbc a938 283c 6d4e 99bd b38e adba
00000340: 0586 65bd 4d7a 85bd 0a26 9bbd 2095 843c
00000350: e4d0 7bbd f98f a53d 2d15 8ebd b792 983d
00000360: ea30 3b3d b9a7 b43d 53c5 b23d 1efd 363c
00000370: 08e0 09bc b1a3 6c3d cfd4 89bd 263a f6bc
00000380: 9766 993b b9d1 b93c e056 63bd 28a0 ba3c
00000390: 08a2 7e3d 4468 203d 3b57 543d e3cf f0bc
000003a0: cd5b 8abd 068a c93c 74a9 d0bc adf0 253c
000003b0: 09ad e0bb f941 993c b4aa 1bbd 7120 89bd
000003c0: a645 573d 7ab0 533d b43c 413d f3a5 aabd
000003d0: d325 103d 3f10 f73c a841 81bd 8098 963c
000003e0: 4900 223d ec3d a43d 586a aebb 0bb4 12bd
000003f0: 0ef3 f2bc 37ab 4fbd 9750 303d 0f70 04bd

lstm.bias_hh_l0 f4 [512]
0.0010720385 -0.05920726 0.06337037 -0.07846208 -0.015224817 -0.08536284 -0.015049807 -0.02094259
0.08019762 0.0790821 0.051402513 -0.071591526 0.06379224 0.0015484331 -0.036917817 -0.08994066
-0.053091984 -0.070814736 -0.037621025 0.056427747 -0.07547089 0.081362255 0.06406265 0.038158
-0.0013255071 0.050679434 0.03654058 -0.025749225 0.069309816 0.06755028 0.015865004 -0.05078731
-0.069165386 -0.0145929055 -0.04116555 -0.060744435 0.07262432 -0.06739143 0.015030503 0.086574085
0.030566517 -0.001050618 -0.07709776 -0.030428307 0.050526965 0.041860126 -0.07924605 -0.07324039
0.0047401646 -0.043579277 -0.009523539 -0.022625862 0.05193816 -0.022191765 -0.026386298 -0.080348656
0.01791581 0.09343393 0.04851281 -0.006992273 0.020047108 -0.05801133 -0.07023317 -0.08516102
-0.06212286 0.06562568 0.067360945 -0.04782293 0.06540481 0.037020914 0.09078357 -0.0111147985
-0.048983432 0.04066421 0.096605614 -0.11234375 -0.024572667 0.03762217 -0.0348157 0.05232851
0.056688827 0.067738205 0.04605903 0.08150889 0.08376763 0.06858654 -0.08196638 0.011590299
0.040124126 0.045842502 -0.011275011 -0.06894111 0.025956642 -0.014408542 -0.080740966 0.024259642
0.058297314 -0.074742615 -0.07064881 0.034795597 0.028154895 0.02113703 0.04329021 -0.06781466
-0.0014921938 -0.07700775 0.016132202 -0.056077298 -0.06745917 0.07293088 0.08166103 0.01065368
-0.04633197 0.058260188 -0.022687703 -0.06026117 0.03565707 0.012840954 0.04363252 0.0139773805
0.05185266 -0.04943684 0.04335077 0.03094862 0.029906569 0.0024532895 0.07879636 -0.037292488
0.0073987315 -0.00019871184 -0.048182696 -0.033502486 -0.06980323 -0.06760645 0.07879753 0.077826545
0.07740275 0.052022804 -0.060075104 0.0048525035 -0.039631136 0.07440822 0.044462387 0.07265327
0.040272947 -0.07170202 0.01722392 0.009290767 -0.060416188 0.030384284 0.040854424 0.023063514
-0.067457244 -0.07294521 -0.016479302 -0.08376092 0.0067235813 0.033609223 -0.04856712 0.031089116
-0.060622603 0.085550085 0.07978561 0.01161878 -0.081591755 -0.08331772 0.03620938 -0.0070663933
-0.051287614 0.023065358 0.076554336 -0.048740722 -0.0015866075 -0.024641408 0.04708692 -0.07991173
-0.023424376 -0.042904712 0.05158943 -0.020412108 -0.058573604 0.07381547 -0.035911918 -0.08718664
-0.07177782 -0.0027882564 -0.0012850363 0.065674074 0.011655806 -0.011904883 0.065888114 -0.059219714
-0.036301322 -0.045823306 -0.022699028 0.022591574 0.055269267 0.07783999 -0.00908901 -0.08537014
-0.026869563 -0.057408907 0.039238937 0.051026557 0.07052852 0.022819294 0.06942957 0.035923634
0.0031254205 0.037280638 -0.03349311 0.032413878 0.06252179 0.038596913 -0.017484419 -0.017119259
-0.08539793 0.028278312 0.067296654 0.0758811 -0.014205205 0.028436732 0.03245735 0.042379465
0.0018306272 0.047733087 -0.06828596 -0.016752066 0.01958506 -0.015927609 -0.02381298 -0.036854554
-0.032753717 0.07861804 0.06731808 0.07169718 0.010592051 0.009106321 -0.045875117 -0.05165938
-0.014220515 -0.036377903 -0.0026641549 -0.05316044 0.018975269 -0.07200254 0.06667782 -0.06547814
0.055128615 -0.030116325 0.016467437 -0.035392277 0.07743673 -0.013204924 0.009303969 -0.056455977
00000000: a583 8c3a 5083 72bd 53c8 813d bab0 a0bd
00000010: 8371 79bc b6d2 aebd 7793 76bc cb8f abbc
00000020: a63e a43d ccf5 a13d 718b 523d 949e 92bd
00000030: 82a5 823d cbf4 ca3a 2337 17bd cf32 b8bd
00000040: fb76 59bd 5107 91bd 8118 1abd c820 673d
00000050: 7b90 9abd 41a1 a63d 4733 833d 904b 1c3d
00000060: a3bc adba 3d95 4f3d 93ab 153d 0af0 d2bc
00000070: 4ef2 8d3d cd57 8a3d 53f7 813c 5b06 50bd
00000080: 95a6 8dbd 1517 6fbc 359d 28bd 28cf 78bd
00000090: 0fbc 943d 8504 8abd 8042 763c c14d b13d
000000a0: a266 fa3c e4b4 89ba 6ee5 9dbd c944 f9bc
000000b0: 5df5 4e3d 8675 2b3d c14b a2bd 0fff 95bd
000000c0: 6253 9b3b 2f80 32bd 9e08 1cbc df59 b9bc
000000d0: 1cbd 543d 81cb b5bc 1428 d8bc d68d a4bd
000000e0: 2dc4 923c 4a5a bf3d 5eb5 463d 701f e5bb
000000f0: d539 a43c 4a9d 6dbd 69d6 8fbd e768 aebd
00000100: 8a74 7ebd c266 863d 89f4 893d fae1 43bd
00000110: f5f2 853d 3ea3 173d bdec b93d d81a 36bc
00000120: daa2 48bd 848f 263d 2ad9 c53d 7b14 e6bd
00000130: 9e4c c9bc b419 1a3d e89a 0ebd 6b56 563d
00000140: 8b32 683d 54ba 8a3d 65a8 3c3d 22ee a63d
00000150: 5d8e ab3d 1a77 8c3d fddd a7bd 3de5 3d3c
00000160: 3259 243d 59c5 3b3d d3ba 38bc ff30 8dbd
00000170: 06a3 d43c ce11 6cbc 855b a5bd 28bc c63c
00000180: 2ac9 6e3d a812 99bd 53b0 90bd d485 0e3d
00000190: 18a5 e63c 9127 ad3c 1351 313d 6ae2 8abd
000001a0: b795 c3ba 3db6 9dbd ae27 843c 4fb1 65bd
000001b0: 0928 8abd c95c 953d e63d a73d c68c 2e3c
000001c0: 97c6 3dbd 3ca2 6e3d 90db b9bc 6bd4 76bd
000001d0: 260d 123d dd62 523c 03b8 323d 6201 653c
000001e0: 7463 543d 497e 4abd 9490 313d f687 fd3c
000001f0: 9ffe f43c 5ec7 203b fc5f a13d 02c0 18bd
00000200: 0f71 f23b 4e5d 50b9 385b 45bd e739 09bd
00000210: fff4 8ebd 4075 8abd 9960 a13d 8663 9f3d
00000220: 5585 9e3d dd15 553d 5011 76bd c001 9f3b
00000230: 4254 22bd 5663 983d 311e 363d 3dcb 943d
00000240: 3ff5 243d 82d8 92bd 2e19 8d3c 4d38 183c
00000250: f776 77bd 76e8 f83c f856 273d b2ef bc3c
00000260: 0627 8abd 4c64 95bd 9aff 86bc d88a abbd
00000270: 7d51 dc3b d3a9 093d 51ee 46bd 9aae fe3c
00000280: 684f 78bd e234 af3d a366 a33d b25c 3e3c
00000290: 9419 a7bd 7ba2 aabd 4950 143d 348d e7bb
000002a0: f612 52bd 90f3 bc3c 85c8 9c3d 5aa4 47bd
000002b0: b7f5 cfba c7dc c9bc 37de 403d c3a8 a3bd
000002c0: 7ae4 bfbc dabc 2fbd 704f 533d 4b37 a7bc
000002d0: e0ea 6fbd 912c 973d 6018 13bd e98e b2bd
000002e0: 4000 93bd 2ebb 36bb aa6e a8ba 2180 863d
000002f0: fef7 3e3c b30c 43bc 59f0 863d 5f90 72bd
00000300: b2b0 14bd 38b1 3bbd 50f3 b9bc f711 b93c
00000310: 0762 623d 936a 9f3d 12ea 14bc 8ad6 aebd
00000320: 8f1d dcbc 9a25 6bbd 02b9 203d 3901 513d
00000330: 4271 903d 87ef ba3c 1731 8e3d a924 133d
00000340: dbd3 4c3b 95b3 183d 1230 09bd 6ac4 043d
00000350: 6d0b 803d cc17 1e3d 7c3b 8fbc b03d 8cbc
00000360: 1ce5 aebd eba7 e73c d4d2 893d 8d67 9b3d
00000370: f3bc 68bc 26f4 e83c 00f2 043d 1796 2d3d
00000380: a8f1 ef3a c583 433d 82d9 8bbd a13b 89bc
00000390: d970 a03c 9e7a 82bc 7013 c3bc cdf4 16bd
000003a0: c328 06bd 7f02 a13d 10de 893d f9d5 923d
000003b0: 488a 2d3c ae32 153c 8ce7 3bbd c998 53bd
000003c0: 2afd 68bc ff00 15bd 1a99 2ebb c3be 59bd
000003d0: 0672 9b3c 1176 93bd 628e 883d 6719 86bd
000003e0: 8bce 613d 83b6 f6bc b8e6 863c 7ef7 10bd
000003f0: 2697 9e3d 7759 58bc ad6f 183c 623e 67bd

fc.weight f4 [2, 128]
-0.0072457003 0.052074093 2.5434325 2.4455242 -2.5025415 0.000943552 0.0017337592 -2.464436
2.4100552 2.436942 -0.08177004 -0.03881735 2.4434865 -0.061825287 -2.4622798 0.015614127
-2.4637625 -0.0034673323 -0.0059568565 -0.009488562 -1.9561836 -0.04230902 2.460316 0.07854405
2.4452322 -0.03652804 -2.4792416 2.4506993 -2.4813826 0.021530485 0.21642031 0.035377122
2.4751596 -0.007849784 2.4154367 -2.4397202 -0.6900486 2.4613817 -0.010397743 -2.5003152
0.0057290406 0.051578544 2.4956713 2.4819543 0.0015704767 -2.441913 -0.065956816 0.03905054
0.0034822414 -2.4879916 -0.033424042 -0.056866255 2.4615347 -2.490359 -2.450313 0.033247445
2.5057948 0.06490813 -2.4701653 0.05795345 2.4912913 -0.0003303027 -0.03483967 -0.034445357
1.497152 2.4714167 0.06910375 -1.762318 1.6821587 -2.455429 2.442567 -0.04227999
0.06861563 2.460583 -2.4475148 -0.04888284 0.005069698 -2.438025 0.0588379 -0.0035514892
-0.04633205 -0.031030564 -0.07981018 -2.4866657 -2.5549507 0.054844957 -2.5158827 -0.01972872
0.033396836 -2.4283862 -2.5441673 0.035103224 0.086280644 2.5017145 -0.07792701 1.9191087
0.0154047 -2.4482179 -0.039019827 2.429657 -0.032198157 -0.029097367 0.01153673 0.012618427
-0.020306619 -2.429797 0.062152997 -0.023381354 2.490084 -2.4658237 2.4608853 2.357447
-0.061430033 -0.005944149 -0.25591242 0.05825219 0.04888594 -0.0023762796 2.4703758 0.019931834
-2.4514573 0.046134975 0.031963978 -0.06535701 -2.3523505 -0.03977465 0.5128156 0.05461477
-0.04738105 0.04034945 4.9212418 5.035127 -4.97397 -0.054932844 -0.028901735 -4.999766
5.010538 4.99282 -0.045913566 -0.05796442 4.9245095 -0.01829719 -4.9892793 0.049051844
-4.910849 0.0018033929 -0.039095573 0.045642246 -102.056274 0.07214799 4.9849515 -0.029992476
4.9747357 0.036180012 -4.954419 4.992519 -4.962453 0.080282636 -114.31155 0.03270044
5.0927453 0.0430639 5.026749 -5.0200276 10.830239 4.8547683 0.08193303 -4.9001036
0.04479199 -0.05750557 5.05832 4.971415 -0.06147249 -4.9073286 0.0051675593 -0.006051887
-0.04649722 -4.9458203 0.036914516 0.03952426 4.946696 -5.03733 -5.0333223 -0.029209925
5.1205087 0.068797626 -4.93055 -4.736228 5.0164385 0.024361432 -0.0554384 -0.031173646
16.120356 4.863249 -0.08044796 -29.897404 17.751371 -5.0402 4.9846005 -0.0066431332
-0.047993694 5.0516624 -5.008763 0.040509123 0.040448934 -5.048856 -0.08168448 -0.020761369
0.02164699 -0.015847025 0.039509434 -4.905568 -5.2649713 0.0009703258 -5.0573874 0.07460851
-0.07246816 -5.0515556 -4.691355 -0.045487132 -0.008980766 4.8971357 -0.06556413 4.00646
-0.027750403 -4.893491 -0.08057523 4.9871492 0.074584045 0.0048851604 0.0785169 -0.071553476
0.029546442 -5.029505 -0.028031563 -0.051919594 4.9807982 -4.9632497 4.931602 5.017081
0.07602709 0.086396284 114.31552 -0.0067358566 -0.026165025 0.06712883 4.950378 -0.020571254
-4.94035 -0.0050691026 0.01706884 0.01810147 4.0571256 -0.05494204 -114.25407 0.060020052
00000000: 576d edbb a54b 553d 99c7 2240 7883 1c40
00000010: a429 20c0 b458 773a 4e3f e33a 52b9 1dc0
00000020: 583e 1a40 dcf6 1b40 0d77 a7bd f1fe 1ebd
00000030: 1562 1c40 833c 7dbd fe95 1dc0 65d2 7f3c
00000040: 49ae 1dc0 2f3c 63bb bc31 c3bb ea75 1bbc
00000050: 3964 fabf 394c 2dbd d175 1d40 b4db a03d
00000060: af7e 1c40 6d9e 15bd e5ab 1ec0 42d8 1c40
00000070: f9ce 1ec0 b360 b03c 499d 5d3e 9ae7 103d
00000080: 0469 1e40 619c 00bc 8496 1a40 6024 1cc0
00000090: 06a7 30bf 4787 1d40 4c5b 2abc 2a05 20c0
000000a0: adba bb3b 0644 533d 14b9 1f40 57d8 1e40
000000b0: 74d8 cd3a 4d48 1cc0 5e14 87bd 76f3 1f3d
000000c0: 5136 643b 413b 1fc0 a6e7 08bd 97ec 68bd
000000d0: c989 1d40 0b62 1fc0 eed1 1cc0 792e 083d
000000e0: f15e 2040 8eee 843d 3017 1ec0 9960 6d3d
000000f0: 5171 1f40 7a2c adb9 0bb4 0ebd 9316 0dbd
00000100: ada2 bf3f b12b 1e40 4486 8d3d a393 e1bf
00000110: fa50 d73f c025 1dc0 0553 1c40 c82d 2dbd
00000120: 5a86 8c3d 317a 1d40 15a4 1cc0 5f39 48bd
00000130: b61f a63b 9a08 1cc0 0300 713d 1ac0 68bb
00000140: adc6 3dbd cf33 febc 8573 a3bd 8825 1fc0
00000150: 5084 23c0 1ba5 603d 3904 21c0 209e a1bc
00000160: 1fcb 083d ae6a 1bc0 a3d3 22c0 66c8 0f3d
00000170: e8b3 b03d 171c 2040 3298 9fbd 5ba5 f53f
00000180: ff63 7c3c 9aaf 1cc0 41d3 1fbd 807f 1b40
00000190: 37e2 03bd 9a5d eebc 8e04 3d3c 85bd 4e3c
000001a0: 115a a6bc cb81 1bc0 2494 7e3d 418a bfbc
000001b0: 895d 1f40 0ed0 1dc0 257f 1d40 69e0 1640
000001c0: 0f9e 7bbd 23c7 c2bb f406 83be d999 6e3d
000001d0: a03c 483d 5bbb 1bbb a31a 1e40 1648 a33c
000001e0: ade4 1cc0 07f8 3c3d a9ec 023d e5d9 85bd
000001f0: e98c 16c0 beea 22bd e247 033f bdb3 5f3d
00000200: a212 42bd 7745 253d d07a 9d40 c31f a140
00000210: c32a 9fc0 4301 61bd 55c3 ecbc 15fe 9fc0
00000220: 5456 a040 2ec5 9f40 dd0f 3cbd 1a6c 6dbd
00000230: 9595 9d40 fde3 95bc 2da8 9fc0 96ea 483d
00000240: ad25 9dc0 d35f ec3a ae22 20bd 5df3 3a3d
00000250: d01c ccc2 53c2 933d b984 9f40 c8b2 f5bc
00000260: 0931 9f40 7e31 143d 9a8a 9ec0 b7c2 9f40
00000270: 6acc 9ec0 396b a43d 839f e4c2 e6f0 053d
00000280: c5f7 a240 c663 303d 21db a040 11a4 a0c0
00000290: a948 2d41 435a 9b40 81cc a73d a6cd 9cc0
000002a0: ce77 373d f68a 6bbd c2dd a140 d515 9f40
000002b0: 94ca 7bbd d608 9dc0 a154 a93b e84e c6bb
000002c0: de73 3ebd 2944 9ec0 ad33 173d 31e4 213d
000002d0: 554b 9e40 cf31 a1c0 fa10 a1c0 a749 efbc
000002e0: 35db a340 c5e5 8c3d 11c7 9dc0 2e8f 97c0
000002f0: aa86 a040 a091 c73c 6013 63bd e05f ffbc
00000300: 7df6 8041 bc9f 9b40 e6c1 a4bd e22d efc1
00000310: cf02 8e41 5249 a1c0 d981 9f40 a4ae d9bb
00000320: 0995 44bd 38a7 a140 c947 a0c0 e5ec 253d
00000330: c8ad 253d 3a90 a1c0 314a a7bd bf13 aabc
00000340: 0755 b13c 9fd1 81bc a5d4 213d 6afa 9cc0
00000350: a57a a8c0 765d 7e3a 1ed6 a1c0 59cc 983d
00000360: 306a 94bd 58a6 a1c0 951f 96c0 b750 3abd
00000370: 1024 13bc 56b5 9c40 7d46 86bd ec34 8040
00000380: d054 e3bc 7a97 9cc0 a004 a5bd ba96 9f40
00000390: 85bf 983d b213 a03b 78cd a03d a18a 92bd
000003a0: 610b f23c b4f1 a0c0 73a2 e5bc a4a9 54bd
000003b0: b362 9f40 f1d2 9ec0 afcf 9d40 ed8b a040
000003c0: 17b4 9b3d 89f0 b03d 8ca1 e442 76b8 dcbb
000003d0: 0958 d6bc d77a 893d 7f69 9e40 0c85 a8bc
000003e0: 5917 9ec0 b71a a6bb f4d3 8b3c 8949 943c
000003f0: f9d3 8140 e80a 61bd 1582 e4c2 96d7 753d

fc.bias f4 [2]
2.4865217 4.9044394
00000000: 2c23 1f40 2bf1 9c40
