lstm_model.pth (torch, 263139 bytes, 6 tensors)

lstm.weight_ih_l0 f4 [256, 189]
00000000: 6181 bcbb 7d29 0cbd 51d4 b23d 74db 9b3d
00000010: cb87 a9bd e553 9f3d e0e1 b3bc b6ee d23d
00000020: e75a 053e 9ee6 8abd 0d37 133d 8dc8 843d
00000030: fcfc e6ba 8e02 ff3d da10 8f3d 5e9c c03d
00000040: d2c9 84bd 1edc a23d b8ba a53c e585 633d
00000050: e6af 4fbc a505 833d 8aba b03d 2fb1 39bd
00000060: 3e34 cf3c fc9a ac3d d667 cf3d 8c26 e0bd
00000070: a8fa 953d b8b8 9d3b 417d 703d dab2 debc
00000080: 5ef6 e73c 306b f63d 7a0b b1bd b09f c5b8
00000090: be8f d53d bd31 883d 725b dcbd 1cbb ea3d
000000a0: e85e c8bd 92e0 733c 042a 9bbb f403 e53d
000000b0: d642 873d 516b 003e fa6a 96bd e951 393d
000000c0: 99eb 823d c25e d8bd 4698 80bd 0233 82bc
000000d0: 2ab4 fb3d 60b9 c4bd 16b5 70bd 4e2b 83bd
000000e0: 72f0 e33d ea58 e5bd 4933 5a3d 148e d3bd
000000f0: 31a7 023d 033d 39bc e44f bfbd 26a4 d03d
00000100: dc39 063e 902e cf3d fe08 81bd 83d8 6fbb
00000110: 5102 013e 6ab3 213d 941f b7bc d8a2 61bd
00000120: feb5 e63d 6a0f 7bbd b899 b03d 7e35 cbbd
00000130: 309c 65bd 7a5c 203d a77f 013e b44c df3d
00000140: 0132 713d 6f1c 45bd b209 993c 6a54 b6bd
00000150: 43da a2bb f442 c33d 3971 4e3d 866d c03c
00000160: 90be bf3d 37bf 083e a08f d2bd f852 9bbd
00000170: 1617 d33c 559f bebc de19 ee3c df1c 283c
00000180: d248 903c 550c 5c3d 3be3 1bbd 247e bcbd
00000190: 26c4 d2bd 229a 053d 3623 c03c 365b c43d
000001a0: 0b80 cbbc fa63 203d 6022 9a3d e2c1 ecbc
000001b0: 0a0c 893c f6ef a6bd f2dd 8cbd 1af7 993c
000001c0: 3ef5 f73d f903 393d f3e1 0cbd 1ae2 9c3d
000001d0: d099 8ebd 8ab5 89bd b158 13bd 76e5 19bc
000001e0: c6d8 f3bc baca 363c ff9d 2c3d 9120 553b
000001f0: 912a b93d 4d4e a9bd 2f84 ef3d 0259 dbbb
00000200: 0686 c83d 0a10 68bd 1ba7 08bd 0cfa b3bd
00000210: f3a6 8abd 95d3 893d ab0f 043e 45a8 15bd
00000220: 7f5b ed3d 583a b03d 2e3a d2bd 0909 893d
00000230: c53a 013e 72b3 a9bd 7956 593d 4727 aabd
00000240: 66ee 9c3c 6bf6 6b3d 5a17 883c c0df 61bd
00000250: fc07 153d 58af 89bd 0a65 a83d 58dc dd3d
00000260: 02af e8bd 6680 a7bc c42a 393d 53a2 03bc
00000270: 607b d4bd 08a8 d83d f135 36bd 9dba a63c
00000280: 574c f0bc 2fdc b03d 93a4 4cbc bf93 e73d
00000290: 1aea 68bd df97 90bd da02 073d c3e7 6ebd
000002a0: 3a2c a0bd 55aa b7bd 2ea6 873d fc05 f93d
000002b0: 26c1 203b 1187 debc b1de 693d c6fc d9bd
000002c0: 3035 753d 4fa1 813d beb5 9b3d f6a9 6ebd
000002d0: 0366 3abc 9886 d73b cab4 cfbd 2189 743d
000002e0: cc7a ad3d 3c91 ae3d 5c2d cebd 8ef5 813d
000002f0: 9bc9 d9bd 3616 d0bb d255 05bd bc8b d4bc
00000300: c7df 56bd 806a 14bd f7ea 213d b6d0 c2bd
00000310: 6cdc c43c 03fc 833d 4660 4ebd cecf 51bd
00000320: cc2e 88bc c6a0 67bd e813 b73d 34ef 88bc
00000330: 565e 1dbd 68e4 d13d 4843 b0bd c509 033e
00000340: e69f 6e3d 595f 67bc de68 87bd 7cac 84bc
00000350: c0e7 973d b8d4 043d 32d0 dd3d deea f3bc
00000360: da7a 6a3d f224 c6bd 7677 34bd e774 15bc
00000370: ded9 e13d 041d b73c 2e0f de3d 6ca4 90bc
00000380: 94c4 8ebd f475 a4bd 0e71 2b3d f6a9 753d
00000390: f6e8 ebbd 5e8a fe3d 764c 933d 34e8 a13d
000003a0: 886a 003e 326b 563d 5d90 923c 9ef1 2c3d
000003b0: 206b fa3d 86d4 5f3d 9efb a53d 68a6 e33d
000003c0: 9f37 cdba f69b 653d a45f ebbd 02a1 b33d
000003d0: 3af0 4f3d 7ed2 61bd 5482 953c c83c 80bb
000003e0: 26a1 1fbd 52a4 933d 8447 84bd 6234 f73d
000003f0: 95dc 8d3c e013 e5bd 1476 f73c 6e33 6b3d
-0.005752728 -0.034219254 0.087319024 0.07610217 -0.082778536 0.077796735 -0.021958292 0.10299437
0.13022958 -0.06782268 0.035941172 0.064835645 -0.0017623003 0.12451659 0.06985636 0.09404825
-0.06483807 0.0795214 0.020230636 0.055547614 -0.012676215 0.06397561 0.086293295 -0.04533499
0.025293466 0.084279984 0.10127227 -0.10944852 0.073231995 0.00481328 0.0587132 -0.027184892
0.02831572 0.12032163 -0.08644767 -9.423436e-05 0.10427807 0.06650112 -0.10759629 0.114614695
-0.09783727 0.014885085 -0.0047352333 0.111823946 0.06604545 0.12540938 -0.07344623 0.04524413
0.06392593 -0.105649486 -0.06279044 -0.015893463 0.12290223 -0.0960567 -0.058766447 -0.06404744
0.11129846 -0.111986 0.053271566 -0.103298336 0.031897727 -0.01130605 -0.0934141 0.10187559
0.13108009 0.10116303 -0.06300543 -0.0036597557 0.1259854 0.039477743 -0.022353925 -0.05508694
0.11265181 -0.061293997 0.086230695 -0.09922312 -0.056057155 0.039150693 0.12646352 0.10903302
0.058885578 -0.04812282 0.01868138 -0.089028195 -0.0049698665 0.09534255 0.050400946 0.023489725
0.09362519 0.13354193 -0.102813005 -0.075841844 0.025767844 -0.023269335 0.029065069 0.01026079
0.017612848 0.0537227 -0.0380585 -0.09203747 -0.102913186 0.032617696 0.02345429 0.095877096
-0.02484133 0.039157845 0.07526088 -0.028901044 0.016729373 -0.08151238 -0.0687827 0.018794585
0.12107323 0.045169804 -0.03439517 0.07660313 -0.06962931 -0.06724079 -0.035973255 -0.009393087
-0.029766452 0.011156732 0.042142864 0.0032520632 0.09041322 -0.08266888 0.11695134 -0.00669396
0.09791188 -0.05665592 -0.03336249 -0.08787927 -0.06770124 0.06729809 0.12896602 -0.036537427
0.11589717 0.08604878 -0.10265003 0.066911764 0.12620075 -0.082861796 0.053060982 -0.08308273
0.019156646 0.05760805 0.016612697 -0.055145025 0.036384568 -0.06722897 0.08222397 0.10833043
-0.11361505 -0.020446967 0.0452068 -0.008034307 -0.103750944 0.105789244 -0.044485036 0.020352656
-0.029333277 0.08635747 -0.012490409 0.11307477 -0.05686388 -0.07060217 0.032961704 -0.058326494
-0.078209355 -0.08968035 0.06623493 0.121593446 0.0024529188 -0.027164014 0.05709714 -0.10643916
0.059865177 0.06329595 0.07603024 -0.058267556 -0.011376861 0.006577324 -0.10141905 0.05970109
0.08470687 0.08523795 -0.10067245 0.06345664 -0.10634156 -0.006350304 -0.032552548 -0.025945537
-0.052459504 -0.03623438 0.03953072 -0.09512465 0.024030887 0.06444552 -0.050384782 -0.05122357
-0.016623877 -0.05654981 0.08939344 -0.016715623 -0.038420044 0.10248643 -0.08606583 0.12796696
0.05825796 -0.014121854 -0.06611799 -0.016195528 0.0741725 0.032429427 0.10830726 -0.02977508
0.057246067 -0.096750155 -0.04405924 -0.00912211 0.11027883 0.022352703 0.10842739 -0.017656527
-0.06971088 -0.0803031 0.041855864 0.05997654 -0.11519043 0.12428735 0.07192318 0.07905617
0.12540638 0.052348323 0.017891103 0.04222261 0.12227464 0.054646038 0.08104633 0.11115724
-0.0015656835 0.05605694 -0.114928514 0.08770944 0.050766207 -0.05513238 0.018250622 -0.0039134957
-0.038972043 0.07209076 -0.06458953 0.12070538 0.017317096 -0.111854315 0.030207671 0.057422094

lstm.weight_hh_l0 f4 [256, 64]
00000000: 4cf7 d13d a04f 223d 6428 b4bd a0ea 45bc
00000010: 1e33 9cbd e8e2 acbc 0841 f4bd 4c41 5dbd
00000020: dc55 5bbd 48f5 ea3c a035 a63c 4006 e2bd
00000030: 0ccb 5dbd 7067 883c 0a2a ae3d a899 abbd
00000040: 2ae2 973d 38d6 ddbc 9c06 403d 9010 a6bd
00000050: 08e3 da3c a45c 453d 9e47 dd3d 5063 b03c
00000060: c005 7d3b 5e08 dcbd b404 07bd 0019 5c3a
00000070: 82b9 9a3d aeb5 dbbd 360a 963d 0869 ca3d
00000080: cc27 203d 3469 593d 32e2 f33d 2cda 97bd
00000090: b64a d33d 9203 893d c8fd d93d ecdc 713d
000000a0: 1464 483d b639 883d 58a9 d1bd fe21 f73d
000000b0: 5807 b53d 8c96 62bd 0ccc c83d 8003 d13a
000000c0: 4414 2f3d 8054 e1ba 12c8 c2bd 0cde e6bd
000000d0: 1e18 b2bd 0c74 82bd d038 193c cc43 7c3d
000000e0: 2845 56bd a2b7 f8bd 3831 e73d d067 57bc
000000f0: 74a3 53bd 346e 0bbd 34ff 023d b850 77bd
00000100: b862 583d de05 d1bd 4077 19bd 5405 053d
00000110: 44fe a93d 08b3 90bd 345a 8abd 68bb edbc
00000120: 3893 d23c b030 903c 880b 213d 68ef 403d
00000130: 80b3 0c3d dce8 1fbd e06e 863b 1e93 bcbd
00000140: 601e a13d e486 d1bd 6482 b8bd d025 9c3c
00000150: acfb 30bd a033 c33b 1052 363d dc1c f33d
00000160: e018 563c 6ca0 44bd d86b f5bc 5822 d43d
00000170: c858 fe3d 8080 e6bd e0c3 893c 623b e7bd
00000180: c080 133b 86ff 903d f6a5 c73d 947b a83d
00000190: 24a4 a3bd 001a c5bb 8ce4 923d d6e6 91bd
000001a0: 52b6 e6bd 06ed f2bd acd3 8abd 46ed b03d
000001b0: 2881 3ebd c418 563d d0d4 47bc fe64 c3bd
000001c0: 541f 43bd c020 b1bc 68f9 98bc a611 debd
000001d0: 442d 453d 187e f73d 509a be3d b0cb b13d
000001e0: 04b0 bebd 0ab4 92bd fe1f f8bd 40e9 b83d
000001f0: 002b 39ba eeb6 9dbd f68c 9d3d 5c92 a03d
00000200: 0253 ea3d 0e97 a0bd 109f 303c 2a09 bd3d
00000210: c0dc 663b c08b b0bc 1875 82bd 3250 87bd
00000220: 80b3 babd b693 c2bd 88d5 973d 0608 c7bd
00000230: 7452 733d f20a a0bd e205 98bd 7a14 a0bd
00000240: 740e 5cbd 686b f3bc 90a1 293c a0f8 c83b
00000250: 8452 bb3d a282 933d 342f a03d 7013 153c
00000260: 8c46 d53d 6e9b 84bd c879 903d 3cc2 373d
00000270: f203 f03d 00c0 453a 7473 163d 2ef1 d13d
00000280: ac5c 8f3d 2ca7 14bd 7455 50bd 0aa5 cf3d
00000290: 9aa9 88bd 98cd 84bd aa0a 97bd 6e26 f63d
000002a0: 90af ce3d feba 95bd d046 883c f6c3 c6bd
000002b0: d090 883d 70b2 eabd 3840 c63d 509e 783d
000002c0: 2a0f 97bd 00f0 ac3b 58f2 31bd 8e1c d93d
000002d0: 1cbf 21bd 54c1 74bd 14ef a83d 206f ac3c
000002e0: 540b 97bd 9cd8 18bd f421 83bd 0835 bb3c
000002f0: 461d cb3d c2c0 d1bd d874 153d 7a19 cebd
00000300: 36d3 ed3d 1073 d13d 925c b53d 1465 0a3d
00000310: 2a14 d6bd 32a3 c1bd 60e9 55bc 18f6 883c
00000320: 00af debb 409c bf3b 101c bdbd c61a 8cbd
00000330: fe79 a53d 869b b6bd b894 153d a8cc afbd
00000340: e811 d63d d095 07bc 401d 223c 148d 5f3d
00000350: 08fb f03c b48e 7abd 585e c53c b0fa 933d
00000360: f4be 3d3d 585d fabd ccd5 da3d 86c9 853d
00000370: 54fe 50bd f056 d3bd 3435 c43d 407b 80bb
00000380: 884e eabc 0020 2e3b 7cb1 4b3d 38da ca3c
00000390: ac91 3b3d 4266 b93d 3450 c63d 905a b6bd
000003a0: 8440 1cbd f011 ffbc c02e 653d 7010 16bd
000003b0: b6d2 d53d 50f3 f43d 360b c83d 90c8 dbbc
000003c0: 3c6e 29bd 9619 c63d d818 5e3d 309a bdbd
000003d0: 7263 9bbd e8bc cd3c c80b 83bc e09e c73b
000003e0: 70fa dcbc 78ae 893d 9c3c 17bd ec9e a03d
000003f0: 9808 943d b2d1 d2bd 7e67 eabd f67f c6bd
0.10252246 0.039626718 -0.087967664 -0.012079865 -0.07626937 -0.021104291 -0.11926466 -0.05401735
-0.05354868 0.028681412 0.020289242 -0.11036348 -0.05414872 0.016650885 0.08504112 -0.08378917
0.07416184 -0.027079687 0.046881303 -0.08108628 0.026719585 0.048184052 0.108046755 0.02153173
0.0038608164 -0.107437834 -0.03296347 0.0008396059 0.07554914 -0.10728012 0.07326166 0.09883314
0.039100453 0.053078845 0.11908378 -0.0741466 0.10316984 0.06690134 0.10644108 0.05904858
0.048923567 0.066516325 -0.10237378 0.1206703 0.08839291 -0.055319354 0.09804544 0.0015946478
0.042743936 -0.0017191321 -0.09510817 -0.11272821 -0.08696006 -0.063697904 0.009351924 0.061588094
-0.052312046 -0.121444 0.112886846 -0.013147309 -0.051669553 -0.034040645 0.031981662 -0.060379714
0.05282852 -0.10206197 -0.03746724 0.032475784 0.083004504 -0.070653975 -0.06755486 -0.029020026
0.025704965 0.017601341 0.039317638 0.047103316 0.034350872 -0.03904043 0.004102573 -0.09207748
0.07867122 -0.102308065 -0.09009245 0.019061 -0.043208763 0.005957082 0.044511855 0.11870739
0.013067454 -0.048004553 -0.02995865 0.10358113 0.124192774 -0.11254978 0.016817033 -0.11290623
0.002250716 0.07079987 0.097484514 0.08226696 -0.07990292 -0.0060150623 0.07172498 -0.071241066
-0.112652436 -0.11861615 -0.067786545 0.08639006 -0.04650989 0.052269712 -0.012196735 -0.09540747
-0.0476373 -0.021622062 -0.018673614 -0.1084321 0.04813887 0.12084597 0.093067765 0.086814284
-0.09310916 -0.07163246 -0.12115477 0.09028864 -0.00070635974 -0.07700907 0.07692902 0.07840416
0.11441614 -0.078413114 0.010780111 0.092302635 0.0035226792 -0.021551013 -0.0636999 -0.06607093
-0.09116268 -0.0950083 0.07413775 -0.09718327 0.059404805 -0.07814588 -0.07422997 -0.078164056
-0.05372472 -0.029714301 0.010353461 0.006133154 0.09146598 0.072026506 0.07821503 0.009098873
0.104138464 -0.06474958 0.07054478 0.04486297 0.117195025 0.0007543564 0.0367312 0.102510795
0.07000098 -0.03629224 -0.050862744 0.101389006 -0.06672974 -0.064845264 -0.07375081 0.12019049
0.1009208 -0.073110566 0.016635329 -0.09705345 0.06668246 -0.114598155 0.096802175 0.060697854
-0.07375939 0.0052776337 -0.043444008 0.106011495 -0.039488897 -0.059754685 0.082487255 0.021049082
-0.073752075 -0.03731595 -0.064029604 0.022852436 0.09917693 -0.10241844 0.036488384 -0.10063453
0.11612551 0.102270246 0.08855547 0.0337878 -0.10453065 -0.09454955 -0.013056129 0.01671891
-0.006795764 0.005847484 -0.09233868 -0.06841044 0.08079909 -0.089163825 0.036518782 -0.08583957
0.10452634 -0.008275464 0.009894669 0.054577902 0.029416576 -0.06117125 0.024092838 0.07225549
0.046324685 -0.12224835 0.1068531 0.06532578 -0.051023796 -0.103193164 0.0958046 -0.0039209425
-0.0286019 0.0026569366 0.04972981 0.024762258 0.04579322 0.09052707 0.09683266 -0.08903992
-0.038147464 -0.031136483 0.055952787 -0.03663677 0.104405805 0.11960471 0.09767763 -0.026829034
-0.041364893 0.09672849 0.05422291 -0.092579246 -0.07587327 0.025114492 -0.015996829 0.0060919374
-0.026974887 0.067227304 -0.036923036 0.07842812 0.07228202 -0.102939025 -0.11445521 -0.09692375

lstm.bias_ih_l0 f4 [256]
00000000: 29d2 ebbc afb8 a9bd b096 8c3c 6ed8 d1bd
00000010: 8284 01bd 7042 da3d 7923 983d b3ab e73c
00000020: 0a3c a03d 04ee 843d e682 d23c d471 27bd
00000030: 656f b0bd e9c0 b1bc 204c dcbb b673 b5bd
00000040: c828 973c 47ab 8d3d f46f 103d c644 45bd
00000050: 07b1 9f3c e6fe 623d 0392 aebd acff 58bd
00000060: b751 51bd be6c 303d d28e c6bd be42 a53c
00000070: 6a22 8dbd 43a4 073e 50cf 123d 107c c1bd
00000080: 480d 34bd 7ace 94bd 0e96 e6bd b5b8 063e
00000090: 8a77 053d 434b adbd c8fd 57bd 3067 5bbc
000000a0: 80f3 c9bb c070 89bc 0ca8 b23c 567e 11bd
000000b0: 6e3e efbd 58d8 34bd 74fa 023e d454 e8bd
000000c0: dcad 4d3d 061b 013e 5bf3 a4bd 00cb b5bd
000000d0: fb11 bf3c 2c1c 59bd ae8c afbd 6dad dd3d
000000e0: 9fb1 bdbb ecb7 12bb ccd1 6dbd 4edf f8bd
000000f0: 66c1 b6bd 7e08 ebbd f7ed bd3d 6c3d 0d3e
00000100: 9c35 c23d 282b 103d 98df 1e3d c888 883c
00000110: 94e7 6d3d 0ab2 ed3d 2474 64bd c448 37bd
00000120: c824 ef3d 804f 3bbc 70aa 7bbd c017 c0bb
00000130: 0afa d53d 12c6 95bd 1633 d03d e2e6 e3bd
00000140: 9ce8 82bd f47a cdbd 028c dc3d 4493 673d
00000150: 0021 5f3b 122f b2bd 2e72 d33d a0b0 a23c
00000160: 08eb 763d ec4f 88bd d863 323d 60d2 cabc
00000170: d420 5dbd 981d f1bc 6aa1 c73d 426e acbd
00000180: 626b cd3d 8cf4 3fbd 604d 6dbd 88d5 d9bd
00000190: 40d4 a8bb 2817 43bd b8c5 b6bc a622 973d
000001a0: 00f0 a6b9 02df e5bd b0aa 773c 1801 9abc
000001b0: 886b 9cbd 6ae1 8c3d 8000 cabb ba8f ff3d
000001c0: 80c1 c2bc fcc9 88bd 64f1 ec3d d4a5 713d
000001d0: 20f4 39bd 3065 17bc f8b8 323d 9e82 e03d
000001e0: 40de 70bd 54ef 3cbd e86d 4fbd e431 6dbd
000001f0: 2ed5 dc3d e89f e93d 90b4 08bd 44a1 5e3d
00000200: f549 fe3c 90e4 ea3c c841 57bd dc7d b4bd
00000210: c462 343d dc0d cbbd 438c 663d 903e 37bc
00000220: e462 fb3d b1e8 823d c356 5ebd 98e5 f1bd
00000230: 29be fe3d 05d3 2cbd 1657 863d f251 fcbd
00000240: c882 163d 88ea a3bc 3e71 bf3d c052 203c
00000250: 866d 17bd 0d5c 00bb 40ea 763c 0420 91bd
00000260: 2473 0bbd 4844 fb3d 106e d8bd 04fc 653d
00000270: 0420 633d 713b 57bb e0e4 a93b 20cf 81bd
00000280: c88f 80bc 46a9 71bd 10e9 fbbc 605a ac3c
00000290: ed46 8d3d 7a02 afbd f81e e4bd 4e66 e73d
000002a0: 505a b03d 18cb b33d 3016 033d 26de 84bd
000002b0: 80ee ddba 78cd a7bd 9d79 e03d 18bb 903d
000002c0: 98c7 b13c 8c2f c13c 8499 9f3d 6833 ba3c
000002d0: 4254 a4bd ac86 c1bd e018 f43c b0ce 633c
000002e0: dc8f f13d 07c3 003e 804b f2bd 62cb c63d
000002f0: 2c2f 83bd f6f9 c93d 1470 1ebd f972 adbd
00000300: c6b5 803d d31e 82bc 4826 e5bd 8033 1fbd
00000310: c099 003e 301e 953c 04d1 f83d b41c df3d
00000320: 8cad d53d 79c8 bbbd 070d 9e3d 4079 1bbb
00000330: a60d ab3d 2f07 cbbd 3251 cabd 1f81 ccbb
00000340: 81e4 98bb 1bcc b8bd d5d2 dc3d 6ae6 e2bd
00000350: 1a0f ef3d fcb8 bdbd bae1 f3bd 2a5c f5bd
00000360: 8498 7b3d 4a3e 6d3b f664 973d 949c fb3d
00000370: 80d4 943c 6330 77bd e58e 893d 8ebc fd3d
00000380: aa04 3f3d d810 983d b6be 863d 4894 033e
00000390: 8082 2e3d 2876 f23d e273 433d 5954 c33d
000003a0: f0e4 10bc ac76 b2bd d878 433d f418 61bd
000003b0: 92f8 c5bd 5ae2 943d 7a5c db3d a8b6 263d
000003c0: d402 1dbd 06b5 be3d dcc9 b13d e17f 533c
000003d0: 54cf fbbd 14b4 a13d 78ae 0fbd a5e6 683d
000003e0: 605f cb3d 5405 73bd 74f1 6dbd 304c 21bc
000003f0: fbe1 853d 9d54 adbd 1b76 30bd 5bfe b1bd
-0.028786736 -0.08287179 0.017161697 -0.10246359 -0.03162051 0.10657203 0.07428641 0.028280115
0.078239515 0.064907104 0.025697183 -0.04088004 -0.08614997 -0.021698432 -0.006722942 -0.08859961
0.018452063 0.06917434 0.035263017 -0.04816129 0.019493593 0.05541887 -0.08523943 -0.052978203
-0.05110332 0.043072455 -0.096952096 0.020173427 -0.068913296 0.13246255 0.03584224 -0.09447491
-0.04395798 -0.07265945 -0.112590894 0.13156398 0.032584704 -0.08461621 -0.05273226 -0.013391301
-0.0061630607 -0.016777396 0.021808647 -0.035520874 -0.116818294 -0.044151634 0.12790853 -0.11344305
0.050214633 0.12607965 -0.08054229 -0.0887661 0.023324003 -0.053005382 -0.085717544 0.10824094
-0.0057889964 -0.0022387458 -0.058061406 -0.12151967 -0.089236066 -0.11476229 0.09273904 0.13792962
0.094828814 0.035197407 0.038787454 0.016666785 0.05808218 0.11606224 -0.055774823 -0.04474713
0.11676937 -0.0114325285 -0.06144184 -0.005862206 0.10448082 -0.073131695 0.10165994 -0.11128022
-0.06392023 -0.10033217 0.10768892 0.056536928 0.003404677 -0.08700384 0.103245124 0.019859612
0.060282737 -0.06655869 0.04355225 -0.024758518 -0.053986385 -0.029433057 0.09747584 -0.084194675
0.10030247 -0.046864077 -0.05793512 -0.10636431 -0.0051522553 -0.047629505 -0.022311077 0.073796555
-0.000318408 -0.11224176 0.015116379 -0.01879935 -0.076376975 0.06878932 -0.0061646104 0.124785855
-0.023773909 -0.066791505 0.11569479 0.058996037 -0.04539883 -0.009240434 0.04363343 0.10962413
-0.058805704 -0.04612668 -0.050641924 -0.057908908 0.10782848 0.11407453 -0.033375323 0.054353014
0.031041125 0.02867344 -0.05255297 -0.08813068 0.044039503 -0.09914753 0.056286108 -0.01118435
0.12274721 0.063920386 -0.05428196 -0.1181137 0.12438614 -0.04219343 0.06559579 -0.12320317
0.036745816 -0.020009294 0.09347771 0.009785354 -0.036969684 -0.0019586117 0.015070498 -0.070861846
-0.034045354 0.12268883 -0.10567868 0.056148544 0.055450454 -0.0032841826 0.0051847547 -0.06338334
-0.01569356 -0.058999322 -0.030750781 0.021039188 0.06898294 -0.08545394 -0.11138719 0.1129881
0.08610976 0.087789714 0.03200358 -0.06487684 -0.001693204 -0.08193487 0.10960696 0.07066935
0.021701619 0.023582242 0.07792953 0.02272959 -0.080238834 -0.09449515 0.029797018 0.013904259
0.11795017 0.12574397 -0.11830807 0.09706761 -0.06405482 0.098621294 -0.038681105 -0.08469195
0.062846705 -0.015883839 -0.11188942 -0.038867474 0.12558651 0.018202871 0.121492416 0.108941466
0.10433492 -0.091690965 0.077173285 -0.0023723394 0.083522126 -0.099134795 -0.09878768 -0.0062409784
-0.0046659117 -0.09023305 0.107824005 -0.11079104 0.11672802 -0.092637986 -0.11908288 -0.119804695
0.061424747 0.0036200457 0.07392304 0.12285724 0.018167734 -0.06034888 0.06716708 0.123894796
0.046635307 0.07425088 0.06579344 0.12849534 0.042604923 0.11838943 0.047717936 0.095375724
-0.008843645 -0.08714041 0.047722667 -0.054955438 -0.09666552 0.07269736 0.10710998 0.04070154
-0.038332775 0.09311871 0.0868108 0.012908907 -0.12295404 0.07895675 -0.035078496 0.056860585
0.09930301 -0.059331253 -0.058091596 -0.009844825 0.06537243 -0.08463404 -0.043081384 -0.086910926

lstm.bias_hh_l0 f4 [256]
00000000: 6241 033d 1fd4 d93d 2c41 cb3d 5cbe 0dbd
00000010: e2b8 b13d 00e8 8c38 bfd4 b1ba 43aa cf3d
00000020: 5471 2e3d d86b bf3d e526 06bd 5654 bd3d
00000030: 5b6a 9b3d 4858 4ebd 4e35 aebd 1c79 e3bd
00000040: 9c73 323d 9b5b d03d c7c6 c43c 8790 d6bc
00000050: c8c4 093d 9406 f93d c97d 693d 4647 cdbc
00000060: 365e 96bd c0f4 7fbd e0a5 92bc 69ce c73d
00000070: 5859 133d 77a3 ff3d 3697 cd3d 28b7 fbbc
00000080: 48ad bf3d c469 e6bd d7ec 7cbd bc31 cbbc
00000090: e6a5 513d fda6 bebd 30ca 4b3d e0b1 813d
000000a0: b634 b33d 7c37 7ebd bbec 1f3d 299c 1d3b
000000b0: a4ac ec3d 2695 ffbd e45b 0ebd b641 dabd
000000c0: 229a d1bd 4a9e 73bc 920b cabb a5cb 533d
000000d0: fe87 9bbd 6064 133d b4f3 fdbd 9d07 a7bd
000000e0: 71e0 70bc 0f3b 77bd d003 9c3d 9aca f4bd
000000f0: 2749 213d 34e3 2ebd 6ba5 9c3d a027 c43d
00000100: e019 e53d 8ebe ff3d 00ee 063a 58bd 5abd
00000110: d85d 30bd fc04 11bd c846 5e3d c6d1 923d
00000120: 4824 0e3d 7a5d 873d 86db ed3d b48a 23bd
00000130: c2a1 e3bd a010 71bc dc2e b4bd 3449 e7bd
00000140: ac0c f53d 8257 b13d 58ee da3d e0de dd3b
00000150: 3ad9 96bd f881 9fbc 6461 69bd 787d 04bd
00000160: a891 f23c 4ce5 b73d 6cf3 e9bd f2be b53d
00000170: b0df 8e3d e6fe 9e3d 885c 95bd c4c2 173d
00000180: 06cf f23d f070 7dbc b05a 933c 6056 843c
00000190: a24d f13d ccf5 483d dc11 7a3d 20d2 87bb
000001a0: d4aa 2f3d 98d4 3fbd ee9f d13d 5ab9 893d
000001b0: 22cf 83bd b8ae 14bd f833 a9bc 18b3 52bd
000001c0: 86a0 e7bd bcac 38bd dead f83d 4072 293b
000001d0: a0f2 11bd c079 4dbc 7829 cdbd 2005 e63d
000001e0: 94e9 dc3d cac9 fdbd c4e9 1ebd 1cc4 283d
000001f0: 9083 593c 2a60 a43d 405e bfbb e093 c03c
00000200: 9af0 09bd 7054 b0bd 28ca b7bc 80b6 eb3d
00000210: d87b 60bd 8438 653d a06a 9b3d ba12 f6bd
00000220: e435 8dbd 0b8c fd3d 1aff cfbc 6446 4bbd
00000230: 8bb3 8ebd 5e9d dd3c 4e48 f73d e81b f93d
00000240: 9c41 d4bd 84e5 313d 3654 883c d0ac 603c
00000250: 3c82 883a f5d3 243d 8718 753d b09d 173c
00000260: 94b7 293d 08d7 71bd c004 2c3d 9860 db3c
00000270: 501d f83c 66e9 53bd ca8a e33d 5944 e93d
00000280: c63a b33d 9c20 01be b81c 093d 3a57 d7bd
00000290: 34cb 493d 32ea a6bd a438 02bd 0100 eb3a
000002a0: 0283 843d 9cd4 c7bd e533 babd 60b8 76bd
000002b0: baa1 efbd d45d 003d a233 68bd 6c40 ad3d
000002c0: 0ecb c33d 2b5c 14bd a824 e43d 905d 913d
000002d0: 3394 f0bd 083f 1cbd 18a3 e93d 6854 91bd
000002e0: 3332 6fbc 322d 9dbc 5cb3 54bd c0ed d4bc
000002f0: c8c0 9abd a058 dd3d 2001 ab3b 3d10 b8bd
00000300: 6c1b 6d3d 532a b8bd 5cef 5bbd 8046 8bbd
00000310: 168c 803d 5865 2f3d 70ca 983d db0d 323d
00000320: caa4 863d 8b5e 85bd 69e8 d9bd 104c a0bd
00000330: d89f 27bc 594e d43c 4c4d 933d d7f1 d13c
00000340: a921 f93d 75e2 8bbd 8296 38bd 58c9 a3bc
00000350: 8abf 62bd 78af cbbc c6cb b2bd 2c34 4ebd
00000360: 15f9 493c 5c9a a8bc 8610 adbd 0470 d93d
00000370: ba6c f93d be70 b13d c450 b8bd 5d79 053e
00000380: 7b9e 7bbd f828 aabd 2b51 debd 3a85 eb3d
00000390: 9872 fc3d 0694 6e3d 9bd3 623d c02b 723d
000003a0: ca8e 813d 7c8d 023d 1a7b ecbd 585f b5bd
000003b0: 3835 fb3c 1066 31bc 0789 3f3d d0d0 87bc
000003c0: 4847 1cbd 1842 e33c 0658 9c3d 1e93 6d3d
000003d0: 20cc ddbc 40bf d93c 3828 67bd 7593 e2bd
000003e0: 3a06 e4ba 9124 593c 1022 31bc 70b3 c8bc
000003f0: fd79 b03d 8e12 6a3d 7c3e b23d f461 9a3d
0.032044776 0.10636162 0.0992454 -0.03460537 0.08677842 6.7189336e-05 -0.0013567432 0.10139897
0.042588547 0.093467414 -0.032751936 0.092446014 0.07588645 -0.05037716 -0.08506261 -0.11107084
0.043567285 0.10173722 0.024020566 -0.026191963 0.03363493 0.12159458 0.057004724 -0.0250584
-0.07342188 -0.06248927 -0.017901361 0.097561665 0.035973877 0.1248235 0.10038607 -0.030726984
0.09359223 -0.11250642 -0.061749306 -0.024803989 0.051183604 -0.09309194 0.049753368 0.06332755
0.08750288 -0.062064633 0.039044123 0.0024049378 0.11556366 -0.1247962 -0.034755602 -0.106570646
-0.102344766 -0.014869282 -0.00616593 0.051707882 -0.07594298 0.035984397 -0.12399998 -0.08155749
-0.0147019485 -0.060359057 0.07617915 -0.11952706 0.039376404 -0.042697147 0.076487385 0.0957787
0.11186576 0.12487517 0.0005147159 -0.05340323 -0.043058246 -0.035405144 0.05426672 0.07168917
0.03470257 0.06609626 0.116141364 -0.0399272 -0.11114837 -0.014713436 -0.08798 -0.11293259
0.119653076 0.08659269 0.10689992 0.0067709535 -0.073656514 -0.019471154 -0.056977645 -0.03234622
0.02961047 0.08979282 -0.11423382 0.088743106 0.06976259 0.07763462 -0.072930396 0.037050977
0.11855893 -0.015468821 0.01798758 0.016154468 0.117823854 0.049062535 0.06105219 -0.004144922
0.042887524 -0.046833605 0.10235582 0.06724806 -0.06435992 -0.036299437 -0.020654663 -0.05144033
-0.11309914 -0.045086607 0.121425375 0.0025855452 -0.035631776 -0.0125412345 -0.10017675 0.11231446
0.10786739 -0.12392004 -0.038797155 0.04120265 0.013275996 0.08026154 -0.005840093 0.023508012
-0.03367672 -0.08609855 -0.022435263 0.115094185 -0.054805607 0.0559621 0.075886965 -0.120152906
-0.068950444 0.12380227 -0.025390197 -0.049627677 -0.06967839 0.027052578 0.12074338 0.12163526
-0.103640765 0.043431774 0.016641717 0.013713077 0.001041479 0.0402412 0.059837844 0.009253904
0.04143484 -0.05904296 0.041996717 0.026779458 0.030287415 -0.051736258 0.11110456 0.113899894
0.087514445 -0.12610096 0.033474654 -0.10514684 0.049266055 -0.08150138 -0.031792298 0.0017929078
0.064703 -0.09757349 -0.09091929 -0.060234427 -0.11700769 0.03133948 -0.056689866 0.08459553
0.09560214 -0.03622071 0.11139804 0.07097924 -0.11747017 -0.03814605 0.11408061 -0.07096177
-0.014599371 -0.01918659 -0.051928863 -0.025992274 -0.07556301 0.108079195 0.00521864 -0.08987472
0.05788748 -0.08992448 -0.053695068 -0.06800556 0.06276719 0.04282126 0.07460487 0.043470245
0.065744 -0.06512173 -0.10640032 -0.07827008 -0.010230981 0.025916265 0.071924776 0.025628014
0.12164623 -0.068303026 -0.04506541 -0.01999347 -0.055358447 -0.024863943 -0.08730273 -0.050342724
0.012327452 -0.020581417 -0.08450417 0.106170684 0.12178941 0.08664082 -0.0899978 0.13034578
-0.061430436 -0.083085954 -0.10855325 0.1150002 0.123265445 0.058246635 0.055377584 0.059123755
0.06326063 0.03187321 -0.11546917 -0.08856076 0.030665025 -0.010827556 0.04676154 -0.016579062
-0.038153917 0.027741477 0.07633977 0.05800163 -0.027074873 0.026580453 -0.05643484 -0.110632814
-0.0017396875 0.013253347 -0.010811344 -0.024499625 0.086170174 0.0571466 0.08703324 0.07538214

fc.weight f4 [2, 64]
00000000: 7630 8740 f288 5740 b268 fe3d 07f6 8040
00000010: 14b0 82c0 1246 ca3d 29b2 84c0 0892 633d
00000020: e079 573d 4230 513d 2a4b 83c0 a2d0 f63d
00000030: fef1 8540 c50b 81c0 0052 9939 bac1 503d
00000040: 6c26 83c0 dc4b 81c0 df17 6740 064b 86c0
00000050: 5835 84c0 965d 583f b829 8340 acd2 dabc
00000060: dc08 7a33 6fb8 8c3f f073 c1bd 8d97 31bd
00000070: ee86 a7bd 9325 82c0 d674 8340 6789 86c0
00000080: d75c 85c0 22b4 82c0 ab8c 83c0 f5e5 84c0
00000090: 19cc 7f40 81fc e43d 16b3 3bc0 211d 38c0
000000a0: e0f1 d53c d649 9a3d c39f 80c0 93c0 85c0
000000b0: 2cf0 58bd cca8 ec3d 99f1 8540 4007 47bd
000000c0: 983c 783d 17d6 8340 ef35 8340 c723 8440
000000d0: 93e6 8bc0 349b 1abd 0012 ec39 c80c bdbd
000000e0: a57f 8240 bff9 8440 54dc efbd d845 0a3d
000000f0: 5117 c83d 9d99 9bbd 27b4 ecbd b687 8940
00000100: 7a66 4041 b2ca 77be 96ff e0bd fef1 3f41
00000110: 58be 41c1 a0f7 4e3c 60d1 41c1 c8e6 f23c
00000120: 608f 51bd 5541 cb3d 66b7 40c1 1011 fe3d
00000130: 8a78 4141 c9c8 41c1 5089 8d3d 8feb e9bd
00000140: 10c9 40c1 8e8d 40c1 2981 b2c2 f472 3fc1
00000150: 7678 40c1 6ab5 e540 0ca8 4141 bcbd 7fbd
00000160: 99ba 1041 52e3 c2c2 906a cd3c 320b a6bd
00000170: f80e dd3d 6ba2 40c1 5000 4041 ebeb 3fc1
00000180: 6651 3fc1 7789 41c1 668d 41c1 8c68 40c1
00000190: ea1f 4141 da49 763c 06d9 90c2 36d7 90c2
000001a0: d2a5 9d3d e00b c5bb fd9b 40c1 8e5e 40c1
000001b0: 7048 60bc d002 a03d 8a4a 4041 1047 7bbc
000001c0: 9c9e e1bd 2474 4141 776a 4141 642b 4041
000001d0: 6da8 41c1 14ac d3bd 780a 0ebd 973d 2abc
000001e0: fe30 4041 c08a 4041 42bb be3d 3c6b 543d
000001f0: 8264 023d f8f2 70bd 5fb4 c23c cf9c 4241
4.2246656 3.3677335 0.12422313 4.0300326 -4.083994 0.09876646 -4.146748 0.055559188
0.052606463 0.051071413 -4.1029253 0.12051512 4.18579 -4.0326867 0.0002924353 0.050966002
-4.09844 -4.04051 3.610832 -4.196658 -4.1315117 0.845178 4.0988426 -0.026711784
5.821572e-08 1.0993785 -0.094459414 -0.04335742 -0.08180033 -4.0670867 4.108012 -4.2042727
-4.167583 -4.084489 -4.1109214 -4.153071 3.9968321 0.11180974 -2.9328055 -2.876778
0.026116312 0.07533614 -4.019502 -4.1797576 -0.05296342 0.11555633 4.185742 -0.0485909
0.06060466 4.119884 4.1003337 4.1293674 -4.3718963 -0.03774567 0.0004502684 -0.092309535
4.0780816 4.1554866 -0.11711946 0.033758014 0.09770072 -0.07597659 -0.11557799 4.2978163
12.025019 -0.24198416 -0.10986249 11.99658 -12.108971 0.012632281 -12.113617 0.02965106
-0.051162124 0.099245705 -12.044775 0.12405598 12.0919285 -12.11152 0.06910956 -0.11421882
-12.049088 -12.034559 -89.252266 -11.965565 -12.029409 7.1783953 12.103527 -0.062436804
9.045556 -97.443985 0.025075227 -0.08107604 0.10793871 -12.039653 12.000076 -11.995097
-11.957373 -12.096061 -12.097021 -12.025524 12.0702915 0.015032256 -72.423874 -72.420334
0.07697643 -0.0060133785 -12.038083 -12.023085 -0.013689145 0.078130364 12.018198 -0.015336767
-0.110165805 12.090855 12.088492 12.010593 -12.10362 -0.10335556 -0.034677953 -0.010390661
12.011961 12.0338745 0.0931306 0.05186008 0.031834133 -0.058825463 0.023767648 12.163283

fc.bias f4 [2]
00000000: cf16 7e40 7790 3f41
3.9701421 11.97277
