lstm_model.pth (torch, 655843 bytes, 6 tensors)

lstm.weight_ih_l0 f4 [512, 189]
00000000: fb28 b53d 91c0 a93d 7136 9abd 665a e43c
00000010: a051 4d3d 81e4 01bd 3d39 b0bd 9a19 983d
00000020: 6d85 773d 92be 2a3d cf22 b2bd 6c9e 623d
00000030: d11e 08bd c47f 923b 403f e2bc 2e33 a7ba
00000040: 94eb 2d3d e8f8 903d 89f4 813d 176c 23bb
00000050: 4173 5f3c cc09 6ebd b463 923c 1cc4 7b3b
00000060: 063e 4d3d ffb3 8f3b 58da a9bd 8c3f c3bb
00000070: db0a 98bc 8cc4 813b bc4b b4bc fd7f bebc
00000080: f3aa a5bd 61f2 a3bd c8a9 09bb 7ecf 9dbc
00000090: 2ab3 a2bd 735a 813d b6e3 2d3d 2550 213d
000000a0: ccb4 74bd 3df4 513d c48f a73d de2d 85bd
000000b0: 0800 7a3d 002b 2cbd b677 a2bd 6999 cf3c
000000c0: c5d6 833d cd5b 65bd 03eb a3bc dffa 863d
000000d0: b90e 5bbd 5670 583d f7c1 d23c 85a3 a23d
000000e0: 6598 d43a 9000 8dbd 4e28 a6bd 7d1b a13d
000000f0: ceef 33bd 04a4 633c c853 8e3d 66c9 97bb
00000100: 57d5 b7bb f8ce 8fbd 6a4c abbd f655 3abd
00000110: 632f ae3c 4122 cebc e81b 7c3d f74c a6bd
00000120: cab9 01bd 0f9f 82bd 7898 41bd c3fb d4b7
00000130: 483c c93c 7e0b bebc 3486 72bd 6993 13bd
00000140: db7a b5bc c5e0 743d 82cd b6bd 420d 84bd
00000150: 4ea5 92bc f772 713c 055e b53c af34 a5bd
00000160: 752e 403d 51c2 863d 7cde 1abc 492e 903c
00000170: a09f adbd c62c 0f3c ba29 a93d 0aac 373d
00000180: 3e32 a4ba 92f7 b9bd 8903 7bbc 7276 b4bd
00000190: 45e2 df3c 97c6 8dbd ad9d 983c 5287 643d
000001a0: 8801 99bd 6fdf a2bd 4dc9 46bd 6691 163d
000001b0: e64a 2ebc a5bc 03bd 25ae 953d 53ed 863b
000001c0: 51f0 e4bb 379c a23d 5013 02bc 562e 993d
000001d0: a1e2 1f3d 956a bdbd be7e debb 2a8b 92bd
000001e0: 513f 773d e960 63bd 2eec 693c 3ebb 9dbd
000001f0: 8e3d 403c 0d64 bdbd 75ee 86bd dae6 d9bb
00000200: 54e9 853d 8f1c 103d 6975 793b 8fa6 aebd
00000210: d554 fcbc b6ef ed3c ced6 a0bc a34d 84bd
00000220: 671a b0bd 6a34 a2bc 79b5 d7bb 4dc6 9abc
00000230: 5116 a0bd 15b6 01bc 413a 6f3d 479a 483d
00000240: d51a 7abc 77e8 863c 927d 8abd 684c f73c
00000250: 194f 7e3d fc5e d53b 7ddd 93bd cb60 893d
00000260: 1913 673d 97a0 393d c9fe 3a3d 3e03 993c
00000270: e420 bbbc 585f 683d 6eab 173d 71bb 873d
00000280: 2a30 65bd f0f0 633d 7f66 cdbc eaab 033d
00000290: efc9 98bd 0f7d babd 7027 9e3d 19d4 82bd
000002a0: be01 0abd 35d0 9e3d e1aa 643c e512 5d3d
000002b0: 6ed4 cd3b d770 b939 2074 ab3c 19ee b7bd
000002c0: 7d86 e3bc 8ca9 d0bc 38b1 f53c a0a4 223d
000002d0: ca16 903d d000 7b3d e02e 083d 5fa3 96bd
000002e0: 8ee3 9f3d f49c 0d3c 2ae6 dbbc bcda 19bd
000002f0: 793f babd c144 af3a 6711 723d 2d42 8b3d
00000300: 078d 2c3d 9a57 bc3c aca8 f3bc ec27 b23c
00000310: 5abf 4c3d 77ad 823d 8c4d 44bd 8657 57bd
00000320: 52c4 ff3c cadf 3f3d 52a0 49bc e353 8ebd
00000330: c94a 2fbd d108 f83c 58ad e539 1368 d73c
00000340: 82b5 113d 793a 563d 6040 bc3c e081 c4bb
00000350: d77d 183d 8975 243d f154 0f3d d15c a03d
00000360: 181e 1c3d aff6 883c efb0 a4bd fb2f 87bd
00000370: bcdd 5d3c 97e7 76bd 821e a93d fd06 dabc
00000380: 60cd 1fbd cb79 a2bd f62b 053d 6189 0fbc
00000390: 3c8f a9bd 9a3a b1bc 5c50 aa3c 2624 a8bd
000003a0: 854f 2cbd 7ee4 e63c 7e24 c43c ff4b 90bd
000003b0: 5c02 e0b9 8d3d 5b3d c539 f7bb 6c31 af3d
000003c0: acc7 7c3c 9144 6c3d e91b 84bd 1a50 b1bc
000003d0: b153 57bd 0a60 5e3d 1103 8c3d 962d 463d
000003e0: 6117 cabc 856f 533d 959d 92bb d458 9d3d
000003f0: dd25 89bc 34d6 86bd b848 313c 9c56 1cbd
0.08845707 0.08288682 -0.07529915 0.027875137 0.05012667 -0.03171206 -0.08604667 0.07426758
0.06042998 0.04168565 -0.086980455 0.055326864 -0.033232514 0.0044707973 -0.02761805 -0.0012756342
0.042460993 0.07078725 0.063454695 -0.0024936253 0.0136383185 -0.05811481 0.017869808 0.003841645
0.05010798 0.004385471 -0.08293599 -0.005958503 -0.018559864 0.003960198 -0.02200877 -0.023254389
-0.080892466 -0.080052145 -0.0021005739 -0.019263979 -0.07944329 0.0631608 0.04245349 0.039383072
-0.059742734 0.051258314 0.08181718 -0.06502889 0.061035186 -0.042033195 -0.07932989 0.025341706
0.064374484 -0.05599575 -0.020009523 0.065908186 -0.053480837 0.052841507 0.025727255 0.07941345
0.0016219734 -0.06884873 -0.08113156 0.07866571 -0.043929867 0.013894085 0.06949574 -0.004632163
-0.005610149 -0.07021898 -0.08364184 -0.045492135 0.02126283 -0.025162818 0.06155005 -0.08120149
-0.031671323 -0.06377994 -0.047264546 -2.5389605e-05 0.024564877 -0.02319884 -0.059210017 -0.036029253
-0.022153309 0.05978467 -0.08925916 -0.06447841 -0.017901089 0.014736882 0.022139559 -0.08066689
0.046919305 0.06580032 -0.0094524585 0.017600195 -0.08477712 0.008738702 0.08259912 0.044841804
-0.001252718 -0.090804234 -0.015320667 -0.08811654 0.027329573 -0.06922644 0.018629873 0.055793114
-0.07470995 -0.07952773 -0.04853182 0.036759757 -0.010637974 -0.032162327 0.07308606 0.0041176467
-0.0069866558 0.07939952 -0.007939175 0.07479541 0.03903449 -0.092488445 -0.006790011 -0.0715545
0.060363118 -0.055512343 0.014277501 -0.07701729 0.011733426 -0.09247599 -0.06588451 -0.006649834
0.065386444 0.035183486 0.0038064367 -0.08527862 -0.03080217 0.029044967 -0.019633677 -0.064601205
-0.08598786 -0.019800384 -0.0065829125 -0.018893385 -0.078167565 -0.007916947 0.058405165 0.048975255
-0.015265186 0.01646827 -0.06762232 0.0301878 0.062087152 0.006511567 -0.0721998 0.06707915
0.056414697 0.045319166 0.04565314 0.018678304 -0.022842832 0.056731552 0.037028722 0.066275485
-0.055954136 0.055649698 -0.025073288 0.032146372 -0.07460391 -0.09105884 0.07722366 -0.06388111
-0.033693068 0.07754556 0.013956756 0.053973097 0.006281427 0.00035370022 0.020929396 -0.089809604
-0.02777409 -0.025471471 0.029991731 0.03970778 0.07035597 0.06128007 0.03324783 -0.07355379
0.078070745 0.008643378 -0.02684315 -0.037562117 -0.09094138 0.0013371931 0.059098627 0.067997314
0.04212668 0.02299099 -0.029743515 0.021747552 0.049987175 0.06380742 -0.047925517 -0.052573703
0.031221543 0.04684428 -0.01230629 -0.06949594 -0.04279593 0.030277641 0.00043807435 0.026294744
0.03557349 0.052301858 0.022979915 -0.0059969276 0.037229385 0.040151153 0.034993116 0.07830203
0.038114637 0.01671919 -0.0804156 -0.066009484 0.013541635 -0.060279455 0.08257772 -0.02661466
-0.03901422 -0.079333864 0.032512628 -0.008760781 -0.08279273 -0.021634389 0.020790271 -0.0821002
-0.042068023 0.028185125 0.023943182 -0.07045745 -0.00042726367 0.053525496 -0.0075447285 0.08554348
0.015428465 0.057682578 -0.06450636 -0.02164464 -0.05257005 0.05429081 0.06836522 0.048383318
-0.024669351 0.051620025 -0.0044743516 0.07682958 -0.016741687 -0.06583825 0.01082056 -0.038168535

lstm.weight_hh_l0 f4 [512, 128]
00000000: a3a2 a4bd f65f 0cbc 3e73 213d 61a2 0d3d
00000010: 8e65 59bd 5e70 a23d bc9e 883d 6512 9abd
00000020: 419a e0bc b01f 933c 3203 2ebb 88bb ed3b
00000030: 5213 293d a541 c7bc 4c54 593d f745 77bc
00000040: 19b6 b4bd 708f c9bc 6118 34bc 3869 d43c
00000050: bf9c 3f3c af79 8c3c 2225 9fbd 9352 adbd
00000060: 1eea 70bd 684e 38bb 4889 043d f521 a23d
00000070: 6480 8fbd dcbf f2bc 2fda 18bc 8d08 1a3d
00000080: 23e4 4bbd d9c8 92bd 1b9b 51bc 107b b33d
00000090: 5248 033d e588 0abd 53fc c6bb a3f2 b13d
000000a0: 6ecf b4bc 33c4 4abd 51d6 143c 4de4 9b3d
000000b0: ec7d 913d 7b00 943c 0085 9bbd b0cf 7dbd
000000c0: b976 53bc 177e 363d cfce a3bd 1868 34bd
000000d0: 93be af3d e037 2cbd 9591 a53d 9e80 153d
000000e0: 8574 a4bd f1a2 57bc 30f2 2e3d ee26 8c3d
000000f0: c492 423c 675f 9b3d f7d2 6d3d c709 33bc
00000100: 8ac8 813d ef73 02bd 4a97 a3bd 055a 77bd
00000110: b1de 9bbd a05e 363d 4957 f43b a130 8cbc
00000120: 4b3e 6b3d d2ff ebbb b148 0a3d 6d25 b1bd
00000130: 9331 a6bd 7bc3 abbc 0851 a8bc 5fbb ffbc
00000140: fa36 0dbd c479 e13c 8aa2 56bd 5fbe c93a
00000150: 706d adbd 55a1 78bb 3e8c afbd 93d1 b83a
00000160: 4785 6cbd c99e ad3d bbe2 ae3c 02ae 1dbd
00000170: 3eb5 7c3c b9c5 8cbd 4f78 48bc 0fc1 88bd
00000180: b2b6 80bd 6c43 b0bd f047 823d 8c0f 173d
00000190: 95c0 9fbc 5385 8d3d ff9a ab3c 40bd a23d
000001a0: d932 f83a fc14 aebd a271 553c 41f5 463b
000001b0: 6c1d 893d 4ee1 003d 311f bbbc 3ded 8abd
000001c0: 3156 913c 0ccf b13d b82f fabc 7275 873c
000001d0: 7afb 693d 9a87 7ebd c029 05bc ef23 8cbd
000001e0: 9154 b33d 0bcf b3bd 66f5 4c3d d54c 823c
000001f0: 359b 1a3d febf 4cbd daeb 983d a0bd 48bd
00000200: 239e 463d 3377 9abc fb3c 9fbd 4f88 a63d
00000210: fd46 00bd 578e 95bc 0685 42bc 5067 05bd
00000220: 33c6 743d 1083 34bc 3698 5c3d b8c0 113d
00000230: 1207 9cbc 2a09 4b3d 1491 0f3d b2a0 d1bc
00000240: 31e9 69bd 1275 f4ba a21f 703d 31de 343d
00000250: f9b2 98bd 9763 533a 224e 8bbb 5190 15bd
00000260: 7226 afbd 0bc5 ae3d 016a b4bc e0eb 6cbd
00000270: f3ec 433d 4f74 0dbc d6d8 89bd bf6f e33c
00000280: cbcc b13c 1535 a63d 1612 dd3c 3245 22bd
00000290: f66d 323d cc42 6a3d d1f9 893c 6093 07bd
000002a0: e5fc a43d 9898 76bc 0ffe a6bd ab92 b0bd
000002b0: 4e7b 7cbd 46bc 23bc 500a 193c d1b9 24bd
000002c0: 90e3 8e3c 7671 69bd 017b 543d a4c0 adbb
000002d0: d889 83bd d5e0 923d 93a7 a63d a204 71bd
000002e0: be25 4abd 0cc9 80bd 276a 333d db43 8d3d
000002f0: ad24 f93b 5db7 86bc 9dd6 2b3d 3355 e93c
00000300: 6ece a0bc 3320 9d3d 44ba 813c d126 65bb
00000310: 4999 403d dc42 43bd 4804 64bc 2a3c b03d
00000320: c51f 8a3d a859 e63c 338e ac3b 2663 073c
00000330: 9bfa acbc 61aa 6ebd a780 9abd b093 a43d
00000340: 68ed b4bd 413a 8abd e20e 0f3d d0b6 47bd
00000350: 9b95 89bb 984e b23d 1492 c7bc aa7c 9bbd
00000360: 1046 96bd 2960 b6bc f77b 52bd 6f0c 34bd
00000370: 8278 ad3d d010 9d3d f3ab 913c b100 73bd
00000380: bdac debb d0b4 343d 3168 9f3a 900f 833d
00000390: ed93 4d3d b41f 8fbd 8520 cb3c 7a68 fcba
000003a0: 4942 8bbd 733a 47bd 6d64 e43c 0d72 d9bc
000003b0: d0ff 6f3d 23c7 29bd ffc9 4d3d 4859 7b3d
000003c0: bd78 3dbc 55e1 4f3d f1b1 193c 8108 acbd
000003d0: 3db4 9dbc 837d 0b3d cf83 c63c 3fe8 25bd
000003e0: 268e 873d be1b 2fb9 9780 7dbd 47d8 06bd
000003f0: cb2f 1c3d 6f6c 7ebd c0b7 83bd eb92 b33d
-0.08038833 -0.008567801 0.039416544 0.034578685 -0.053075366 0.079315886 0.06670901 -0.0752304
-0.027417304 0.017959446 -0.0026552198 0.0072550215 0.04127819 -0.024323294 0.053058907 -0.0150923645
-0.08823795 -0.02460453 -0.0109921405 0.025929078 0.011695086 0.017147867 -0.077707544 -0.084630154
-0.05881702 -0.0028122906 0.032357484 0.07916633 -0.070069104 -0.029632501 -0.009329363 0.03760581
-0.049778115 -0.07167215 -0.012793328 0.08763707 0.032051392 -0.03382196 -0.00607256 0.086888574
-0.022071566 -0.049503516 0.0090843 0.07611904 0.07104096 0.018066635 -0.07593727 -0.061965644
-0.012906724 0.044553842 -0.0799843 -0.044044584 0.08581271 -0.042045474 0.08084408 0.036499612
-0.08030037 -0.013161407 0.042711437 0.06843363 0.011875812 0.07586556 0.05806252 -0.010927624
0.06337078 -0.031848844 -0.079878405 -0.060388584 -0.076108344 0.044523835 0.0074566943 -0.017113032
0.057432454 -0.007202127 0.03376073 -0.086497165 -0.08114924 -0.020967236 -0.020546451 -0.031217275
-0.034476258 0.027523883 -0.052401103 0.0015391818 -0.08468139 -0.0037937958 -0.08571671 0.0014100544
-0.05774429 0.084775515 0.021348348 -0.038496025 0.015424071 -0.0687365 -0.012235715 -0.06677448
-0.06284846 -0.0860661 0.06361377 0.03688006 -0.01950101 0.06910195 0.020947931 0.07946253
0.0018936052 -0.08500096 0.01302758 0.0030358585 0.06695065 0.031464867 -0.022842022 -0.06783531
0.017741295 0.08682069 -0.030540332 0.016535494 0.057124592 -0.06214104 -0.00812763 -0.06842791
0.08756364 -0.08779725 0.050038718 0.015905777 0.037745673 -0.049987786 0.0746686 -0.049008965
0.048490655 -0.018855667 -0.07775303 0.081314676 -0.0313177 -0.01825635 -0.011872536 -0.03256923
0.05975933 -0.011017576 0.053856097 0.03558418 -0.01904634 0.049569286 0.035050467 -0.02558932
-0.057107154 -0.0018650612 0.058623917 0.04415721 -0.07456011 0.0008063851 -0.0042512575 -0.036514584
-0.08552255 0.08533677 -0.022023203 -0.057842135 0.047833394 -0.008633687 -0.06730811 0.027763246
0.021704098 0.08115593 0.026986163 -0.03961677 0.0435619 0.05719261 0.016842755 -0.033099532
0.08056048 -0.01505103 -0.081539266 -0.08621725 -0.06164103 -0.009993618 0.009340838 -0.04021627
0.017442495 -0.05699297 0.05187512 -0.0053025056 -0.06422776 0.071717896 0.08137431 -0.05884231
-0.0493524 -0.06288347 0.043802407 0.06897708 0.007603249 -0.016444856 0.041952718 0.028483009
-0.019629683 0.07672157 0.015835889 -0.0034965763 0.047021184 -0.047671184 -0.013917036 0.086052254
0.06744341 0.028118923 0.005265975 0.008263385 -0.021115592 -0.058267955 -0.0754407 0.08035982
-0.08834344 -0.06749392 0.034926303 -0.048758328 -0.0041987426 0.08706397 -0.024361648 -0.07592137
-0.07337582 -0.02226265 -0.051387753 -0.04395717 0.08470251 0.07669222 0.017782187 -0.05932683
-0.0067954944 0.04411775 0.0012161789 0.06399453 0.0501899 -0.06988469 0.02479578 -0.0019257211
-0.06799752 -0.048639726 0.027879918 -0.026543641 0.05859357 -0.041449677 0.050241467 0.061364442
-0.011564431 0.050752003 0.009380803 -0.084000595 -0.019250983 0.034055244 0.024232773 -0.04050469
0.066189095 -0.00016699635 -0.06189021 -0.032921102 0.038131516 -0.06211513 -0.06431532 0.08768257

lstm.bias_ih_l0 f4 [512]
00000000: 0fda a23d 004e 2bbd 2f10 e9bc dcfe 9b3d
00000010: 07e7 653d 3bc0 a5bd b5c3 6bbd 53f9 5dbd
00000020: 8252 06bb a64d 47bd a819 d6bc 279b ee3b
00000030: fcb3 82bd 35ca 8b3d aaba 8c3d fcab e3bb
00000040: 9178 35bd fae7 6cbb 7312 613c 916b 533d
00000050: f236 a43d 41d7 04bd ae3a 82bd 2422 9b3d
00000060: 3786 a33d d330 88bc 1986 04bc 134a e2bb
00000070: 87f5 233d a68d 5ebd eae7 ad3d 241e 9fbd
00000080: 1e6c d9bc 6a9a af3d ee92 ea3a e312 afbd
00000090: e56e 83bd 2d8b 93bb 89a7 713d 66f6 a3bd
000000a0: 159e b53c b4c7 a43d 6ffe 96bc e641 323d
000000b0: ff1a 843c ebf6 cdbc 16c9 2c3d 35df 30bd
000000c0: f20c 8f3d 7d52 883d c79d 8ebd 55f4 90bd
000000d0: bac6 cdbc c72f ff3b fd4b 60bc be3b 54bd
000000e0: 8c54 97bd 3820 1a3c 3ece 00bd 6586 53bb
000000f0: e6a1 5c3d 49a1 3bbc f766 9bbd 524c 9b3d
00000100: 5761 d8bc 7a97 48bd 61f6 cc3c 37b5 abbd
00000110: edbb adbd db3b 633d 77af c7bc 44da 80bd
00000120: 390b 2d3d 753b 8d3d 1792 f339 cc45 36bd
00000130: 16be ba3d 52fb 4a3d 65c0 233d e18b 04bd
00000140: 71ea 84bc 0c1f 38bb 3442 aa3d e348 593d
00000150: 2551 9fbc eac2 a13d f4f4 993d 9533 d6bc
00000160: 894b 55bc e2ab 2abd f685 5ebd 2ade daba
00000170: 63ae d2bc 3603 65bc 9299 8bbd 228c 883d
00000180: a467 01bd 0ef4 9cbd a2af 8ebc 5707 763a
00000190: 7283 393d db47 b33c 41b0 05bd d123 debc
000001a0: a972 993d 3bb7 9d3c f90c c33c 4ebd e33b
000001b0: 5599 9abd 0e02 80bd c940 323d 4d6e aebd
000001c0: 1122 8a3d 36be 103d e9e5 8dbd 6c69 23bd
000001d0: 63f7 2cbd 7b01 ebbb da9b 97bd 609c e4bc
000001e0: f2fa 243d 0a0e 59bd 0273 9dbc fe48 1fbc
000001f0: 1740 42bb ce7c 69bd 74d2 473c c3f9 883a
00000200: f879 a03d 0e81 423d 4536 a03d b2c5 d4bc
00000210: e1eb 8a3d df87 9abd 0ab7 e6bc 0788 833c
00000220: 6a5d f6bc 9029 b2bd a3eb 063d 0cfb bd3c
00000230: c80e 35bd 18b1 44bd 64e1 483d fd45 913d
00000240: 8005 0bbd 0008 a83c 1fd8 4ebd 5fa7 99bd
00000250: 558f 593d f05d 653d fecd 2abd feef a73d
00000260: 4088 76bd d65b 463d 0b23 80bd 3885 a5bc
00000270: fade a53d bba6 993d 9c86 62bd 04f8 5b3d
00000280: 5002 06bd a27f 09bd 62d6 943d b0c9 a7bc
00000290: c409 743b da4e b7bc 38e6 8f3d 645c 1f3c
000002a0: 90f7 1cbd a96f ac3d 19d5 b2bc 5183 383d
000002b0: 3cbd a83d 900b 493c f7e0 1dbd f3bd 98bd
000002c0: 55a9 7abd 0b15 3e3d b549 88bb c088 9bbd
000002d0: 4e11 04bd a1f2 34bd 6428 b0bd 1bfa a43d
000002e0: 8f1c 05bd eef8 82bd 5638 9d3d 8de9 77bd
000002f0: 70ea 973d cd8b 88bd b3eb 76bd 6782 a7bc
00000300: cae3 a63c 1643 6cb8 2190 65bc 1ec4 a73d
00000310: 2b0f 53bd 1f81 553d 5e4e 113d d80c 51bc
00000320: 3709 f0bc 6ad2 8bbd 91cb 9ebb 004c 923d
00000330: a2a6 9abd ffab 173d 0485 3f3c 10e4 5dbd
00000340: c3ed 57bd 4253 a3bd 7662 3e3d c04d a23d
00000350: 6a8d 9f3d 894e 583d e352 5bbd e70a ee3c
00000360: 5445 83bd a087 103c 9f98 68bc 7e66 68bd
00000370: cd30 113d cca0 1cbd 5f15 a9bd 0d4e c5b9
00000380: 7c0f 3c3d c39c 36bd a616 05bd 9cd5 073c
00000390: 9567 abbd 22f1 093c 2ded a93d d288 5cbd
000003a0: 7185 84bd 9d66 23bd 403d a73d 929e 563d
000003b0: 2c2d 9ebd 8174 2f3d a5a0 8d3d 6246 86bd
000003c0: 0cd6 aa3c dbd9 95bd 3177 4ebd 2594 92bd
000003d0: 9719 5f3c 5e74 efbc 9726 abbd 1a79 8d3d
000003e0: 4648 cfbc 7dab 303d 3aba 54bd ec61 5f3d
000003f0: c81c 503d 676c 9b3d 893d 213d 8dc6 99bd
0.079517476 -0.041822433 -0.0284501 0.0761697 0.056128528 -0.08093306 -0.057559688 -0.054192852
-0.0020495956 -0.048658036 -0.02613528 0.007281679 -0.063819855 0.06825677 0.06871541 -0.0069479924
-0.044304434 -0.003614901 0.013737309 0.051616255 0.080182925 -0.032431845 -0.063588485 0.07574871
0.07984584 -0.016624844 -0.008088612 -0.006905803 0.040029075 -0.054334305 0.084915 -0.07769421
-0.026540812 0.08574374 0.0017896572 -0.08548524 -0.06417636 -0.004502675 0.058997665 -0.08005981
0.022170106 0.08045903 -0.01843187 0.043519877 0.016126154 -0.025142154 0.042183958 -0.043181617
0.06984891 0.066563584 -0.069636874 -0.07077853 -0.025119174 0.007787678 -0.013689992 -0.051814787
-0.07389173 0.009407096 -0.031446688 -0.003227615 0.053865336 -0.011452028 -0.07587998 0.07582916
-0.026413603 -0.048972584 0.025019826 -0.08384173 -0.084831096 0.055477004 -0.02437566 -0.06291631
0.04224703 0.06896106 0.00046457417 -0.044500157 0.09118287 0.049556084 0.039978404 -0.03235996
-0.016225072 -0.0028094677 0.083134085 0.053048026 -0.019447872 0.07898505 0.07517424 -0.026147643
-0.013018497 -0.041667826 -0.054326974 -0.001669829 -0.02571792 -0.013977816 -0.068164006 0.06667353
-0.03159298 -0.07663737 -0.017417733 0.0009385249 0.04529137 0.02188485 -0.032638792 -0.027116688
0.07492573 0.01925241 0.023809897 0.006950057 -0.07548777 -0.06250392 0.043518815 -0.08517132
0.06744779 0.03533765 -0.069286175 -0.03989546 -0.042228114 -0.0071718073 -0.07402773 -0.027906597
0.040278383 -0.052991904 -0.019219879 -0.009721993 -0.0029640251 -0.05700379 0.012196172 0.0010450411
0.07835764 0.047486357 0.07822851 -0.025973175 0.067832716 -0.075454466 -0.028163452 0.016056074
-0.03007384 -0.08699334 0.032939564 0.023190998 -0.04420355 -0.048020452 0.049043074 0.07093427
-0.033940792 0.020511627 -0.050499078 -0.07502627 0.053115208 0.05599779 -0.041700356 0.08200072
-0.060188532 0.048427425 -0.06256684 -0.020205125 0.0809917 0.075025044 -0.055304155 0.053703323
-0.03271705 -0.033568986 0.07267453 -0.020481914 0.0037237266 -0.022376467 0.070263326 0.0097266175
-0.03832203 0.08419735 -0.021830129 0.045047108 0.082392186 0.012270823 -0.03854462 -0.07458105
-0.061196644 0.046406787 -0.004159177 -0.07594442 -0.032243066 -0.0441767 -0.08601454 0.08055516
-0.03249794 -0.06395136 0.07676761 -0.060525466 0.07417762 -0.0666729 -0.060283374 -0.020447923
0.02037229 -5.6329263e-05 -0.014011414 0.08191703 -0.051528137 0.052125093 0.035475127 -0.01275941
-0.029301269 -0.06827243 -0.0048460444 0.07143402 -0.07551314 0.037029263 0.011689428 -0.054172575
-0.05271698 -0.079748645 0.04648062 0.07924986 0.077906445 0.052809272 -0.053545844 0.029057933
-0.06409708 0.008821398 -0.014196544 -0.05673837 0.03544693 -0.038239285 -0.08256029 -0.0003763292
0.045913205 -0.044583093 -0.032492302 0.008290675 -0.08369366 0.008419307 0.08297191 -0.05384142
-0.064707644 -0.03989278 0.081659794 0.05239732 -0.077234596 0.042835716 0.06915406 -0.06556393
0.020854019 -0.07316943 -0.05040664 -0.071571626 0.013616941 -0.029230293 -0.0835697 0.06907864
-0.025303017 0.043132294 -0.051935412 0.054536745 0.050808698 0.075890355 0.039365325 -0.07508574

lstm.bias_hh_l0 f4 [512]
00000000: be91 c1bc 93ef a9bd ef31 413d 4961 43bc
00000010: a5e4 b7bc 0bf6 2dbd 7192 733c 8ac0 4abd
00000020: 7a3b 983d fe1a 343d b923 1f3d 6e8a 9dbc
00000030: 01c5 9f3d 853c f53c c6c4 88bd 210d 473d
00000040: 1fd6 5e3d 6a43 1d3d 612a 6bbd ef3b 903d
00000050: 937d 923d b2c5 26bd b148 a33d fcc0 4dbd
00000060: 8456 25bd bdd2 1a3d 417b e8bc 545c 03bd
00000070: 9264 033d 3d27 8ebd 43b2 5abd ca29 7ebd
00000080: 4597 96bd d7be e5bb cf3a 8b3d 0670 133d
00000090: ef0c 37bc 3475 013d aa38 d93a ceee aa3d
000000a0: 4e6d 67bd 5cd2 a83d 53cb ee3b 5cc9 3b3a
000000b0: 8122 923d 191e 193d 341e 6cbd 839a 2f3d
000000c0: 8050 39bd 952d b7bd 3200 233d c074 33bd
000000d0: be72 653c 2dc9 11bd 8993 abbd 2232 c43d
000000e0: 8907 a73d dafa adbc 5e51 603c 40a7 3c3d
000000f0: c5ef 88bd 27c9 86bd 2dfe 753d 2eff 65bd
00000100: 4efc 89bd 6c6a 89bd b446 14bb fee6 893d
00000110: 43f8 7dbd b9be 95bd 37aa a33b 959d 573d
00000120: 356b 8fbd 8cbc 383d 07d6 973d 088f ba3c
00000130: a9d2 69bd a095 01bd 205d 77bb 1f63 bb3c
00000140: 3d0d a93d 4cff af3b 12dd a23c bd14 31bd
00000150: 823f 503d c2e2 05bd c175 dbbc b9d0 b53d
00000160: 1424 723d 47bb 4b3d 455f 1dbd d3eb 4dbd
00000170: 84a7 153d 0144 53bb aced 923d d068 3e3d
00000180: c8c8 5c3d e0c4 14bd 036f cfba 9318 58bd
00000190: 6fe5 8f37 be5a 87bd 4b89 0abd 08ab 883d
000001a0: 159f c5bc 41bb 523d 3be4 2c3d 59e0 4a3d
000001b0: b332 773d b091 fbbb 0cee 393d c424 a53b
000001c0: 458b 953d 31a7 933d 4c44 513d d624 173d
000001d0: 0a98 7c3d 0aad 32bd 650e 44bc 5730 dbbc
000001e0: de06 6e3d 4cdb 5cbc febc 533c d8f1 1fbd
000001f0: adbc 113d fd4b 40bd c298 823d e3cb 623d
00000200: 15c4 43bd 5d3a 733c 1919 83bd 0e71 973d
00000210: a982 933d b1a5 a3bb 78a3 80bd 95cf 4c3d
00000220: 3cc9 253d e5bf 1b3c b245 ac3d bbcf 21bb
00000230: 21d6 09bc 7884 a93c 67d7 44bd abd9 76bd
00000240: a796 083c 99ff a8bd be0f 09bc 3d8c 8d3c
00000250: 3f35 47bb 5724 7c3d 8d10 283d 2e91 fc3c
00000260: 86dc 293d 3109 f0bc 8ac5 84bc 66a2 73bc
00000270: 5b48 09bd 0db1 2bbb f28b 38bd aaee 10bd
00000280: d596 0bbd ec20 16bd a6c2 683b 5ae6 5d3d
00000290: 3700 f53c 742e 123d d21c de3c dae7 203d
000002a0: 9069 b43b 31f8 873c 10f7 47bd ba32 9e3d
000002b0: 60f3 3ebd ab7f a5bd 4bc1 59bb 5081 df3b
000002c0: 4fd2 b7ba 46cd 95bd 33bc 833c 799f 663d
000002d0: b535 1ebc a484 843d 435a 3ebc f3eb a33d
000002e0: 631e b23d c5b2 45bc daee 9f3d 5a0a 703d
000002f0: 8ffa b0bd 3af3 d6bc e22a 17bd bb70 863d
00000300: a013 2ebd db77 8d3d e1aa 43bd c239 513d
00000310: 7881 e3bc ca47 683c 7907 0cbd f039 353c
00000320: f6d1 f1bc 6cee dcbc 30fa d6bc 6dbb b0bd
00000330: 8b01 e83c 0aab 123d 3082 973d 4a7a 303d
00000340: 0366 a4bd c662 78bd 49e0 b53c 3c33 853d
00000350: 0f21 ebbc 99f5 4a3d d739 153c c55c 103d
00000360: 8b92 7b3d c7d4 a53d 3cc4 11bd 79ae 08b9
00000370: 11d8 b43d d0ef dcbc 8cbe 1fbc a48d 2d3d
00000380: 74f0 aabc 5561 73bd c590 223b bc42 acbc
00000390: 6b30 8abd 2645 273c 5f1a 813d 9f82 a8bd
000003a0: 4afc 8e3d d275 acbd 978e 68bc e615 5bbd
000003b0: 5677 bb3c 20f4 103d 0f4b cb37 9034 25bd
000003c0: c8c4 05bd 2499 14bd 238f 15bc 259e 27bd
000003d0: 3c9f 81bd 1b8b 9f3b e5f0 5cbc b13c e5bc
000003e0: f540 32bc e191 c73c 4915 51bd add9 463c
000003f0: 85e8 343d 839e 983d 0666 04bd 5b5d 143b
-0.023629066 -0.08297648 0.04716676 -0.01192505 -0.022447893 -0.042470973 0.014866457 -0.049500026
0.07433219 0.043971054 0.038852427 -0.019231047 0.078012474 0.029936085 -0.066781566 0.048596505
0.05440342 0.03839437 -0.057413463 0.070426814 0.07152858 -0.04071588 0.07972849 -0.050232872
-0.04036571 0.037798632 -0.028379085 -0.032070473 0.032078333 -0.06941078 -0.05339266 -0.062051572
-0.07353071 -0.0070112753 0.06798326 0.035995506 -0.011172517 0.031605914 0.0016572673 0.0834633
-0.056500725 0.08243248 0.0072874217 0.0007163489 0.07135487 0.03738222 -0.05764599 0.042871963
-0.045242786 -0.08944241 0.03979511 -0.043812513 0.014004407 -0.035592247 -0.083777495 0.095798746
0.08155734 -0.02123778 0.013691274 0.04605794 -0.066863574 -0.065813355 0.060056854 -0.05615156
-0.067375764 -0.067097515 -0.002262515 0.067335114 -0.06200434 -0.07311768 0.0049946564 0.052640516
-0.0700287 0.045101687 0.07413869 0.02277328 -0.057085667 -0.031636834 -0.0037744716 0.022874413
0.08254478 0.00537101 0.019880805 -0.04323267 0.050841816 -0.032686956 -0.026789548 0.08877701
0.059116438 0.04973915 -0.038420934 -0.050273728 0.03653671 -0.0032236578 0.071742386 0.046486676
0.053902417 -0.036320567 -0.0015825931 -0.05275781 1.7153767e-05 -0.066091046 -0.03382234 0.066732466
-0.024123708 0.05144811 0.042209845 0.04953036 0.060351085 -0.0076772794 0.045393035 0.005039783
0.07301954 0.072096236 0.051090524 0.036900364 0.061668433 -0.043622054 -0.011966323 -0.026756449
0.058112018 -0.013480019 0.012923477 -0.039049 0.035580326 -0.046947468 0.063767925 0.055370223
-0.04779442 0.014845458 -0.064012714 0.0739461 0.07202656 -0.004994117 -0.06281179 0.050002653
0.040475115 0.0095062 0.08411731 -0.0024690467 -0.008412869 0.020693049 -0.048056986 -0.060266178
0.0083367 -0.082518764 -0.00836557 0.017278785 -0.0030396727 0.061558094 0.04103141 0.030830946
0.041470073 -0.029301258 -0.016207475 -0.014870262 -0.03351627 -0.002619806 -0.045055337 -0.035383858
-0.03407939 -0.03665249 0.003551641 0.05417476 0.029907329 0.035688832 0.027113352 0.03928361
0.005505748 0.01659784 -0.0488196 0.07724519 -0.04661882 -0.08080991 -0.0033226784 0.006820835
-0.0014024469 -0.073145434 0.016080951 0.05630443 -0.009656359 0.06470612 -0.0116182 0.08003988
0.08697202 -0.012066548 0.07809229 0.058603622 -0.0864154 -0.026239026 -0.03690613 0.065644704
-0.042499185 0.06907626 -0.047770385 0.051080473 -0.027771696 0.014177272 -0.034186814 0.011061177
-0.029519062 -0.026969157 -0.026242346 -0.08629499 0.028321048 0.035807647 0.07397878 0.043085374
-0.0802727 -0.060641073 0.022201674 0.06503913 -0.028702287 0.049550626 0.009108028 0.035244722
0.06141905 0.08097225 -0.035587534 -0.00013034967 0.08830274 -0.02696982 -0.00975002 0.042371407
-0.02086661 -0.059418995 0.0024805528 -0.021027915 -0.06747516 0.010209357 0.06303858 -0.08228039
0.06981714 -0.0842091 -0.014194152 -0.05348768 0.022884052 0.035389066 2.4234438e-05 -0.04033333
-0.03265837 -0.03627886 -0.009128365 -0.040922303 -0.063292 0.0048688776 -0.013485168 -0.027983041
-0.010879745 0.024361553 -0.05104569 0.012136859 0.04416706 0.07452109 -0.03232386 0.0022638652

fc.weight f4 [2, 128]
00000000: 722e 5d3d b00f 833d 1d9a 0e40 376a 08bc
00000010: c6bd 12c0 f84b 0ac0 0617 6ebd 11ea 11c0
00000020: 34c3 5ebd 9d8a 22c0 a422 1040 d922 963d
00000030: 8a61 b8bc 0c31 db3b aad8 11bd cff2 09c0
00000040: 2465 0f40 04d6 7bbd fb9f 0e40 0fd9 24bd
00000050: f230 0dc0 6076 1840 ba86 13c0 451c 0fc0
00000060: 997a 1540 53f1 0bc0 696c 86ba 3a91 b8bb
00000070: 862f 303d 4446 0bc0 8c16 1040 8855 47bd
00000080: cee4 0dc0 d662 0a40 db77 0c40 8367 13c0
00000090: b885 9ebd ef9c 193d 9228 12c0 6cd5 0d40
000000a0: 3ead c13c b748 13c0 0ae7 00bc 7c93 28bd
000000b0: d672 33bd cebe dabb be42 7d3d 1954 0f40
000000c0: ecc3 c43c 2e06 58bd e1e4 163d 0896 c1bc
000000d0: 0e36 603d 6b0b 1040 0544 10c0 75e6 0c40
000000e0: 1fce f0bc 867a 13c0 0f20 0f40 fb70 05bd
000000f0: 74e0 52bd 6ea2 c93f ab1e 86bd 19bf 193d
00000100: e85d 6a3d a1ad 11c0 ae10 ba3c e177 11c0
00000110: aae0 a53d 94ac e0bb bfd2 1440 6d89 69bd
00000120: fc0f 0dc0 3713 1140 4758 8d3d bdc5 113d
00000130: 1f4e 1140 6d59 1040 5fd5 e83b 5255 083c
00000140: 0a90 7ab8 3d8d 11c0 b81e 86bc 3786 10c0
00000150: 65a4 0dc0 5ade 893c 5655 363d 3e2b 0f40
00000160: acbb 713d 7835 90bb 2dfc b53c f872 0a40
00000170: c570 643d 6eeb 0f40 2e14 1340 3bdd 0ec0
00000180: 13d1 1340 7649 4e3c b190 1ebd 24d6 973b
00000190: b2d0 7f3d 4a40 1040 b841 76bd 9a09 1840
000001a0: d52e 6cbd 3879 0c40 1c7d 12c0 7635 11c0
000001b0: 695b ac3f 248e 11c0 019f 953d 8b5b 253d
000001c0: 1883 1440 f201 623c e67d 9ebc 648a 53bd
000001d0: a67d 853d 9ca8 be3d 307a 24bd c5e5 0c40
000001e0: c29a e13c 3945 0840 8f58 87bd bd5a 0fc0
000001f0: e337 443d 3f17 bdbc 4966 b53c 4e39 0dc0
00000200: 79b0 a0bd dab1 7cbd a29d f040 9078 39c3
00000210: 2226 efc0 5ca3 f1c0 0cd6 f33b 637f efc0
00000220: 5cff dabc 0b56 f0c0 536b ee40 b776 073d
00000230: 54dd 99bd 1303 8a3d e5d4 56bd 115c f0c0
00000240: f866 ed40 ad0a 8d3d 0a02 f140 3fc0 f83c
00000250: 297a f0c0 3181 f140 8d9f f1c0 de25 f1c0
00000260: d9c4 f040 f64b f0c0 0946 703d 307b 7bbd
00000270: e3d3 3dbb a08a f1c0 d6ed f040 2c2e 76bd
00000280: b0b2 f1c0 0b44 f040 625c f140 0b61 edc0
00000290: ffb6 7fbb bddd 7f3d f497 f1c0 eb6d ef40
000002a0: bbb1 8cbd a062 eec0 6b85 cb3c 5512 933d
000002b0: 4ae6 103b 49fd c83c edfc 91bd f85f f040
000002c0: 5b42 9d3d d61d 9bbd c5fe 0d3b 2fc3 cb3b
000002d0: a703 b83c bde4 ef40 e57e f1c0 0c15 f140
000002e0: 85de 28bd baff efc0 b661 f140 0b90 a53d
000002f0: f181 72bc bf7b 60c1 7b8b 683c 0624 8f3d
00000300: 37ff 3c3d fa04 f0c0 bca5 3dbc 1b13 f0c0
00000310: bdff eebb c29d 43bb 18fa f040 7ad5 81bd
00000320: 038c f1c0 234b ef40 e53c a53c 9276 cabc
00000330: 8e3a ef40 44f2 f040 9c16 3dbc 016d 39c3
00000340: 62a8 8d3d eebf f1c0 3bc7 0a3d ceaa f1c0
00000350: 5532 f0c0 0811 6f3d e422 9c3c b8c2 f040
00000360: 3ecd 913d 56de 7bbd dbde acbc 3123 f140
00000370: 2540 573d 01fd f040 5183 ef40 4953 efc0
00000380: 3bc9 f140 acb2 ad3d 6492 5bbd 74e1 a9bd
00000390: cb79 ae3d 4ec3 ef40 a1d5 f1bc a1f7 f140
000003a0: aed3 11bd acf5 ef40 2dd8 f0c0 a6f2 f1c0
000003b0: 842f 3dc1 7ed5 f0c0 3e69 a83d e899 c6bc
000003c0: a095 ef40 05d0 423d e7eb 8f3d 0dc8 3cbd
000003d0: 7af6 96bd 510d 82bd 8f77 783d b097 f140
000003e0: 35bd 69bd 1484 ef40 341a 4bbd 738e f1c0
000003f0: 46da 803c 35dd 253d d141 943d 3b87 f1c0
0.05399937 0.063994765 2.2281563 -0.008326105 -2.2928329 -2.1608868 -0.058127426 -2.2799113
-0.05438538 -2.5397103 2.2521143 0.073308654 -0.022507448 0.0066891965 -0.035607018 -2.1554449
2.2405481 -0.061483398 2.2285144 -0.040246066 -2.2061124 2.382225 -2.305098 -2.2361004
2.3356078 -2.1866043 -0.0010255697 -0.0056325467 0.043014072 -2.1761637 2.2513762 -0.048665553
-2.2170901 2.1622825 2.1948154 -2.3031929 -0.077403486 0.03750318 -2.2837262 2.2161512
0.023642179 -2.3013132 -0.007867584 -0.041156277 -0.043810688 -0.0066755777 0.06183123 2.239508
0.024019204 -0.05274027 0.03683937 -0.02363111 0.05473905 2.250697 -2.2541516 2.201566
-0.029395161 -2.3043532 2.2363317 -0.03257845 -0.051483586 1.5752695 -0.06548818 0.03753576
0.057218462 -2.2762225 0.022713032 -2.2729418 0.08099492 -0.0068565104 2.325363 -0.057015825
-2.2041006 2.2667978 0.06901603 0.03558897 2.2703931 2.255458 0.007105514 0.008321123
-5.973879e-05 -2.2742455 -0.01637207 -2.2581918 -2.2131588 0.016829658 0.044514976 2.2370143
0.05901687 -0.004400905 0.022214973 2.1632671 0.055771608 2.2487445 2.2981067 -2.2322528
2.3096359 0.012590757 -0.038712207 0.004633682 0.062454887 2.253924 -0.060121268 2.375586
-0.05766185 2.1948986 -2.288886 -2.268888 1.3465396 -2.2743006 0.07305718 0.040370505
2.3205013 0.013794409 -0.019347142 -0.05164565 0.06518106 0.093095034 -0.04015559 2.201524
0.027539615 2.129225 -0.06608688 -2.2399132 0.04790486 -0.023082374 0.0221435 -2.2066226
-0.078461595 -0.06169305 7.5192423 -185.47095 -7.473405 -7.5511913 0.007441288 -7.4843
-0.026733093 -7.5105033 7.450601 0.0330722 -0.07512918 0.067388676 -0.052449126 -7.5112386
7.4188194 0.06886802 7.531499 0.030365108 -7.514912 7.5470204 -7.5507264 -7.5358725
7.5240293 -7.5092726 0.05866054 -0.061396778 -0.0028965406 -7.548172 7.5290327 -0.060102627
-7.5530624 7.508306 7.542527 -7.418096 -0.0039018986 0.062467325 -7.549799 7.4821677
-0.06869837 -7.449539 0.024843892 0.07181231 0.002210992 0.024534838 -0.0712832 7.511715
0.07678672 -0.0757405 0.0021666747 0.006218336 0.02246268 7.496672 -7.54674 7.533819
-0.041227836 -7.4999666 7.5431776 0.08084115 -0.014801488 -14.030211 0.014193411 0.06989293
0.04614183 -7.5006075 -0.011575159 -7.502332 -0.00729367 -0.002984867 7.530529 -0.063395455
-7.5483413 7.477922 0.020170638 -0.024714742 7.475898 7.5295734 -0.011541035 -185.4258
0.06916882 -7.554679 0.033881407 -7.5521 -7.506144 0.05836585 0.019059606 7.5237694
0.07119225 -0.061491333 -0.02110236 7.535546 0.052551407 7.5308843 7.48478 -7.4789166
7.5558143 0.084813446 -0.053606406 -0.08294955 0.08519324 7.492591 -0.029520812 7.561478
-0.035602264 7.4987392 -7.5263886 -7.56087 -11.8241005 -7.526061 0.08223198 -0.02424331
7.487015 0.047561664 0.07027417 -0.04608922 -0.073712304 -0.06350196 0.060660895 7.5497665
-0.057065208 7.484873 -0.049585536 -7.548639 0.01572908 0.040494163 0.07239116 -7.5477576

fc.bias f4 [2]
00000000: 757d 0940 b498 ee40
2.1482823 7.4561405
