lstm_model.pth (torch, 263139 bytes, 6 tensors)

lstm.weight_ih_l0 f4 [256, 189]
0.12167759 0.037558004 0.10052037 -0.06370267 0.017566279 0.054707676 0.0074279755 -0.103967994
0.11716816 0.08721551 0.10257469 -0.037155554 -0.09877226 -0.04239711 0.049052343 0.07382326
-0.12342733 -0.020796478 -0.0739259 -0.029010847 -0.091192126 -0.088066146 -0.0344619 -0.0003785491
0.122155294 0.064653054 0.111547366 0.00069767237 0.07064715 0.09070714 0.05754718 0.07670446
-0.02281876 -0.01796323 -0.08181906 -0.035170466 0.06147568 -0.029323861 -0.0499319 -0.052491248
-0.09111002 -0.026798517 -0.072328165 -0.041267455 0.020204604 0.058407813 -0.053650826 0.038069576
-0.047223687 0.12158026 -0.05638735 0.062335 0.04831305 0.044069886 -0.0976025 -0.0885514
0.061450496 -0.062180564 0.02177596 -0.0005237311 -0.096537426 -0.112045586 -0.0034051538 -0.10108478
0.0020428598 -0.11260931 0.110659584 -0.050502256 0.05942762 -0.059697956 0.0033935905 0.019862354
-0.07024588 -0.08296366 -0.079708725 -0.11489278 -0.024687901 0.0008287281 0.07352403 0.09406945
0.09768541 0.010646015 0.07361752 -0.0036888123 -0.09935917 -0.016769543 -0.0014902651 0.11030176
-0.05765143 0.11633128 0.08710992 0.07135351 -0.020495191 -0.09733695 0.09617297 0.0037649274
-0.040510625 0.10663389 0.08887443 -0.06759195 -0.04595968 0.07111028 0.038980156 0.10117185
-0.023341477 0.10551284 0.08641973 0.07283057 -0.0060982406 -0.021794662 0.105486766 -0.028608724
-0.070160255 -0.08539972 -0.117611796 0.09567946 0.06813544 -0.08337493 -0.008862451 -0.034246802
0.025377497 0.096870735 -0.03922309 0.0057043433 0.114780664 -0.09659511 0.060651004 -0.06152858
0.10227808 -0.023506328 0.059289575 -0.10782091 0.11518656 -0.067293555 0.047676012 -0.013781905
-0.053915307 0.03430602 0.03035608 0.06423454 -0.018153578 -0.05335869 -0.0031943768 -0.037195623
0.013956696 -0.068466425 -0.113333225 -0.04512179 0.03479798 -0.04301496 -0.09515032 -0.10860233
0.12367046 -0.084346294 0.0019356608 0.10665202 0.0071332753 -0.013992161 -0.031489506 -0.072019026
-0.016128242 0.0247709 0.061145917 0.08662738 -0.037927896 -0.024000332 -0.04489316 0.025481582
-0.006062478 -0.05679235 -0.003023222 0.033572048 0.024790674 -0.12471187 0.00094267726 -0.050876647
-0.019642398 0.0029326528 -0.08431688 -0.085197225 -0.017089665 0.012674525 0.123608425 -0.0002399534
0.0126625 -0.082323864 -0.11122225 -0.021773696 -0.07762846 0.11511329 -0.07274431 0.015097821
-0.07729831 -0.0819072 -0.04479598 0.122929275 0.11352714 -0.08864202 -0.008691774 0.12944612
0.009294688 0.022621084 -0.011110113 0.072541855 -0.09239238 -0.052261196 -0.072203286 0.08304823
0.033928443 -0.016005006 -0.1083236 0.06764727 -0.04843939 0.012147768 -0.112384595 -0.0470554
0.1097881 -0.012256357 0.009040847 0.100277044 0.04350642 -0.06582423 -0.0974985 -0.010049627
-0.042369463 -0.09146129 0.12489981 0.07544013 -0.012670788 -0.05841626 -0.11637951 -0.109354116
0.05383321 0.12043024 -0.082324125 -0.07090335 0.07397031 0.06221541 0.052392058 -0.052104436
-0.0029164061 -0.0038869774 0.12955406 -0.066455014 -0.03831894 0.07378321 0.06798134 0.05673159
0.026422996 0.0151592335 0.053158157 -0.01763561 -0.053796373 -0.0898089 0.004419123 0.112067886
00000000: 1a32 f93d 6cd6 193d a0dd cd3d 8c76 82bd
00000010: 28e7 8f3c 2815 603d 6066 f33b 2ced d4bd
00000020: dcf5 ef3d 0c9e b23d ae12 d23d 6c30 18bd
00000030: 1c49 cabd 98a8 2dbd 1ceb 483d a630 973d
00000040: 78c7 fcbd 605d aabc 7666 97bd 28a8 edbc
00000050: f0c2 babd 065c b4bd ec27 0dbd 0078 c6b9
00000060: 8e2c fa3d d268 843d f272 e43d 00e4 363a
00000070: 74af 903d aac4 b93d 98b6 6b3d 3a17 9d3d
00000080: 68ee babc a027 93bc c090 a7bd e80e 10bd
00000090: eccd 7b3d 9838 f0bc 6485 4cbd 1001 57bd
000000a0: e497 babd 9088 dbbc ca20 94bd 1008 29bd
000000b0: 2084 a53c 083d 6f3d f8c0 5bbd d8ee 1b3d
000000c0: a06d 41bd 12ff f83d 6cf6 66bd fc52 7f3d
000000d0: e8e3 453d a082 343d d2e3 c7bd 705a b5bd
000000e0: 84b3 7b3d 0cb1 7ebd 8063 b23c 004b 09ba
000000f0: 6ab5 c5bd 2878 e5bd 0029 5fbb 8a05 cfbd
00000100: 80e1 053b b69f e6bd 7ea1 e23d 74db 4ebd
00000110: 606a 733d d885 74bd 0067 5e3b 60b6 a23c
00000120: 12dd 8fbd dae8 a9bd 543e a3bd e84c ebbd
00000130: 483e cabc 003f 593a c493 963d 7ca7 c03d
00000140: 4a0f c83d a06c 2e3c c8c4 963d 00c0 71bb
00000150: d27c cbbd 4860 89bc 0055 c3ba e4e5 e13d
00000160: e823 6cbd 183f ee3d b066 b23d ca21 923d
00000170: 88e5 a7bc 9858 c7bd 56f6 c43d 00bd 763b
00000180: 78ee 25bd de62 da3d cc03 b63d a66d 8abd
00000190: 3840 3cbd 44a2 913d a8a9 1f3d 3033 cf3d
000001a0: a036 bfbc 1e17 d83d d4fc b03d 3228 953d
000001b0: c0d3 c7bb b88a b2bc 7209 d83d d85c eabc
000001c0: 2eb0 8fbd 0ce6 aebd 74de f0bd 98f3 c33d
000001d0: 988a 8b3d 7ac0 aabd d033 11bc 6046 0cbd
000001e0: 78e4 cf3c 2a64 c63d 64a8 20bd 80eb ba3b
000001f0: 2012 eb3d a8d3 c5bd 306d 783d 6405 7cbd
00000200: 2c77 d13d 5890 c0bc a0d9 723d 36d1 dcbd
00000210: eee6 eb3d 34d1 89bd ec47 433d 80cd 61bc
00000220: 4cd6 5cbd 7884 0c3d 50ad f83c 668d 833d
00000230: d0b6 94bc a48e 5abd c058 51bb 705a 18bd
00000240: a0aa 643c 2038 8cbd 401b e8bd a0d1 38bd
00000250: 5488 0e3d 7430 30bd 2cde c2bd e66a debd
00000260: f046 fd3d c0bd acbd 00b6 fd3a 606c da3d
00000270: 40be e93b 603f 65bc 24fb 00bd b67e 93bd
00000280: 601f 84bc 58ec ca3c 2474 7a3d b269 b13d
00000290: 485a 1bbd 589c c4bc e4e1 37bd c0be d03c
000002a0: c0a7 c6bb 189f 68bd 4021 46bb d882 093d
000002b0: d015 cb3c f068 ffbd 001e 773a 0864 50bd
000002c0: 18e9 a0bc c031 403b 54ae acbd e27b aebd
000002d0: a0ff 8bbc d0a8 4f3c 6a26 fd3d 009c 7bb9
000002e0: 6076 4f3c 6a99 a8bd 7ec8 e3bd c05e b2bc
000002f0: acfb 9ebd 84c0 eb3d f8fa 94bd da5c 773c
00000300: 944e 9ebd f6be a7bd fd7b 37bd 58c2 fb3d
00000310: eb80 e83d f389 b5bd f167 0ebc 868d 043e
00000320: bf48 183c da4f b93c 3107 36bc d390 943d
00000330: 3738 bdbd d60f 56bd 51df 93bd 3115 aa3d
00000340: 8df8 0a3d ee1c 83bc c3d8 ddbd a78a 8a3d
00000350: 6268 46bd 6f07 473c e529 e6bd 2abd 40bd
00000360: 95d8 e03d e3ce 48bc 1020 143c 0d5e cd3d
00000370: ca33 323d dbce 86bd 4bad c7bd 31a7 24bc
00000380: 9a8b 2dbd 0f50 bbbd 79cb ff3d 5b80 9a3d
00000390: 2399 4fbc e345 6fbd 6158 eebd 0df5 dfbd
000003a0: 3680 5c3d 21a4 f63d 8d99 a8bd c735 91bd
000003b0: bf7d 973d 96d5 7e3d 0e99 563d 766b 55bd
000003c0: 2d21 3fbb a9bc 7ebb d2a9 043e 9119 88bd
000003d0: 52f4 1cbd a71b 973d cd39 8b3d 625f 683d
000003e0: 0a75 d83c 6f5e 783c 5ebc 593d 8e78 90bc
000003f0: 9659 5cbd bbed b7bd 4ace 903b d983 e53d

lstm.weight_hh_l0 f4 [256, 64]
-0.022008732 -0.11899504 0.055057824 0.112936765 -0.022546902 -0.06814131 -0.05576043 0.026012227
-0.0041902065 0.070851386 0.06645268 -0.074381426 -0.10795744 0.078078985 -0.10588701 0.0031722337
-0.0049055666 0.03236687 0.09705429 -0.08392538 0.037118852 0.09783539 0.05120392 0.07401842
0.03761889 0.08037236 -0.035176396 0.039067343 0.12193008 -0.09854774 -0.106465235 -0.01762645
-0.0056227446 0.04650785 -0.0069185197 0.07484855 0.0006401092 0.05242321 0.020233512 0.09106396
-0.06546928 0.0064340085 0.09006743 -0.09659603 0.008467406 -0.096832186 0.01612398 -0.11116707
-0.054017395 0.069625065 0.10698877 -0.014367253 -0.11503105 -0.07177152 -0.09879175 0.108767435
0.04503174 -0.04958673 -0.02940254 -0.11206125 -0.01268281 -0.019628733 -0.105232954 0.08751099
-0.10942115 -0.04874906 0.10641156 0.104074284 0.06432098 0.0008534938 0.100520775 0.10738091
-0.12222116 -0.0029756129 0.0265667 -0.03610289 -0.0490309 -0.11502363 -0.06555572 -0.026208028
0.10166775 0.020722643 -0.06200236 0.059557647 0.051525593 0.07379663 0.07971302 0.014231712
-0.06933962 -0.012254775 -0.061304882 -0.011672482 0.10535452 0.007500902 0.017755479 0.01599878
0.10697313 0.053525105 0.02140376 0.123475194 -0.07645564 0.11373991 0.054738894 -0.06384146
0.008215532 -0.07460357 -0.023501158 -0.11159457 -0.12272929 -0.08719376 0.08232437 -0.07021855
-0.02522111 -0.11461581 0.06825063 0.03277813 -0.12163755 0.083644286 0.051907152 -0.11215897
-0.046650127 -0.044516057 -0.030495554 0.055215314 -0.0384015 -0.008577302 -0.033638522 0.007034406
-0.10725814 0.028030679 0.03841561 0.00752753 0.039876983 -0.038882658 0.03654775 0.079650566
0.10298486 0.052174255 -0.11026551 0.10812965 0.096433446 -0.11341488 0.08668634 -0.033867463
-0.12284087 -0.013220608 0.0956676 0.040858716 -0.040962487 0.051171556 0.0019456446 -0.036440745
-0.10347453 0.09996177 0.1059795 0.016246587 -0.020852342 0.10008943 0.008560762 -0.11651562
0.07756914 0.1181394 0.02786243 0.078327835 0.05513397 -0.011465371 -0.082947135 -0.10436235
0.09184247 -0.010793105 -0.02972868 -0.07807246 0.06656495 0.009689927 0.015112683 -0.115292296
-0.035215557 0.007680252 0.103064045 0.056530938 -0.012830108 0.02312316 0.07276891 -0.09276441
-0.09841287 -0.04052016 -0.08024463 -0.09206781 0.11449741 0.097183004 0.09419721 0.09987703
0.03460914 0.11126986 -0.10043365 0.059336543 0.038715392 0.07427254 -0.03828098 0.082468644
-0.059328616 -0.04418038 0.0018560588 0.0010584444 0.10748455 -0.059405833 0.04248905 0.02753511
-0.053222626 0.10087827 -0.064321 -0.09387635 -0.0070742965 -0.0071715564 0.07206181 -0.116600156
-0.010809794 -0.12267682 0.0075119883 -0.12235077 0.10739514 -0.09005535 0.022627726 -0.060176224
-0.07448682 0.052537575 -0.077999905 0.04068233 -0.10015711 -0.0030813515 0.0018275082 -0.11436787
0.058954895 -0.05002123 0.05136594 -0.12158866 0.04260318 0.04577431 -0.12242448 -0.0059500486
0.11247034 -0.1088565 0.017660156 0.10970299 -0.031764418 0.040850163 -0.07701945 0.0161196
-0.11311717 0.058005765 0.03337623 -0.039054543 -0.10968895 -0.06852086 -0.12012331 0.04040356
00000000: a84b b4bc acb3 f3bd 5084 613d 644b e73d
00000010: 48b4 b8bc ac8d 8bbd 0c65 64bd 9817 d53c
00000020: 004e 89bb 881a 913d 5818 883d 4a55 98bd
00000030: ca18 ddbd e0e7 9f3d 4adb d8bd 40e5 4f3b
00000040: e0be a0bb 2093 043d 66c4 c63d 12e1 abbd
00000050: f009 183d ec5d c83d 34bb 513d f896 973d
00000060: 4416 1a3d 449a a43d 2015 10bd 1405 203d
00000070: 7ab6 f93d 66d3 c9bd 720a dabd 5865 90bc
00000080: 003f b8bb 047f 3e3d c0b4 e2bb 324a 993d
00000090: 00cd 273a b8b9 563d c0c0 a53c be7f ba3d
000000a0: c214 86bd 60d4 d23b 4675 b83d 24d4 c5bd
000000b0: e0ba 0a3c f44f c6bd 7016 843c 90ab e3bd
000000c0: 5841 5dbd 9697 8e3d ee1c db3d a064 6bbc
000000d0: 6695 ebbd f2fc 92bd 5453 cabd 76c1 de3d
000000e0: 3473 383d 741b 4bbd 98dd f0bc 5e80 e5bd
000000f0: 90cb 4fbc 70cc a0bc 6084 d7bd f638 b33d
00000100: 3218 e0bd 18ad 47bd 4eee d93d e624 d53d
00000110: b8ba 833d 00bd 5f3a d6dd cd3d 86ea db3d
00000120: 164f fabd 8002 43bb 68a2 d93c a0e0 13bd
00000130: a0d4 48bd 8291 ebbd 1442 86bd 38b2 d6bc
00000140: 2e37 d03d 88c2 a93c 30f6 7dbd b8f2 733d
00000150: 800c 533d b022 973d 9440 a33d 202c 693c
00000160: ee01 8ebd 40c8 48bc d41a 7bbd f03d 3fbc
00000170: 1cc4 d73d 20ca f53b f073 913c e00f 833c
00000180: ba14 db3d 243d 5b3d f056 af3c 90e0 fc3d
00000190: c694 9cbd 78f0 e83d e435 603d 50bf 82bd
000001a0: 709a 063c c2c9 98bd 8085 c0bc b28b e4bd
000001b0: 7e59 fbbd a492 b2bd ae99 a83d bece 8fbd
000001c0: 809c cebc b2bb eabd fcc6 8b3d 5c42 063d
000001d0: 1c1d f9bd b24d ab3d 989c 543d 9ab3 e5bd
000001e0: 3414 3fbd 7856 36bd d0d1 f9bc 7429 623d
000001f0: e44a 1dbd d087 0cbc 8cc8 09bd e080 e63b
00000200: 28aa dbbd 98a0 e53c b059 1d3d 80a9 f63b
00000210: 0c56 233d 6c43 1fbd 18b3 153d d61f a33d
00000220: bae9 d23d acb4 553d e2d2 e1bd 1473 dd3d
00000230: e67e c53d 1046 e8bd 9c88 b13d 9cb8 0abd
00000240: fe93 fbbd 409b 58bc 60ed c33d 785b 273d
00000250: 48c8 27bd 4499 513d 0005 ff3a e442 15bd
00000260: 74ea d3bd c2b8 cc3d c80b d93d 9017 853c
00000270: 88d2 aabc b0fb cc3d 7042 0c3c be9f eebd
00000280: 92dc 9e3d 12f3 f13d c03f e43c 586a a03d
00000290: 28d4 613d 40d9 3bbc 30e0 a9bd eebb d5bd
000002a0: e817 bc3d 90d5 30bc 9089 f3bc 74e4 9fbd
000002b0: 3453 883d 80c2 1e3c 309b 773c 5e1e ecbd
000002c0: 303e 10bd a0aa fb3b 3e13 d33d fc8c 673d
000002d0: 6035 52bc c86c bd3c de07 953d 44fb bdbd
000002e0: b08c c9bd 78f8 25bd 4c57 a4bd 0c8e bcbd
000002f0: 9e7d ea3d e207 c73d 78ea c03d 548c cc3d
00000300: 50c2 0d3d 74e1 e33d 28b0 cdbd e00a 733d
00000310: 0894 1e3d 341c 983d 84cc 1cbd 52e5 a83d
00000320: 9002 73bd 7cf6 34bd 0047 f33a 80bb 8a3a
00000330: dc20 dc3d 8853 73bd 0009 2e3d 5091 e13c
00000340: f8ff 59bd 4499 ce3d baba 83bd 3e42 c0bd
00000350: 80cf e7bb 60ff eabb 2495 933d 10cc eebd
00000360: 901b 31bc fc3d fbbd 2027 f63b 0a93 fabd
00000370: fcf1 db3d f06e b8bd c85d b93c 587b 76bd
00000380: 8c8c 98bd a431 573d 6abe 9fbd 84a2 263d
00000390: 2c1f cdbd 80f0 49bb 0089 ef3a b439 eabd
000003a0: b07a 713d 10e3 4cbd 1865 523d 7a03 f9bd
000003b0: ac80 2e3d d87d 3b3d b0b9 fabd a0f8 c2bb
000003c0: da56 e63d 28f0 debd 08ac 903c f6ab e03d
000003d0: 681b 02bd 8052 273d 60bc 9dbd 400d 843c
000003e0: faa9 e7bd 7497 6d3d 84b5 083d a8f7 1fbd
000003f0: 9aa4 e0bd aa54 8cbd 3603 f6bd 347e 253d

lstm.bias_ih_l0 f4 [256]
-0.02330324 0.048716243 0.04895947 -0.021124052 -0.017804695 0.019043118 -0.06449114 0.043556042
0.05285102 -0.10429714 -0.12311929 0.08005437 -0.059197187 -0.1064808 0.077138126 -0.09712866
-0.12369211 -0.0796488 -0.053564757 0.005992055 -0.057134777 0.040443063 -0.101211116 0.019836895
-0.04772265 -0.03299369 -0.09212035 -0.06773719 0.04130721 -0.012200564 -0.13058251 0.01674059
-0.090841696 0.0072447755 0.10236437 0.06882895 0.07638575 0.014618672 -0.010194211 0.15183672
-0.024733193 0.12372786 0.088943556 0.03106733 0.00022973849 0.089484066 -0.056931704 -0.011132181
-0.012148375 -0.119839266 -0.05946867 0.083327174 0.050940737 0.1103 -0.097445965 0.002829039
-0.042995736 -0.015417611 0.05211854 0.05019451 0.039525684 0.018116787 -0.017979601 -0.0917016
-0.08792439 0.072712004 0.123211816 -0.046809033 0.007298976 0.009952784 -0.1149897 0.015075862
-0.020088375 -0.0056543946 0.020712137 0.11928578 0.056624234 0.1033234 -0.021575645 -0.013739705
0.010646924 -0.024595901 0.07186255 0.058515847 0.084849864 0.06511615 -0.04103987 0.08139554
-0.024013177 0.032504976 -0.08020228 -0.097339764 0.027759075 -0.042373106 0.11738089 0.008415192
0.03540489 -0.08914873 -0.03293802 -0.07829735 -0.09928048 0.12385556 -0.05670917 -0.021441966
0.09489992 -0.05690725 -0.012850329 0.12102872 -0.014116451 0.0129507035 0.09480214 0.074713364
-0.12325226 -0.014059573 -0.0013570637 0.014330536 -0.06536615 0.014255822 0.05131641 0.053417668
0.09217541 -0.008611366 0.09698053 0.093416214 0.092419356 0.11975783 -0.122433156 0.058802187
0.10669246 0.0617744 0.012400195 -0.0069622374 -0.063326925 -0.09592429 -0.06878635 -0.055199932
0.044077463 0.0750203 -0.021397581 0.1011575 0.036624707 0.09137271 0.05632083 -0.030565128
-0.06425479 0.101879805 -0.11865169 -0.03847456 -0.03556323 0.043778017 0.025936235 0.06955929
-0.1182117 0.05797258 -0.02916415 -0.11313683 -0.024879927 -0.056175575 0.0056439936 -0.0074679404
-0.06931865 0.022222191 0.047249243 -0.08021908 0.070122674 -0.1135519 0.028176524 0.074889764
0.02679796 -0.08379257 -0.04524833 0.008331943 -0.10433054 0.100002944 0.115657434 0.04701503
-0.09892544 -0.1095523 -0.03504032 0.10181693 0.08691441 0.049643412 -0.10195651 -0.0155055
0.09525639 0.059124604 0.10188937 -0.11167808 0.10138758 -0.010526657 -0.061542287 0.105437174
0.07681042 0.024524715 0.09404292 0.07885483 -0.027028663 0.07711995 0.03249511 0.058735758
0.10746789 -0.10167749 0.098884314 0.044972695 -0.03018184 -0.05325192 0.001821518 0.01605174
-0.08284413 0.12034247 -0.0075004552 0.052608714 -0.09604108 -0.08295756 0.09406307 0.072564214
0.03915715 0.1156531 0.11045322 -0.020614658 0.13871899 -0.077523574 -0.07710806 -0.065785736
0.053520173 -0.06170225 0.1019171 -0.0006394539 -0.09063388 -0.05278693 -0.03206432 0.03080871
0.05444309 0.048314314 0.10426098 0.06971556 0.045145094 0.055974968 0.020869106 0.050697684
0.05909397 -0.02760504 0.027699776 -0.009986004 -0.0066650757 0.11538644 -0.09383644 0.11156239
-0.07950993 0.060007285 -0.07530281 -0.060783893 -0.02508312 0.09050378 -0.0445431 0.069166124
00000000: 70e6 bebc af8a 473d ba89 483d 590c adbc
00000010: 27db 91bc 5000 9c3c ee13 84bd d267 323d
00000020: 507a 583d bd99 d5bd f725 fcbd 8cf3 a33d
00000030: c078 72bd 9b12 dabd 98fa 9d3d 64eb c6bd
00000040: 4a52 fdbd e91e a3bd b866 5bbd 0059 c43b
00000050: 2806 6abd a0a7 253d c647 cfbd fc80 a23c
00000060: d378 43bd 6424 07bd 98a9 bcbd ccb9 8abd
00000070: c031 293d e0e4 47bc 6cb7 05be 9023 893c
00000080: 360b babd 9565 ed3b 69a4 d13d 31f6 8c3d
00000090: 2270 9c3d 2883 6f3c 9f05 27bc 167b 1b3e
000000a0: 449d cabc 0865 fd3d 0a28 b63d ea80 fe3c
000000b0: f5e5 7039 6c43 b73d 3831 69bd c063 36bc
000000c0: fa09 47bc 4a6e f5bd 6c95 73bd 70a7 aa3d
000000d0: 3ca7 503d f7e4 e13d c091 c7bd 6667 393b
000000e0: 4c1c 30bd 269a 7cbc 407a 553d c298 4d3d
000000f0: afe5 213d a869 943c f549 93bc 0cce bbbd
00000100: b411 b4bd 08ea 943d 7a56 fc3d d4ba 3fbd
00000110: 402c ef3b 0011 233c b87f ebbd c000 773c
00000120: 6090 a4bc 8048 b9bb 80ac a93c 1a4c f43d
00000130: d0ee 673d 389b d33d 68bf b0bc 801c 61bc
00000140: 7070 2e3c 587d c9bc ac2c 933d 50ae 6f3d
00000150: c4c5 ad3d 9e5b 853d 6c19 28bd b4b2 a63d
00000160: 48b7 c4bc f023 053d 1841 a4bd 125a c7bd
00000170: 0067 e33c 6c8f 2dbd 6465 f03d e0df 093c
00000180: b804 113d 9c93 b6bd 04ea 06bd 5c5a a0bd
00000190: 9053 cbbd fca7 fd3d e047 68bd 10a7 afbc
000001a0: e45a c23d 9417 69bd 308a 52bc e8dd f73d
000001b0: b048 67bc 302f 543c a027 c23d 5203 993d
000001c0: ae6b fcbd 205a 66bc 80df b1ba a0ca 6a3c
000001d0: b0de 85bd 4091 693c 2831 523d 7ccc 5a3d
000001e0: 76c6 bc3d b016 0dbc ba9d c63d 0051 bf3d
000001f0: 5c46 bd3d 9843 f53d 3cbe fabd 90da 703d
00000200: 9481 da3d 2707 7d3d 302a 4b3c 7b23 e4bb
00000210: 8cb1 81bd f473 c4bd dcdf 8cbd 5319 62bd
00000220: 928a 343d 3ea4 993d fb49 afbc aa2b cf3d
00000230: ca03 163d 9e21 bb3d acb0 663d b863 fabc
00000240: 0498 83bd 5ca6 d03d a8ff f2bd 8097 1dbd
00000250: c0aa 11bd 9450 333d 3a78 d43c 1a75 8e3d
00000260: fa18 f2bd a874 6d3d a8e9 eebc 48b4 e7bd
00000270: fdd0 cbbc 5c18 66bd 40f1 b83b a0b5 f4bb
00000280: f0f6 8dbd 500b b63c 6c88 413d e749 a4bd
00000290: 7a9c 8f3d e68d e8bd 74d2 e63c ce5f 993d
000002a0: 6587 db3c 709b abbd 5056 39bd b482 083c
000002b0: 40ab d5bd 58ce cc3d cedd ec3d d592 403d
000002c0: 6c99 cabd f55c e0bd 7086 0fbd 6585 d03d
000002d0: 2f00 b23d e456 4b3d 93ce d0bd c80a 7ebc
000002e0: c815 c33d a42c 723d 60ab d03d 7ab7 e4bd
000002f0: 4ba4 cf3d 0078 2cbc c413 7cbd 72ef d73d
00000300: c84e 9d3d 0ee8 c83c 9399 c03d a47e a13d
00000310: 376b ddbc 10f1 9d3d 9819 053d e894 703d
00000320: 2018 dc3d 4a3c d0bd dc83 ca3d 4a35 383d
00000330: e83f f7bc af1e 5abd 00c0 ee3a f07e 833c
00000340: 2faa a9bd 1d76 f63d 61c6 f5bb 3c7c 573d
00000350: 30b1 c4bd a7e5 a9bd 24a4 c03d 8c9c 943d
00000360: 3f63 203d 88db ec3d 4c35 e23d 12e0 a8bc
00000370: 5a0c 0e3e aec4 9ebd d5ea 9dbd acba 86bd
00000380: f837 5b3d 80bb 7cbd eab9 d03d 06a1 27ba
00000390: 419e b9bd 1c37 58bd e055 03bd 8c62 fc3c
000003a0: b8ff 5e3d 3be5 453d c886 d53d 08c7 8e3d
000003b0: 10ea 383d 0246 653d b0f5 aa3c 60a8 4f3d
000003c0: 850c 723d f723 e2bc a4ea e23c 569c 23bc
000003d0: b566 dabb ba4f ec3d 522d c0bd d37a e43d
000003e0: 1ad6 a2bd 33ca 753d 5c38 9abd 88f8 78bd
000003f0: 1e7b cdbc 0c5a b93d d372 36bd f8a6 8d3d

lstm.bias_hh_l0 f4 [256]
-0.020738631 0.052454676 -0.087328844 0.010079669 -0.11358775 0.02080366 0.06261885 -0.09641013
-0.11905266 0.08196855 -0.07152236 -0.026931763 0.07777327 0.08591486 -0.023464128 0.09989478
0.047042787 0.1038328 0.03982921 0.09657736 -0.057723925 0.10878958 0.055833943 0.09773493
-0.097397566 -0.02435784 0.12117465 0.02800487 -0.038105592 0.07678446 0.05872969 -0.06190774
-0.10266012 0.001585374 0.051328637 0.047188703 -0.06258145 0.064514145 0.11640142 -0.025387779
-0.105483726 -0.0791475 0.09798746 0.075148076 -0.04246197 0.09361304 -0.0024198443 0.0073806345
0.117900945 -0.0841199 -0.011323109 0.03197202 0.04850672 -0.10925234 -0.012244061 -0.038757093
0.09849171 -0.049077906 0.010438666 -0.049922246 -0.13416044 0.04153204 0.09741515 0.070591345
0.02814591 0.07466607 -0.11344871 0.027486533 0.050686955 -0.11995734 0.013415873 -0.05065067
-0.03964834 -0.1193099 0.022511616 0.10997772 -0.0422408 -0.009272128 -0.070909455 0.06782243
-0.091471046 -0.09493989 0.04952216 0.11680916 0.052593514 -0.020103589 -0.1144668 -0.034449443
-0.066546544 -0.052258343 -0.010103792 0.07791181 -0.04601112 0.017846197 -0.054984465 0.054275915
0.05246325 -0.05495979 -0.10222447 0.0740947 -0.10911389 0.098877385 0.10186313 -0.00033640862
-0.10505414 -0.008938521 -0.041944876 0.036933303 0.114127174 0.10909882 0.08557092 -0.0063235313
0.104022086 -0.013903543 0.002065435 -0.12478216 0.12442365 0.086183295 0.122236416 -0.012305871
-0.04513611 -0.05066572 -0.054112315 -0.0994481 0.116699874 -0.12194978 0.10788813 -0.094996706
-0.025665596 0.021476097 0.124924645 0.016549498 0.11175391 -0.03167118 0.03484428 -0.037537847
0.08191041 0.12539527 -0.062226802 -0.11460051 -0.07879141 -0.12037656 -0.100158945 -0.06811671
-0.07508516 -0.07678765 0.00038926303 0.08641362 0.037624195 -0.05004534 -0.036519166 0.077145435
-0.016554227 -0.1174207 -0.042421624 0.029560281 0.0037271378 0.07176891 0.116869494 -0.057556793
-0.09503053 -0.044277877 -0.057957664 -0.030939609 0.10662489 0.036726333 0.11506056 0.11611773
-0.12967664 0.07377055 0.082148716 0.09319314 0.065641105 -0.06343897 0.11363925 0.021546721
0.046178296 0.07233498 0.059003845 -0.06528779 -0.0929837 0.082537346 -0.026143676 -0.07918056
-0.021661684 -0.093580626 0.0944657 0.07137029 0.14229399 -0.106549785 0.044697706 -0.025672331
0.052108005 0.11388594 -0.09590494 -0.09809491 -0.017522408 -0.1215501 -0.11386846 -0.02554315
-0.060891442 -0.09747851 -0.059583172 0.12384565 0.08382243 0.12084538 0.041614786 -0.03424932
-0.09705249 0.08957616 0.09105718 0.044195086 0.007434667 0.071264885 0.018395022 -0.049172863
0.00021068464 0.07978052 -0.02069366 -0.023523172 0.032606836 0.004664615 -0.030676128 -0.058022574
-0.048253804 0.10651697 0.07793164 0.1237668 0.0018944518 0.11905568 0.0011257731 0.015879434
0.08777143 0.041264594 0.034302764 0.03909936 0.041801497 0.002576113 -0.038808018 -0.02529341
-0.06319216 -0.011186408 0.07302507 -0.08096488 0.07982724 -0.06531672 -0.05647787 -0.112966485
0.033959165 0.09173437 0.09042987 -0.106732264 0.146438 0.1178305 0.116612 0.112710506
00000000: 10e4 a9bc b7da 563d 77d9 b2bd 3225 253c
00000010: b2a0 e8bd 706c aa3c 503e 803d ad72 c5bd
00000020: e2d1 f3bd 21df a73d 517a 92bd 00a0 dcbc
00000030: 9847 9f3d 21f4 af3d d837 c0bc a295 cc3d
00000040: f0af 403d 4ba6 d43d f423 233d 5aca c53d
00000050: ec6f 6cbd 12cd de3d 22b2 643d 4029 c83d
00000060: 6078 c7bd 188a c7bc 6a2a f83d 786a e53c
00000070: 9c14 1cbd 2c41 9d3d 8b8e 703d f892 7dbd
00000080: 783f d2bd 53cc cf3a fa3d 523d f148 413d
00000090: b42a 80bd fe1f 843d de63 ee3d 08fa cfbc
000000a0: da07 d8bd 1618 a2bd a6ad c83d 3ce7 993d
000000b0: 9aec 2dbd 32b8 bf3d 4096 1ebb 40d9 f13b
000000c0: 0d76 f13d 0e47 acbd 9084 39bc 18f5 023d
000000d0: fcae 463d b1bf dfbd 509b 48bc c2bf 1ebd
000000e0: 06b6 c93d ea05 49bd f006 2b3c 457b 4cbd
000000f0: 5b61 09be 801d 2a3d 9881 c73d 3292 903d
00000100: 4092 e63c 86ea 983d cc57 e8bd 702b e13c
00000110: 209d 4f3d 32ac f5bd 40ce 5b3c 1477 4fbd
00000120: 4c66 22bd c058 f4bd 486a b83c 003c e13d
00000130: b004 2dbd 20ea 17bc fa38 91bd 7ce6 8a3d
00000140: 2c55 bbbd d86f c2bd c0d7 4a3d a439 ef3d
00000150: 4c6c 573d 48b0 a4bc 926d eabd dc1a 0dbd
00000160: 8e49 88bd d80c 56bd 608a 25bc 3a90 9f3d
00000170: 2876 3cbd 3032 923c 6437 61bd 6c50 5e3d
00000180: b4e3 563d 841d 61bd 105b d1bd f6be 973d
00000190: 1a77 dfbd 3a80 ca3d 9e9d d03d 0060 b0b9
000001a0: a026 d7bd e072 12bc 64ce 2bbd 6047 173d
000001b0: 82bb e93d 346f df3d ce3f af3d a035 cfbb
000001c0: 8809 d53d b0cb 63bc 405c 073b ca8d ffbd
000001d0: d4d1 fe3d de80 b03d 1657 fa3d 909e 49bc
000001e0: a4e0 38bd dc86 4fbd e0a4 5dbd 72ab cbbd
000001f0: 5800 ef3d cec0 f9bd 74f4 dc3d a28d c2bd
00000200: a840 d2bc a4ee af3c 7ed8 ff3d d092 873c
00000210: 3cdf e43d a4b9 01bd e0b8 0e3d 49c1 19bd
00000220: a5c0 a73d 9e67 003e 88e1 7ebd acb3 eabd
00000230: 645d a1bd fc87 f6bd 2220 cdbd c680 8bbd
00000240: 40c6 99bd d842 9dbd 0016 cc39 a0f9 b03d
00000250: d41b 1a3d 58fc 4cbd 1f95 15bd 6dfe 9d3d
00000260: bb9c 87bc 447a f0bd 4cc2 2dbd 6728 f23c
00000270: ff42 743b 94fb 923d 4659 ef3d acc0 6bbd
00000280: 5e9f c2bd b85c 35bd 0465 6dbd 1075 fdbc
00000290: 265e da3d 5a6e 163d dfa4 eb3d 22cf ed3d
000002a0: f4c9 04be 0415 973d 963d a83d 0cdc be3d
000002b0: d86e 863d 4aec 81bd b2bb e83d c082 b03c
000002c0: 7425 3d3d 5d24 943d 04ae 713d 9bb5 85bd
000002d0: 3d6e bebd 5709 a93d 432b d6bc 6b29 a2bd
000002e0: d873 b1bc 33a7 bfbd 3c77 c13d 962a 923d
000002f0: 84b5 113e c636 dabd f114 373d c84e d2bc
00000300: 346f 553d 083d e93d cf69 c4bd fce5 c8bd
00000310: 278b 8fbc 42ef f8bd de33 e9bd de3f d1bc
00000320: 4e69 79bd d0a2 c7bd 7c0d 74bd caa2 fd3d
00000330: 18ab ab3d c87d f73d 4474 2a3d 0449 0cbd
00000340: 75c3 c6bd b573 b73d 307c ba3d e805 353d
00000350: 829e f33b 53f3 913d 28b1 963c 7c69 49bd
00000360: 3aeb 5c39 f863 a33d c085 a9bc abb3 c0bc
00000370: bf8e 053d a0d9 983b 814c fbbc 14a9 6dbd
00000380: c8a5 45bd 9225 da3d a09a 9f3d 7379 fd3d
00000390: 414f f83a 77d3 f33d ad8e 933a 9615 823c
000003a0: 82c1 b33d 1005 293d 0e81 0c3d a726 203d
000003b0: 0c38 2b3d 01d4 283b 28f5 1ebd 2034 cfbc
000003c0: e46a 81bd 3247 37bc 2b8e 953d ead0 a5bd
000003d0: 777c a33d c6c4 85bd 5755 67bd f95a e7bd
000003e0: c418 0b3d 3bdf bb3d 4c33 b93d 7296 dabd
000003f0: d8f3 153e 1e51 f13d 46d2 ee3d c4d4 e63d

fc.weight f4 [2, 64]
-0.026789635 -4.31456 -4.2117915 4.4452953 -0.053591926 -0.11106508 0.04636763 4.301964
-4.183952 4.357168 0.0023991966 -0.07650442 -4.3729143 -4.3282275 -0.039227903 0.10904324
-0.10011085 -4.329819 0.05649738 0.027982324 0.03532145 -9.0975526e-08 -4.3245387 4.3277936
-4.367036 -0.006732896 -0.03379801 -4.2241707 4.359093 0.055416793 -0.0044087847 0.078147665
4.3086257 0.10696492 -0.018818554 2.5783257 -4.1875157 4.4296227 -4.2816854 4.5016766
-4.3656926 -4.5781703 0.007966209 4.262561 0.11633781 -0.09934366 0.08933984 -4.347437
-0.06812481 4.3792243 4.393465 0.055902347 0.11100984 0.046778228 4.178568 4.3501472
0.10614343 4.4186826 0.107330844 0.017154094 -0.00030401454 0.027159438 4.2660556 -0.092547506
-0.11891684 -13.792705 -13.841966 13.795878 -0.083743006 0.024611635 -0.020353869 13.806767
-13.822013 13.779461 0.019239193 0.0850642 -13.756959 -13.83649 0.10396157 0.08835326
0.059495922 -13.820437 0.04479683 -0.11112264 -0.053423576 196.69861 -13.762507 13.822087
-13.842267 -0.023815349 -0.036337838 -13.744353 13.838789 0.034368783 0.006307997 0.06977935
13.855485 0.060713336 0.081897795 -16.335886 -13.85911 13.7541 -13.827017 13.854317
-13.7706995 -13.908589 -0.01659504 13.837693 -0.029179959 0.11576327 0.027601033 -13.794283
0.07896789 13.819064 13.719261 -0.11454829 0.08740317 0.086524785 13.736264 13.830228
0.040365845 13.777653 -0.0137836635 0.048245437 0.023272237 0.08468512 13.744115 -0.078831896
00000000: f075 dbbc e010 8ac0 ffc6 86c0 dc3f 8e40
00000010: 3583 5bbd 1776 e3bd fceb 3d3d b0a9 8940
00000020: efe2 85c0 ec6d 8b40 d73b 1d3b 59ae 9cbd
00000030: eaee 8bc0 d780 8ac0 70ad 20bd 1052 df3d
00000040: eb06 cdbd e18d 8ac0 cc69 673d 303b e53c
00000050: 3aad 103d 535e c3b3 9f62 8ac0 497d 8a40
00000060: c2be 8bc0 a09f dcbb c86f 0abd 682c 87c0
00000070: b17d 8b40 b8fc 623d 9177 90bb e20b a03d
00000080: 43e0 8940 6d10 db3d 5e29 9abc 4a03 2540
00000090: 2100 86c0 78bf 8d40 9103 89c0 bc0d 9040
000000a0: c1b3 8bc0 5f80 92c0 b484 023c e666 8840
000000b0: 8542 ee3d b074 cbbd cef7 b63d 341e 8bc0
000000c0: 0585 8bbd 9b22 8c40 4497 8c40 dcf9 643d
000000d0: 2159 e33d 879a 3f3d d4b6 8540 6834 8b40
000000e0: ba61 d93d d965 8d40 46d0 db3d be86 8c3c
000000f0: 2464 9fb9 787d de3c 8783 8840 8c89 bdbd
00000100: ac8a f3bd ebae 5cc1 b178 5dc1 ebbb 5c41
00000110: 7481 abbd 579e c93c 28bd a6bc 85e8 5c41
00000120: f726 5dc1 ac78 5c41 839b 9d3c 2436 ae3d
00000130: 811c 5cc1 4362 5dc1 cee9 d43d 8ef2 b43d
00000140: ffb1 733d 8320 5dc1 e17c 373d 4494 e3bd
00000150: aed2 5abd d8b2 4443 3b33 5cc1 4527 5d41
00000160: ed79 5dc1 6818 c3bc fcd6 14bd dfe8 5bc1
00000170: ae6b 5d41 48c6 0c3d 50b3 ce3b 7ae8 8e3d
00000180: 11b0 5d41 8cae 783d 08ba a73d e5af 82c1
00000190: eabe 5dc1 cb10 5c41 763b 5dc1 48ab 5d41
000001a0: c954 5cc1 9589 5ec1 52f2 87bc 3167 5d41
000001b0: cf0a efbc 4b15 ed3d 901b e23c 62b5 5cc1
000001c0: ebb9 a13d e31a 5d41 1882 5b41 4b98 eabd
000001d0: 6f00 b33d e833 b13d bdc7 5b41 9d48 5d41
000001e0: a856 253d 4471 5c41 e0d4 61bc 029d 453d
000001f0: 6ba5 be3c 646f ad3d e5e7 5b41 9e72 a1bd

fc.bias f4 [2]
4.269553 13.829713
00000000: 2ea0 8840 8146 5d41
